models/checkpoints/tcn_baseline.pt (torch, 223713 bytes, 41 tensors)

tcn.0.conv1.conv.weight f4 [32, 16, 3]
-0.047285676 0.25356713 -0.15153125 -0.088815436 0.1347486 -0.11075963 -0.11002387 -0.03471667
0.05536726 0.009363534 -0.1220192 0.10744371 -0.08701874 -0.100128755 0.09435224 0.08268832
0.14329353 -0.18381028 -0.07751511 0.12653697 -0.16518818 -0.009239962 0.04899652 0.05689654
0.085270956 0.07105287 -0.03821297 -0.048594035 -0.13081175 -0.03320525 -0.10742506 0.015020581
-0.028132008 0.0013027594 -0.07790278 0.14054099 -0.033568792 -0.09271039 0.10777436 0.023263363
-0.13927704 -0.061247624 -0.052930783 0.03283141 -0.14621225 0.097353116 0.17219388 0.1406366
-0.09612142 -0.18857357 0.5300033 -0.03433951 -0.06549724 0.071846224 -0.09944235 0.16306098
0.08204533 0.07543508 -0.04517483 0.01595408 -0.053508837 0.100508064 -0.1302856 -0.13679671
0.056236506 0.045481157 0.05291541 -0.18151592 0.08633197 -0.012190998 -0.115645766 0.09362222
0.15172292 0.056062724 -0.08290885 -0.09449101 0.17066854 0.006607669 -0.08689105 -0.019807708
-0.0701218 0.0986901 0.04109597 0.0134491995 0.011334372 -0.004139569 0.07474408 0.06749183
0.024952946 -0.12494305 0.014123816 0.120284386 -0.0061755315 0.14421086 0.14264242 -0.03586395
-0.014848697 0.03447214 0.0006974275 -0.049381398 -0.10491055 0.08590043 -0.067017205 0.10325558
0.088193156 0.083889894 -0.04072018 0.1467986 -0.062354073 -0.071648024 -0.049572803 0.10344539
0.059879333 0.1877902 0.16769826 -0.00291125 0.10566444 0.11183941 -5.9923448e-05 -0.04898391
0.1269542 0.056866966 -0.044051036 0.006192479 0.0017226948 0.08837092 0.09436155 -0.09399276
0.062033627 0.12897019 -0.080417044 -0.025513973 -0.04741063 -0.10244545 0.008855204 0.129027
0.12450427 0.11645914 0.05942069 0.059119783 -0.03254319 0.17673267 0.08793035 0.0808878
-0.13253392 -0.26797664 -0.26820147 -0.018279755 0.022945741 0.1651436 -0.056276727 0.037275802
0.19509909 -0.06643321 -0.11284104 0.063464984 0.01111064 -0.03663825 -0.03563254 -0.043035768
0.12660481 0.16891672 0.04825726 0.18225698 0.23155409 0.22327057 0.032304294 0.039718278
-0.05429223 -0.105619416 -0.017493378 0.062397182 0.11424177 0.11468609 0.06958648 -0.115100995
-0.0062180315 0.07580223 -0.034811843 -0.036541 -0.11768958 -0.17680947 -0.0039984505 0.10402918
0.015052935 -0.018473538 -0.120041095 -0.07533625 0.10352432 0.0636015 -0.13491878 0.060562104
-0.059522383 -0.20390888 0.43026075 0.09873428 -0.046283465 0.08884374 -0.06285374 0.085346036
-0.10134238 -0.11317834 0.05728166 0.037898954 0.037575353 -0.11921511 0.046554904 -0.06498042
-0.19297308 0.1352649 -0.07202109 -0.21520439 0.043655105 0.113461666 -0.14714745 0.058152385
0.0433343 -0.0681267 0.04468221 0.029927708 0.019096348 0.014390233 -0.023345454 -0.009044382
-0.03075884 -0.046001818 -0.11185291 -0.07240698 -0.16911805 -0.06446096 0.025123995 -0.069793165
-0.066922694 0.038719013 0.11801737 -0.024675844 -0.064749315 -0.10400183 0.12406583 -0.047117125
0.101777345 0.12829089 -0.30616975 -0.006036578 0.14176083 0.024337303 -0.09181513 -0.06341668
-0.06507497 0.0517723 0.089110434 -0.12508735 0.015302537 0.042756576 0.111621186 0.13262823
00000000: a0ae 41bd 8dd3 813e 022b 1bbe dee4 b5bd
00000010: 89fb 093e f2d5 e2bd 3254 e1bd 1133 0ebd
00000020: c8c8 623d 8269 193c 34e5 f9bd 730b dc3d
00000030: e236 b2bd 4e10 cdbd bf3b c13d 7e58 a93d
00000040: 8abb 123e c338 3cbe 3ec0 9ebd e892 013e
00000050: 1727 29be 3663 17bc 93b0 483d 590c 693d
00000060: 8aa2 ae3d 2b84 913d 3485 1cbd 8a0a 47bd
00000070: 84f3 05be 3a02 08bd ab01 dcbd e218 763c
00000080: 1975 e6bc 5ac1 aa3a 7e8b 9fbd fae9 0f3e
00000090: 6e7f 09bd f2de bdbd ceb8 dc3d cf92 be3c
000000a0: a49e 0ebe cade 7abd f3cd 58bd 3b7a 063d
000000b0: aab8 15be 1261 c73d 9853 303e 0a03 103e
000000c0: 4fdb c4bd 6e19 41be 4cae 073f 96a7 0cbd
000000d0: 6b23 86bd 1d24 933d 6ea8 cbbd 75f9 263e
000000e0: 6207 a83d b57d 9a3d 3e09 39bd 21b2 823c
000000f0: 152c 5bbd 2cd7 cd3d 9769 05be 7014 0cbe
00000100: 4058 663d 734a 3a3d d4bd 583d 4fdf 39be
00000110: d1ce b03d c0bc 47bc b0d7 ecbd 02bd bf3d
00000120: 415d 1b3e 07a2 653d 1dcc a9bd 8184 c1bd
00000130: bcc3 2e3e 2585 d83b eff3 b1bd c643 a2bc
00000140: 059c 8fbd 091e ca3d 3f54 283d 085a 5c3c
00000150: cdb3 393c 39a5 87bb 6d13 993d 2839 8a3d
00000160: 1f6a cc3c 24e2 ffbd 9467 673c a957 f63d
00000170: 1d5c cabb 03ac 133e db10 123e 14e6 12bd
00000180: f347 73bc a932 0d3d 91d3 363a 2644 4abd
00000190: 58db d6bd 91ec af3d 5140 89bd a977 d33d
000001a0: 9d9e b43d 77ce ab3d 34ca 26bd 5f52 163e
000001b0: fc66 7fbd 33bc 92bd da0c 4bbd 2ddb d33d
000001c0: 0844 753d 134c 403e 18b9 2b3e acca 3ebb
000001d0: 9966 d83d 100c e53d 5056 7bb8 5aa3 48bd
000001e0: 4800 023e 56ed 683d dc6e 34bd 47ea ca3b
000001f0: 0ccc e13a d0fb b43d a140 c13d 477f c0bd
00000200: f916 7e3d c310 043e b1b1 a4bd ae02 d1bc
00000210: a631 42bd ecce d1bd 6b15 113c a71f 043e
00000220: 18fc fe3d 2182 ee3d 1c63 733d 9627 723d
00000230: 024c 05bd 69f9 343e d414 b43d 81a8 a53d
00000240: f9b6 07be 3c34 89be b451 89be 6dbf 95bc
00000250: b5f8 bb3c 671b 293e 6d82 66bd 83ae 183d
00000260: 0ec8 473e 230e 88bd 3419 e7bd eef9 813d
00000270: 6709 363c fd11 16bd 6df3 11bd 4646 30bd
00000280: b1a4 013e 81f8 2c3e 68a9 453d 93a1 3a3e
00000290: 841c 6d3e 0aa1 643e 8251 043d a2af 223d
000002a0: 8861 5ebd fe4e d8bd 464e 8fbc 3094 7f3d
000002b0: 97f7 e93d 8ae0 ea3d 5b83 8e3d 12ba ebbd
000002c0: a1c0 cbbb 333e 9b3d dd96 0ebd 04ac 15bd
000002d0: 3c07 f1bd 8b0d 35be 6f05 83bb 400d d53d
000002e0: 96a0 763c d155 97bc 1bd8 f5bd e449 9abd
000002f0: 8f04 d43d 8141 823d 2628 0abe f80f 783d
00000300: becd 73bd 7dcd 50be 234b dc3e 3335 ca3d
00000310: bb93 3dbd b5f3 b53d 76b9 80bd e7c9 ae3d
00000320: 988c cfbd 0cca e7bd 2da0 6a3d ef3b 1b3d
00000330: 9de8 193d 0d27 f4bd 5bb0 3e3d 7414 85bd
00000340: bc9a 45be e282 0a3e cb7f 93bd 8a5e 5cbe
00000350: b2cf 323d 975e e83d d2ad 16be 3231 6e3d
00000360: 4f7f 313d 0386 8bbd b104 373d f42a f53c
00000370: f26f 9c3c 03c5 6b3c f73e bfbc e32e 14bc
00000380: f6f9 fbbc 676c 3cbd 2313 e5bd 1c4a 94bd
00000390: 482d 2dbe 1c04 84bd d6d0 cd3c b8ef 8ebd
000003a0: c40e 89bd d497 1e3d 17b3 f13d ff24 cabc
000003b0: 4a9b 84bd e9fe d4bd 3a16 fe3d e3fd 40bd
000003c0: a470 d03d b05e 033e 48c2 9cbe 7dce c5bb
000003d0: c029 113e 065f c73c 9209 bcbd 9be0 81bd
000003e0: 0746 85bd 310f 543d 887f b63d e616 00be
000003f0: 7eb7 7a3c 8521 2f3d a699 e43d b2cf 073e

tcn.0.conv1.conv.bias f4 [32]
0.10931278 0.02743719 -0.13595787 0.0943516 0.041606274 -0.0058516925 0.13565405 0.024740899
0.07083155 -0.13813986 -0.04681083 0.019551497 0.065179065 -0.14581604 -0.088419296 -0.11633489
-0.04514879 -0.0798262 0.13877013 0.05676635 0.13707583 -0.052302115 -0.12745562 0.08193748
-0.084981814 0.019328944 -0.08437417 -0.095383726 0.10322598 -0.13895403 -0.045165703 -0.044079177
00000000: 61df df3d f5c3 e03c 8a38 0bbe 693b c13d
00000010: 576b 2a3d 8ebf bfbb e5e8 0a3e 6dad ca3c
00000020: 2210 913d 8974 0dbe b6bc 3fbd 762a a03c
00000030: 9a7c 853d cd50 15be 2d15 b5bd fd40 eebd
00000040: f0ed 38bd eb7b a3bd c219 0e3e d583 683d
00000050: 9b5d 0c3e be3a 56bd ba83 02be d6ce a73d
00000060: f20a aebd bc57 9e3c 5dcc acbd 8b58 c3bd
00000070: 2568 d33d f749 0ebe acff 38bd 5e8c 34bd

tcn.0.bn1.weight f4 [32]
0.89992356 1.0410374 0.86513686 1.047412 0.93136454 1.0165834 0.97396636 1.1084282
0.9081343 0.8251745 1.025331 1.3414879 0.98888445 0.8643943 1.1050365 1.0603238
0.9329634 0.8989157 1.0066855 0.92349356 0.93457186 0.907267 0.8536693 0.844401
0.8119313 0.8562976 1.0723904 1.024819 1.159341 0.884642 0.8633224 1.3076153
00000000: 6461 663f b740 853f 9c79 5d3f 9911 863f
00000010: e86d 6e3f 681f 823f dc55 793f fae0 8d3f
00000020: 7d7b 683f a33e 533f 0c3e 833f e0b5 ab3f
00000030: 8827 7d3f f248 5d3f d671 8d3f b1b8 873f
00000040: b0d6 6e3f 571f 663f 12db 803f 136a 6c3f
00000050: 1a40 6f3f a642 683f 128a 5a3f aa2a 583f
00000060: bbda 4f3f 5236 5b3f 1744 893f 452d 833f
00000070: 4965 943f e677 623f b202 5d3f f05f a73f

tcn.0.bn1.bias f4 [32]
-0.11165909 -0.040848847 -0.16975224 -0.08678638 -0.1353949 -0.056591853 -0.07086723 0.11344148
-0.19537033 -0.22235465 -0.27070728 -0.0761498 -0.052638933 -0.0106275175 -0.1789378 0.07116135
-0.20318192 -0.042941555 -0.054047246 -0.036060963 -0.13015951 -0.09823271 -0.12073301 -0.14271888
-0.2072046 -0.102823175 -0.17506044 -0.02115227 -0.24595954 -0.11434632 -0.15370086 0.43837303
00000000: 85ad e4bd 1f51 27bd 88d3 2dbe 0fbd b1bd
00000010: f6a4 0abe dccc 67bd d722 91bd 0254 e83d
00000020: 290f 48be f0b0 63be 259a 8abe 6df4 9bbd
00000030: ec9b 57bd 0a1f 2ebc 783b 37be 0bbd 913d
00000040: ec0e 50be 7ce3 2fbd a560 5dbd a9b4 13bd
00000050: 8948 05be 3b2e c9bd de42 f7bd e624 12be
00000060: 712d 54be f594 d2bd 0b43 33be 8647 adbc
00000070: d1dc 7bbe 672e eabd c263 1dbe 6e72 e03e

tcn.0.bn1.running_mean f4 [32]
-0.37462568 -0.2453695 3.2399237 4.4762774 -1.6769115 2.185591 1.4434068 -0.8961691
3.4799001 -0.13267243 2.7954888 0.53069913 4.503725 -1.9756507 0.4958964 -0.3098076
1.558121 1.0208596 2.4348195 1.5444641 1.4091147 2.2926714 -3.818634 -1.823741
0.036195792 -0.9560272 0.909873 -0.022023872 0.2613011 0.9518156 -1.9203863 0.088006094
00000000: f0ce bfbe 2442 7bbe e95a 4f40 aa3d 8f40
00000010: 09a5 d6bf b9e0 0b40 8ec1 b83f 576b 65bf
00000020: afb6 5e40 48db 07be 4ae9 3240 e6db 073f
00000030: 841e 9040 1fe2 fcbf 22e6 fd3e 1a9f 9ebe
00000040: 8270 c73f 87ab 823f 15d4 1b40 00b1 c53f
00000050: df5d b43f 21bb 1240 8064 74c0 5870 e9bf
00000060: 0a42 143d 33be 74bf 70ed 683f 686b b4bc
00000070: 42c9 853e 30aa 733f 38cf f5bf 8a3c b43d

tcn.0.bn1.running_var f4 [32]
0.83337 0.36395964 4.1540465 3.1281786 1.1462282 2.6958044 7.977022 0.68982846
3.9676056 3.8241868 1.5597078 0.6438309 4.308996 1.0977503 1.5061547 0.61606467
2.1581929 0.62879086 6.1971145 4.3084793 4.9604144 1.1790562 5.740064 1.095478
0.6860288 3.7095838 1.7778352 0.45865488 1.1143839 0.98898244 3.837199 0.07355006
00000000: bc57 553f eb58 ba3e f3ed 8440 1434 4840
00000010: 9bb7 923f 0f88 2c40 c443 ff40 9998 303f
00000020: 40ed 7d40 7abf 7440 81a4 c73f 1ad2 243f
00000030: 4ce3 8940 1583 8c3f adc9 c03f 6ab6 1d3f
00000040: d51f 0a40 70f8 203f c34e c640 10df 8940
00000050: b7bb 9e40 50eb 963f 9bae b740 a038 8c3f
00000060: 959f 2f3f d269 6d40 1b90 e33f d0d4 ea3e
00000070: 22a4 8e3f f42d 7d3f ab94 7540 6aa1 963d

tcn.0.conv2.conv.weight f4 [32, 32, 3]
-0.12116938 -0.06436033 -0.031935092 0.08239782 0.032435235 0.07212202 0.057532474 0.044975396
-0.091079555 0.056453794 -0.04833661 -0.103624344 -0.088991836 -0.016378192 -0.009507076 0.103810824
0.091322884 0.057721652 0.100832894 -0.016873041 -0.085339114 0.0407362 -0.15201007 -0.044816334
0.07151809 -0.1015982 0.097918406 0.11684893 0.1358873 -0.016413815 -0.07050589 0.06329843
-0.07100783 -0.08156326 0.124182925 0.10157629 -0.105242245 -0.06321467 -0.09887371 -0.014351027
-0.13991086 -0.06356652 0.11057268 0.036784973 0.050033312 0.12442776 0.08098551 -0.090898484
-0.07362815 0.010288877 0.04799263 -0.030853605 0.073345244 -0.004628185 0.043990787 0.07804502
-0.03174676 0.0974528 0.027088976 0.019657793 0.08651501 0.003045726 -0.057041943 0.072491914
-0.09118176 -0.03810619 -0.008542959 -0.018547218 -0.09315112 0.06435004 0.0047358847 0.03653602
-0.10411602 0.022624148 0.081820786 -0.040146865 0.037638795 0.10555448 -0.05888023 0.11887758
-0.008563864 -0.023401389 -0.07248601 -0.0966522 0.06699931 0.07502405 -0.04585957 -0.04929486
0.002683669 -0.06109625 0.15177256 0.013513985 -0.04817787 0.06782424 -0.12300885 0.11529615
-0.08535848 0.030541435 -0.13921578 -0.09460644 0.006142563 0.09128411 0.012969773 -0.054506242
-0.077608414 -0.020122595 -0.08116049 -0.07991035 -0.12489936 -0.01764593 0.070504725 0.021949707
0.0135936765 -0.12370526 0.06478355 -0.011914727 0.009791061 -0.037621193 0.12968579 -0.2052808
-0.06571498 0.05248952 -0.017149193 -0.03182358 0.003518802 -0.03349533 -0.09293088 0.00317947
-0.10252044 -0.048686948 0.017656505 0.13543692 0.031106513 -0.0019961766 0.03035514 -0.03859071
0.021692872 -0.11162989 -0.07567381 -0.12746103 0.09843264 -0.0063910377 -0.038151182 0.06501547
-0.13313714 0.016116459 0.06136105 -0.11153396 -0.09178427 -0.10554076 0.013902361 -0.04168153
0.059347875 -0.008495514 0.08863149 0.0003447638 -0.0017809155 -0.019416256 -0.03669501 -0.15893911
-0.010728831 0.012976241 -0.14667621 -0.08510336 -0.053981144 -0.21284929 -0.072447225 0.03451282
-0.09571229 0.059563752 0.037894133 -0.0072175353 0.052922435 0.038146272 -0.03796042 -0.008995128
0.11044413 0.00295357 0.05272305 -0.17026126 -0.07662573 0.043156132 0.07780996 0.045668837
0.0044872486 -0.07373248 0.087298654 -0.06862592 0.07875901 -0.03157468 -0.100849494 0.13231686
0.028190065 -0.0049368483 0.0067117023 -0.030789064 -0.02947855 2.675716e-05 0.046817437 0.01707251
-0.07157203 0.022678534 0.033943232 0.00820466 0.015529261 0.03480665 0.19127414 -0.0059369607
-0.058394354 -0.09389636 -0.09289768 -0.051128745 0.0015062074 -0.032540437 0.19694 0.080595165
-0.09430593 -0.08653094 0.023777736 0.040163483 0.008042482 0.036365367 -0.109417886 -0.076565206
-0.015471869 0.018033164 -0.14243051 -0.118730016 0.08426226 0.050973482 -0.029344281 -0.031466354
0.10076608 0.058501948 -0.1421001 -0.047288395 -0.051998623 -0.025300782 -0.09437205 0.06655558
0.07026602 -0.11533586 0.035402425 -0.03785306 0.05180783 -0.013911976 -0.1066459 0.03690732
-0.055840384 -0.052144118 0.06791241 0.029434962 0.060769532 -0.026077027 -0.024768986 0.09723876
00000000: a727 f8bd 59cf 83bd 5fce 02bd 30c0 a83d
00000010: cfda 043d b6b4 933d 2ca7 6b3d 1f38 383d
00000020: eb87 babd 183c 673d 9cfc 45bd 0039 d4bd
00000030: 5a41 b6bd 8f2b 86bc 91c3 1bbc c59a d43d
00000040: 7e07 bb3d 8a6d 6c3d 7a81 ce3d 5539 8abc
00000050: 46c6 aebd 00db 263d 87a8 1bbe 5591 37bd
00000060: 1478 923d b812 d0bd 7289 c83d 7e4e ef3d
00000070: 0a26 0b3e 4476 86bc 6465 90bd 9ba2 813d
00000080: 8e6c 91bd a30a a7bd 9e53 fe3d 3b07 d03d
00000090: 3f89 d7bd b176 81bd 4d7e cabd 9220 6bbc
000000a0: cb44 0fbe 2a2f 82bd ee73 e23d d7ab 163d
000000b0: bbef 4c3d fbd3 fe3d bbdb a53d fc28 babd
000000c0: 5bca 96bd ae92 283c ec93 443d b3c0 fcbc
000000d0: 0836 963d 08a8 97bb af2f 343d 11d6 9f3d
000000e0: e408 02bd 5595 c73d b3e9 dd3c 6109 a13c
000000f0: c82e b13d ce9a 473b d0a4 69bd a476 943d
00000100: 81bd babd 3c15 1cbd c4f7 0bbc 56f0 97bc
00000110: 04c6 bebd f4c9 833d 7b2f 9b3b cba6 153d
00000120: c83a d5bd 4756 b93c a891 a73d 0a71 24bd
00000130: 232b 1a3d f22c d83d 652c 71bd 1776 f33d
00000140: 734f 0cbc 45b4 bfbc 8c73 94bd 97f1 c5bd
00000150: ef36 893d 36a6 993d 3fd7 3bbd 68e9 49bd
00000160: 7fe0 2f3b 1040 7abd 446a 1b3e c369 5d3c
00000170: 2956 45bd 6fe7 8a3d 10ec fbbd 6320 ec3d
00000180: 6dd0 aebd 0832 fa3c 958e 0ebe 05c1 c1bd
00000190: 8e47 c93b 2af3 ba3d 2c7f 543c f041 5fbd
000001a0: 29f1 9ebd 24d8 a4bc 7937 a6bd 0aa8 a3bd
000001b0: 3ccb ffbd 338e 90bc c864 903d dfcf b33c
000001c0: 03b8 5e3c 2f59 fdbd 3dad 843d fd35 43bc
000001d0: b06a 203c ae18 1abd 5acc 043e 2135 52be
000001e0: 9395 86bd 40ff 563d 777c 8cbc 7159 02bd
000001f0: b49b 663b 6632 09bd 8c52 bebd a85e 503b
00000200: 3df6 d1bd f76b 47bd 60a4 903c faaf 0a3e
00000210: 16d3 fe3c 49d2 02bb 58ab f83c 4b11 1ebd
00000220: 40b5 b13c 369e e4bd dffa 9abd 2585 02be
00000230: 0d97 c93d e96b d1bb 6a44 1cbd d526 853d
00000240: 1a55 08be aa06 843c b955 7b3d eb6b e4bd
00000250: 64f9 bbbd c125 d8bd bac6 633c 41ba 2abd
00000260: c216 733d c530 0bbc 6d84 b53d 6ac1 b439
00000270: 9c6d e9ba d70e 9fbc 824d 16bd efc0 22be
00000280: fbc7 2fbc 4d9a 543c 4a32 16be ac4a aebd
00000290: 551b 5dbd 2af5 59be 365f 94bd 515d 0d3d
000002a0: ce04 c4bd 1ff9 733d e136 1b3d 1381 ecbb
000002b0: 32c5 583d 443f 1c3d 637c 1bbd 4d60 13bc
000002c0: 8830 e23d af90 413b 20f4 573d f858 2ebe
000002d0: f3ed 9cbd 7cc4 303d d45a 9f3d 3f0f 3b3d
000002e0: c509 933b 0e01 97bd a3c9 b23d bf8b 8cbd
000002f0: 674c a13d 7454 01bd 2e8a cebd 127e 073e
00000300: daee e63c 49c5 a1bb d7ed db3b 5939 fcbc
00000310: 007d f1bc 9074 e037 a4c3 3f3d a6db 8b3c
00000320: 5b94 92bd 55c8 b93c 0f08 0b3d d76c 063c
00000330: 716e 7e3c 6b91 0e3d 5edd 433e d68a c2bb
00000340: eb2e 6fbd bc4c c0bd 2441 bebd 606c 51bd
00000350: ef6b c53a 1f49 05bd a4aa 493e 140f a53d
00000360: 7823 c1bd 2237 b1bd 87c9 c23c 7782 243d
00000370: 9dc4 033c daf3 143d 7c16 e0bd 38ce 9cbd
00000380: b97d 7dbc 49ba 933c 4ed9 11be b928 f3bd
00000390: b191 ac3d 92c9 503d 6b63 f0bc dde2 00bd
000003a0: 725e ce3d bd9f 6f3d b082 11be 7ab1 41bd
000003b0: 82fc 54bd 9643 cfbc 2246 c1bd 4b4e 883d
000003c0: a2e7 8f3d 3535 ecbd 2202 113d cf0b 1bbd
000003d0: 7234 543d 0eef 63bc 2a69 dabd 212c 173d
000003e0: e3b8 64bd 1295 55bd a915 8b3d 9721 f13c
000003f0: 79e9 783d 7d9f d5bc 54e8 cabc 1d25 c73d

tcn.0.conv2.conv.bias f4 [32]
-0.044966236 -0.05928564 -0.068904884 0.07329398 0.06888266 -0.103834085 0.031720925 0.07550966
0.0925632 0.013359968 -0.054423604 0.048113313 0.0050899344 -0.019860424 -0.01527408 -0.031132134
0.024231702 -0.008270747 0.05775005 0.03881224 -0.024591554 0.05969777 0.03596433 -0.033576038
0.055840172 0.073574066 -0.008278442 -0.05901331 -0.028177066 -0.0802179 0.07168994 -0.056670096
00000000: 842e 38bd 80d5 72bd 011e 8dbd 271b 963d
00000010: 5a12 8d3d f7a6 d4bd cded 013d cfa4 9a3d
00000020: c691 bd3d c4e3 5a3c 49eb 5ebd 7712 453d
00000030: 77c9 a63b 54b2 a2bc 2340 7abc d108 ffbc
00000040: 9081 c63c 0782 07bc 518b 6c3d 95f9 1e3d
00000050: 3a74 c9bc a685 743d 554f 133d 0787 09bd
00000060: aab8 643d 00ae 963d 4da2 07bc f1b7 71bd
00000070: 97d3 e6bc 4849 a4bd 2dd2 923d e71e 68bd

tcn.0.bn2.weight f4 [32]
0.886024 0.8745885 0.8818209 0.86009943 0.74384314 0.5269325 0.948869 0.8798261
0.74511826 0.78330237 0.48836312 0.87331355 0.8099209 0.4891268 0.75852984 0.799709
0.92072624 0.8150088 0.7707128 0.8389583 0.90875125 0.8400473 0.4016055 0.7597469
0.7688109 0.8308694 0.8437364 0.84274465 0.84113723 0.9205509 0.9126902 0.71912503
00000000: 78d2 623f 08e5 5f3f 04bf 613f 7a2f 5c3f
00000010: 816c 3e3f 0ce5 063f 14e9 723f 493c 613f
00000020: 12c0 3e3f 8186 483f bb0a fa3e 7a91 5f3f
00000030: fa56 4f3f d46e fa3e 032f 423f bbb9 4c3f
00000040: b7b4 6b3f 6ba4 503f 6f4d 453f f9c5 563f
00000050: eca3 683f 570d 573f 3c9f cd3e c67e 423f
00000060: cbd0 443f dbb3 543f 1cff 573f 1dbe 573f
00000070: c554 573f 39a9 6b3f 11a6 693f 9418 383f

tcn.0.bn2.bias f4 [32]
-0.022099745 -0.05587395 -0.094919 -0.14778233 -0.15289262 -0.36083752 0.082513526 0.010263653
-0.30708185 -0.13988622 -0.40598142 -0.10048558 -0.15188357 -0.3418975 -0.28702724 -0.13506943
-0.053927675 -0.21874723 -0.13699344 -0.13061266 -0.10862125 -0.13408177 -0.39801008 -0.14643888
-0.23183478 -0.24183865 -0.0926584 -0.063118614 -0.21737167 -0.14003168 0.0131508345 -0.16743268
00000000: 860a b5bc 15dc 64bd e564 c2bd 4054 17be
00000010: e28f 1cbe b2bf b8be dafc a83d e128 283c
00000020: d539 9dbe 553e 0fbe ccdc cfbe 62cb cdbd
00000030: 5e87 1bbe 300d afbe 3cf5 92be a44f 0abe
00000040: 44e3 5cbd 46ff 5fbe 0248 0cbe 53bf 05be
00000050: d174 debd bb4c 09be fac7 cbbe 13f4 15be
00000060: 1966 6dbe 8da4 77be b0c3 bdbd 5544 81bd
00000070: ae96 5ebe 7764 0fbe 9976 573c 7973 2bbe

tcn.0.bn2.running_mean f4 [32]
0.10029161 -0.5510465 -0.33803645 -0.41929197 -0.16093442 -1.1473528 -0.5600589 -1.2547295
-0.39261913 -0.60185736 -0.4099181 0.3506083 -0.6271065 -1.5845199 -0.44412616 0.009074555
-0.48518604 0.0039000825 0.5638107 -1.1065114 -0.288458 -0.13604821 -1.1176735 -0.806787
-0.1617266 0.77862406 0.008687483 0.34071696 -0.026545795 0.5714826 -0.30273178 -0.46336222
00000000: b065 cd3d 6211 0dbf 1d13 adbe 70ad d6be
00000010: fecb 24be 75dc 92bf 0560 0fbf fa9a a0bf
00000020: 6005 c9be 5313 1abf c9e0 d1be ee82 b33e
00000030: 0d8a 20bf 8cd1 cabf 8164 e3be 71ad 143c
00000040: 4e6a f8be 8798 7f3b e655 103f 2aa2 8dbf
00000050: c4b0 93be 3950 0bbe ed0f 8fbf 9889 4ebf
00000060: a89b 25be e853 473f f255 0e3c 7472 ae3e
00000070: 9176 d9bc af4c 123f a9ff 9abe d03d edbe

tcn.0.bn2.running_var f4 [32]
0.63143134 0.8156733 1.005062 0.87444216 0.6310961 1.9037044 1.3947035 5.1905017
0.7786463 1.3151217 1.3120211 0.55459845 1.0084214 4.0319834 0.5480731 0.7850744
0.2471937 0.6512735 0.47501367 1.0746771 0.48684523 0.7581949 2.8082137 1.5112077
1.1960462 0.83302224 0.60744727 0.8085225 0.64552456 1.2863754 1.8625822 1.4774833
00000000: 7ca5 213f f7cf 503f dfa5 803f 71db 5f3f
00000010: 848f 213f 96ac f33f a585 b23f 9718 a640
00000020: 5d55 473f e855 a83f 4ff0 a73f 2afa 0d3f
00000030: f413 813f 0206 8140 854e 0c3f a3fa 483f
00000040: 5820 7d3e dcb9 263f fe34 f33e 058f 893f
00000050: c743 f93e 1019 423f c6b9 3340 416f c13f
00000060: 0b18 993f f240 553f aa81 1b3f 55fb 4e3f
00000070: 1941 253f f3a7 a43f 1869 ee3f 2c1e bd3f

tcn.0.downsample.weight f4 [32, 16, 1]
0.2900204 0.14715292 -0.13966441 -0.037215285 -0.073262215 -0.2631196 0.016595362 -0.06803029
-0.2354189 -0.031191276 -0.083394766 0.31680197 0.05491751 0.15023296 -0.11758377 0.05601595
0.5554529 -0.25801262 -0.090984456 0.17039219 0.030476518 -0.09561905 0.12038512 -0.056430936
0.033242192 -0.142779 -0.2042652 -0.018951235 -0.23262993 -0.20331344 -0.044326182 -0.18767291
-0.015587726 0.21505405 -0.19705617 -0.18857136 0.14020482 0.09020323 -0.1521573 0.022630274
0.1963148 0.05164946 0.22309564 0.1608464 0.11409584 0.047034148 0.18668498 -0.035539206
-0.9631327 0.065040044 0.16180663 -0.044351958 -0.112844504 0.15729567 0.028000766 -0.1639894
0.07090825 -0.11274192 -0.114623375 0.028401637 -0.04540201 0.14302306 -0.13136844 -0.3354582
-0.6958278 -0.18756154 -0.14261663 -0.09304955 -0.027647542 0.12507942 0.031349964 -0.2575358
0.15279238 0.14241958 -0.16440593 0.020322317 0.052866 0.0019295102 0.07151463 0.08681613
1.540482 0.15179716 0.07918449 0.0009309 0.070538454 0.08989094 0.17325263 -0.13323766
-0.20371494 -0.12842852 -0.13774833 -0.2551119 0.071295686 -0.06434515 -0.016702492 -0.1130112
-0.18441196 -0.25435466 -0.041688304 0.061430812 0.016601885 -0.003337597 -0.18108141 0.106611304
0.19507514 -0.14224492 0.2854439 0.22455297 -0.2067927 0.32137066 -0.059447028 0.16457707
0.5563421 -0.019477129 -0.02556569 -0.009790699 0.051153034 -0.2230703 -0.13289744 -0.092976965
0.18559507 0.19120167 -0.2537405 0.16867602 0.41297674 0.12168198 0.2623447 0.43152234
0.20070384 -0.13927492 0.21362434 -0.055523727 -0.11269605 -0.020986987 -0.0009426965 -0.12762538
0.20618334 0.21776795 0.19758391 -0.12857582 -0.2565944 0.3100516 -0.114597164 -0.003213654
-0.053135533 -0.14389765 0.053888805 0.1033889 -0.03791848 -0.24158321 0.08735827 0.02289168
-0.10218249 -0.010254624 0.115913235 0.2112858 0.08312453 -0.19967464 0.007631389 -0.28861767
-1.2865509 0.1850362 0.03692762 -0.051367257 -0.062468518 0.19575083 -0.05344414 0.22320203
-0.2851385 0.26085052 -0.041756798 0.04992112 0.19992447 -0.2040133 -0.15140592 0.030240359
0.039542854 -0.12225609 -0.17523205 -0.05753647 0.07236337 -0.20002075 -0.034855474 -0.2618948
0.08911476 -0.2033128 0.02869843 0.1376809 -0.16153361 -0.13841474 -0.09703104 0.03895022
0.30006668 -0.19544351 0.11370169 -0.16638818 0.038198777 0.038474545 -0.20765804 0.009466061
0.24333291 0.021220788 0.17064792 -0.15427853 0.23158146 0.111507274 0.1465531 -0.13924406
1.5569361 0.12551239 0.11281976 -0.075165145 -0.12368649 0.18469767 0.22472478 0.12938851
-0.1514945 0.20871156 0.16203484 0.040650025 -0.1155608 -0.12560621 0.0686641 0.02847624
-0.7797548 -0.15036231 -0.08074801 -0.07860197 -0.0057018776 0.10380455 0.04389198 -0.016892087
0.29981053 0.09873388 0.27096972 -0.20607898 0.04861229 0.020104453 -0.008298467 0.034650538
0.68123645 -0.2442695 -0.0080298465 0.14562619 -0.060252644 -0.031134969 0.04853672 -0.005808594
-0.21794607 0.15164818 0.11959457 -0.049461503 -0.32845518 -0.13668887 -0.01673759 0.027015349
00000000: 8e7d 943e 41af 163e 3004 0fbe 0e6f 18bd
00000010: 800a 96bd 9db7 86be fff2 873c 7753 8bbd
00000020: a711 71be d984 ffbc e0ca aabd de33 a23e
00000030: 2ff1 603d abd6 193e c2cf f0bd fb70 653d
00000040: 2932 0e3f 3b1a 84be 0f56 babd 4a7b 2e3e
00000050: e4a9 f93c ecd3 c3bd 798c f63d 2024 67bd
00000060: f728 083d a834 12be e62a 51be 9f3f 9bbc
00000070: 8a36 6ebe 6631 50be 5f8f 35bd 542d 40be
00000080: a963 7fbc 2137 5c3e 18c9 49be da18 41be
00000090: da91 0f3e 79bc b83d 20cf 1bbe 2063 b93c
000000a0: bf06 493e 628e 533d 2f73 643e ebb4 243e
000000b0: 14ab e93d e1a6 403d 592a 3f3e 8f91 11bd
000000c0: dd8f 76bf b733 853d a3b0 253e 66aa 35bd
000000d0: 051b e7bd 1e12 213e dd61 e53c d6ec 27be
000000e0: 5838 913d 3ce5 e6bd a9bf eabd 8daa e83c
000000f0: 75f7 39bd a374 123e 7385 06be 2dc1 abbe
00000100: c521 32bf 2210 40be 180a 12be c390 bebd
00000110: 197d e2bc d214 003e d268 003d bbdb 83be
00000120: 9b75 1c3e 70d6 113e 075a 28be fd7a a63c
00000130: 058a 583d 9ee7 fc3a 4376 923d a8cc b13d
00000140: 842e c53f b770 1b3e 7a2b a23d a407 743a
00000150: 7776 903d be18 b83d 2369 313e 746f 08be
00000160: a69a 50be c482 03be e60d 0dbe 079e 82be
00000170: 7903 923d 64c7 83bd aad3 88bc 6b72 e7bd
00000180: 7dd6 3cbe c63a 82be 5bc1 2abd e09e 7b3d
00000190: ad00 883c 96bb 5abb 686d 39be 0757 da3d
000001a0: c7c1 473e a7a8 11be b425 923e 37f1 653e
000001b0: 77c1 53be b28a a43e ba7e 73bd e486 283e
000001c0: 706c 0e3f 808e 9fbc 236f d1bc 2b69 20bc
000001d0: d885 513d 8a6c 64be 4416 08be b56a bebd
000001e0: a20c 3e3e 5fca 433e 46ea 81be 68b9 2c3e
000001f0: b071 d33e 6734 f93d 0b52 863e 7ff0 dc3e
00000200: 4f85 4d3e 169e 0ebe 57c0 5a3e d96c 63bd
00000210: 30cd e6bd e7ec abbc 4b1f 77ba 3ab0 02be
00000220: ba21 533e 90fe 5e3e 7053 4a3e 61a9 03be
00000230: 5760 83be 15bf 9e3e ebb1 eabd 2b9c 52bb
00000240: a5a4 59bd e859 13be 82ba 5c3d 8fbd d33d
00000250: 6850 1bbd 9761 77be e5e8 b23d 5587 bb3c
00000260: 0e45 d1bd 0303 28bc eb63 ed3d 4e5b 583e
00000270: 323d aa3d 8277 4cbe bb10 fa3b b2c5 93be
00000280: b3ad a4bf 217a 3d3e 6b41 173d 7966 52bd
00000290: fdde 7fbd e872 483e 3ee8 5abd 138f 643e
000002a0: acfd 91be 338e 853e 2d09 2bbd 177a 4c3d
000002b0: 00b9 4c3e dde8 50be 270a 1bbe a1ba f73c
000002c0: b0f7 213d 6761 fabd 0870 33be 5dab 6bbd
000002d0: 3f33 943d 3dd2 4cbe 9dc4 0ebd 1317 86be
000002e0: cd81 b63d 3b31 50be f818 eb3c 39fc 0c3e
000002f0: 1169 25be 98bc 0dbe 36b8 c6bd 448a 1f3d
00000300: 57a2 993e 5822 48be 6fdc e83d aa61 2abe
00000310: 5276 1c3d 7c97 1d3d 4fa4 54be 8a17 1b3c
00000320: 432c 793e 38d7 ad3c 54be 2e3e 31fb 1dbe
00000330: b123 6d3e ed5d e43d 0412 163e ff95 0ebe
00000340: af49 c73f 5286 003e 0c0e e73d 2ff0 99bd
00000350: 584f fdbd 6321 3d3e 411e 663e 6c7e 043e
00000360: 6021 1bbe 7cb8 553e 76ec 253e a480 263d
00000370: 24ab ecbd ea9e 00be c39f 8c3d 0147 e93c
00000380: 039e 47bf 94f8 19be 365f a5bd 12fa a0bd
00000390: d1d6 babb 7b97 d43d 14c8 333d 4661 8abc
000003a0: c480 993e fd34 ca3d 8bbc 8a3e 5e06 53be
000003b0: ae1d 473d 18b2 a43c 4bf6 07bc b9ed 0d3d
000003c0: 8365 2e3f c921 7abe 9e8f 03bc 081f 153e
000003d0: 7acb 76bd c30e ffbc 71ce 463d 0556 bebb
000003e0: 412d 5fbe a949 1b3e ffed f43d 2598 4abd
000003f0: 472b a8be 2bf8 0bbe 451d 89bc 4b4f dd3c

tcn.0.downsample.bias f4 [32]
-0.28987882 -0.24894899 0.0395765 0.08396193 0.082208805 -0.12936598 0.0055628107 0.48920986
-0.046614703 -0.062915914 0.35648015 -0.17129438 -0.12369707 0.07698374 -0.057797093 -0.066878885
0.13681915 -0.081549525 0.036692943 -0.22131635 0.13289148 0.33115366 0.2734111 0.015735116
0.06382914 0.14672309 0.1310703 -0.08017318 -0.1917197 0.0067967903 0.05477941 0.01629235
00000000: ff6a 94be 7cec 7ebe f81a 223d 3bf4 ab3d
00000010: 175d a83d 8478 04be 3d48 b63b b779 fa3e
00000020: 0fef 3ebd 0fda 80bd 9184 b63e cb67 2fbe
00000030: e454 fdbd a7a9 9d3d a5bc 6cbd ccf7 88bd
00000040: 521a 0c3e 7003 a7bd 574b 163d c1a0 62be
00000050: b414 083e f98c a93e 8afc 8b3e eee6 803c
00000060: dab8 823d 943e 163e 4b37 063e d631 a4bd
00000070: 2b52 44be 9cb7 de3b 6060 603d 8977 853c

tcn.1.conv1.conv.weight f4 [64, 32, 3]
-0.04327916 -0.12823892 0.03006166 0.049442235 0.054678835 -0.018471582 -0.13827768 -0.06180328
-0.12712742 -0.02332827 -0.037296906 -0.06319569 -0.09705011 0.069571614 0.05754909 -0.08516144
-0.033404987 -0.050328635 0.03401151 -0.057195403 -0.018549597 0.08398218 -0.043995753 -0.026377166
-0.059520867 0.04239856 0.012853003 0.09017846 0.029038638 -0.03538222 -0.023056984 -0.110101864
-0.044708967 0.07249174 0.11299573 0.068498306 0.03217253 -0.010916582 -0.0038998101 0.06124806
0.06185596 -0.17065378 -0.0027633049 0.022966143 0.052561734 -0.07198342 -0.08642675 -0.07115643
0.039057422 -0.052585408 0.055807892 0.08267762 -0.022971228 -0.018904774 -0.025040226 -0.03209011
-0.069869086 -0.06635903 0.02560638 -0.048195265 0.084055796 -0.08183352 -0.04975926 -0.110424034
0.091136985 -0.06510229 -0.087791085 -0.09801682 -0.036399953 -0.016429529 -0.115144566 -0.18881786
0.07556859 -0.116319194 -0.0835525 0.08286388 0.10256012 0.052294176 0.027820913 -0.035673425
-0.028487515 -0.045149073 -0.03264378 0.13361348 -0.05671822 0.043539077 -0.031312525 -0.09168016
0.048000384 0.06502451 0.083490975 -0.062136456 0.049261667 0.08879374 0.026107248 -0.043938916
0.033587392 0.054172244 0.00043450258 0.11223976 -0.02867259 0.0070290295 -0.09881933 0.019624937
0.037849605 -0.13769844 0.03872655 -0.017294686 0.007431631 0.048988312 0.03364381 0.002845481
0.08186948 -0.057758413 0.0010283423 -0.06391888 0.049291577 -0.19207664 -0.043195456 -0.21864074
-0.05643524 -0.0011596486 0.016068073 0.001325039 0.075117156 -0.058402248 0.0011474247 0.090660356
0.08896433 0.0035492827 -0.010791789 -0.011612625 -0.010217791 -0.07116272 0.03649355 0.077479966
0.072023176 0.22830729 0.048688695 0.024638267 0.10247231 0.022988414 -0.013676337 -0.047668327
0.082177065 -0.07683656 -0.06836747 0.09272657 0.10589673 0.054269638 -0.08028016 -0.079329394
0.049116876 -0.015556072 -0.05710347 -0.058432914 -0.05539163 -0.009480221 -0.0030957675 -0.045027785
0.059736975 0.019093651 -0.012730015 0.15060437 0.062104512 0.0096781105 0.060962297 -0.09218682
0.06539054 0.0050494354 0.048130173 -0.060357496 0.077646196 -0.05396444 -0.05568023 -0.085974604
0.093053326 -0.00085102586 -0.020238407 0.06818478 0.06320987 -0.061015323 0.0065739797 0.03417711
0.0023157508 -0.010366982 0.021704305 -0.070706785 -0.087971404 0.0010598756 0.038241614 0.08658534
0.02352426 -0.018186532 0.000529318 0.07233467 0.055393357 -0.035522234 -0.07020766 -0.049104672
-0.08240358 -0.06881014 0.056425817 0.08580381 0.052877497 0.07517079 -0.0746804 -0.08666849
0.078274496 -0.13371696 -0.0048306827 -0.0053172912 -0.10413061 0.1959906 -0.039106853 0.048756637
0.0992588 0.030233925 -0.039624996 -0.14260514 0.0018003451 -0.09233953 0.0002346836 -0.06018847
0.084987946 0.01251561 0.06982934 0.005600926 -0.05976661 -0.026492884 0.06126294 -0.022979261
0.06114941 -0.1779817 0.04498321 0.043947216 0.050459616 0.021181038 -0.043635838 -0.06425977
0.0008918689 0.094347395 -0.05122617 -0.08346818 -0.03613169 -0.09002864 -0.08894245 -0.08814293
-0.050472755 0.048054975 0.056499906 0.076397106 -0.054407254 -0.037039824 -0.037034895 0.039742507
00000000: 7d45 31bd 1051 03be df43 f63c f183 4a3d
00000010: eaf6 5f3d b751 97bc aa98 0dbe 7025 7dbd
00000020: b12d 02be ee1a bfbc a4c4 18bd be6c 81bd
00000030: 35c2 c6bd 907b 8e3d 98b8 6b3d 1f69 aebd
00000040: abd3 08bd 6625 4ebd a74f 0b3d ba45 6abd
00000050: 53f5 97bc d9fe ab3d e434 34bd ed14 d8bc
00000060: 27cc 73bd 1daa 2d3d 6795 523c 7caf b83d
00000070: 70e2 ed3c f2ec 10bd 00e2 bcbc 167d e1bd
00000080: c020 37bd 8d76 943d 4e6a e73d d748 8c3d
00000090: 58c7 033d 77db 32bc f593 7fbb 3fdf 7a3d
000000a0: ad5c 7d3d ddbf 2ebe 9018 35bb 7e23 bc3c
000000b0: f94a 573d 0b6c 93bd 8200 b1bd 76ba 91bd
000000c0: adfa 1f3d cc63 57bd d196 643d e252 a93d
000000d0: 282e bcbc 2fde 9abc 2921 cdbc eb70 03bd
000000e0: 8617 8fbd 3ee7 87bd 79c4 d13c 6668 45bd
000000f0: 7225 ac3d 5598 a7bd 5ed0 4bbd ff25 e2bd
00000100: 07a6 ba3d 5954 85bd d0cb b3bd 0bbd c8bd
00000110: 1e18 15bd 3897 86bc ead0 ebbd 7859 41be
00000120: b4c3 9a3d c238 eebd 931d abbd 8ab4 a93d
00000130: 0a0b d23d 6b32 563d afe8 e33c 4c1e 12bd
00000140: a65e e9bc 3cee 38bd 7cb5 05bd f9d1 083e
00000150: 5d51 68bd 0856 323d 9041 00bd cfc2 bbbd
00000160: 0d9c 443d 922b 853d 51fd aa3d cc82 7ebd
00000170: 9ac6 493d 7ed9 b53d dede d53c 4bf9 33bd
00000180: ef92 093d b7e3 5d3d f3cd e339 f6dd e53d
00000190: c8e2 eabc c653 e63b ca61 cabd 7ac4 a03c
000001a0: 3008 1b3d d200 0dbe bb9f 1e3d 96ad 8dbc
000001b0: 0a85 f33b f8a7 483d 17ce 093d 407b 3a3b
000001c0: 30ab a73d 1694 6cbd 71c9 863a e7e7 82bd
000001d0: f7e5 493d bdaf 44be b8ed 30bd 5ce3 5fbe
000001e0: a328 67bd 5aff 97ba 31a1 833c eeac ad3a
000001f0: 06d7 993d 3237 6fbd 2f65 963a 23ac b93d
00000200: ee32 b63d 159b 683b 0bd0 30bc e142 3ebc
00000210: 8668 27bc c3bd 91bd 437a 153d d1ad 9e3d
00000220: e380 933d 63c9 693e cc6d 473d 31d6 c93c
00000230: 01dd d13d 3352 bc3c b712 60bc dd3f 43bd
00000240: 734c a83d 7d5c 9dbd 3e04 8cbd 6ee7 bd3d
00000250: 63e0 d83d d749 5e3d ed69 a4bd 7377 a2bd
00000260: c72e 493d e5de 7ebc 54e5 69bd 5a57 6fbd
00000270: 55e2 62bd ee52 1bbc 5ce2 4abb 0e6f 38bd
00000280: c2ae 743d 4a6a 9c3c 8e91 50bc 0838 1a3e
00000290: 4d61 7e3d f090 1e3c 9ab3 793d 72cc bcbd
000002a0: 7aeb 853d bc75 a53b 2524 453d 6c39 77bd
000002b0: f804 9f3d d109 5dbd f410 64bd 7413 b0bd
000002c0: be92 be3d 6117 5fba 04cb a5bc 76a4 8b3d
000002d0: 2d74 813d 34eb 79bd 8a6a d73b 4cfd 0b3d
000002e0: dac3 173b 46da 29bc 3acd b13c b8ce 90bd
000002f0: 5a2a b4bd 86eb 8a3a 3da3 1c3d a853 b13d
00000300: f3b5 c03c ecfb 94bc eec1 0a3a 3324 943d
00000310: 25e4 623d c37f 11bd 09c9 8fbd fb21 49bd
00000320: 35c3 a8bd 55ec 8cbd c21e 673d e8b9 af3d
00000330: 1396 583d 25f3 993d 0af2 98bd 407f b1bd
00000340: 614e a03d 19ed 08be b44a 9ebb ac3c aebb
00000350: 6e42 d5bd c3b1 483e 822e 20bd 0ab5 473d
00000360: 3348 cb3d 23ad f73c d24d 22bd 1507 12be
00000370: 8ff9 eb3a 821c bdbd 6615 7639 2f88 76bd
00000380: 290e ae3d 460e 4d3c af02 8f3d f987 b73b
00000390: d5cd 74bd 9b07 d9bc d9ee 7a3d 013f bcbc
000003a0: ce77 7a3d d640 36be 5040 383d ff01 343d
000003b0: beae 4e3d db83 ad3c 7ebb 32bd a09a 83bd
000003c0: 4fcc 693a 3539 c13d 88d2 51bd 5df1 aabd
000003d0: d3fe 13bd f060 b8bd 7627 b6bd 4884 b4bd
000003e0: 85bc 4ebd 4bd5 443d 726c 673d 1676 9c3d
000003f0: 24da 5ebd 12b7 17bd e7b1 17bd 0ac9 223d

tcn.1.conv1.conv.bias f4 [64]
0.05425304 -0.046750855 -0.05764501 0.035468426 -0.0196378 0.055441387 -0.06812407 -0.045714945
0.086767934 0.08534633 0.028042842 -0.094578415 0.010520193 0.03267578 -0.045664504 -0.0837355
0.09452238 0.030422714 -0.047029436 0.04270799 0.063370116 0.09986213 0.079967774 -0.064802594
0.031218018 -0.013061944 -0.09287217 -0.04310582 0.08539264 0.031915016 -0.00384081 -0.09035592
0.06784227 0.080283515 0.0092674 -0.0006634275 -0.009039985 -0.06470666 0.054419693 0.060191028
0.08367553 -0.072296835 0.09267379 0.07464033 0.008876637 0.08100243 0.07400058 -0.040313084
0.05125386 0.10328988 0.013614595 -0.012571709 0.022280356 -0.0738759 0.0008554433 -0.078611344
-0.052824907 -0.10297267 0.079970196 -0.102193646 0.018706186 0.011209627 -0.08456039 0.05580533
00000000: 7038 5e3d d37d 3fbd 2d1d 6cbd 5747 113d
00000010: 74df a0bc 8216 633d a284 8bbd 983f 3bbd
00000020: 63b3 b13d 0fca ae3d 1aba e53c 54b2 c1bd
00000030: e35c 2c3c 0ad7 053d b40a 3bbd 857d abbd
00000040: f394 c13d 0e39 f93c f0a1 40bd 93ee 2e3d
00000050: 31c8 813d 8484 cc3d 25c6 a33d 39b7 84bd
00000060: eebc ff3c c401 56bc c433 bebd ba8f 30bd
00000070: 56e2 ae3d 52b9 023d 19b6 7bbb 860c b9bd
00000080: e3f0 8a3d af6b a43d 4bd6 173c dee9 2dba
00000090: 721c 14bc ed84 84bd 2fe7 5e3d de8a 763d
000000a0: 145e ab3d 5d10 94bd c2cb bd3d 08dd 983d
000000b0: 506f 113c 9ae4 a53d 9e8d 973d 551f 25bd
000000c0: 91ef 513d a589 d33d c00f 5f3c 92f9 4dbc
000000d0: 4b85 b63c 3f4c 97bd d43f 603a fcfe a0bd
000000e0: ee5e 58bd 56e3 d2bd 6ac7 a33d e74a d1bd
000000f0: b73d 993c 95a8 373c ff2d adbd 2194 643d

tcn.1.bn1.weight f4 [64]
0.9311989 0.8637095 0.89883006 0.8778363 0.8997846 0.9587338 0.9164985 1.0039761
0.9947406 0.999651 0.9471641 0.95197225 1.0662469 0.96221685 0.91304916 1.2318286
1.2299302 0.9226964 0.9501606 0.95695597 1.0497929 0.8813616 1.287568 0.9301622
0.9320064 0.9271463 1.0015818 0.95518416 0.8793281 1.0834205 0.97520804 1.1532254
0.89296997 0.9256023 1.0305789 1.1304597 0.9086494 0.90761846 0.878617 0.93015206
1.1847368 1.0752068 0.88977677 1.1729021 0.8591011 0.9244114 1.2088556 1.0386477
0.8976718 0.88717115 0.9217677 1.0554314 0.9371142 1.0477979 1.2621245 0.9791546
1.0709565 1.2159853 1.2302113 0.9018167 0.9253972 1.1825413 0.93213326 1.270917
00000000: 0d63 6e3f 111c 5d3f ba19 663f e1b9 603f
00000010: 4958 663f 946f 753f a59f 6a3f 4a82 803f
00000020: 52a7 7e3f 21e9 7f3f 5979 723f 74b4 733f
00000030: c77a 883f d853 763f 97bd 693f 8fac 9d3f
00000040: 5a6e 9d3f d535 6c3f ba3d 733f 11fb 743f
00000050: 9d5f 863f eaa0 613f 07cf a43f 1c1f 6e3f
00000060: f997 6e3f 7659 6d3f d533 803f f386 743f
00000070: a51b 613f 86ad 8a3f 3ca7 793f e49c 933f
00000080: ae99 643f 46f4 6c3f 02ea 833f e7b2 903f
00000090: 3f9d 683f af59 683f 0bed 603f 721e 6e3f
000000a0: 75a5 973f 60a0 893f 69c8 633f a821 963f
000000b0: 0dee 5b3f 3aa6 6c3f c8bb 9a3f 68f2 843f
000000c0: d2cd 653f a61d 633f f8f8 6b3f 6018 873f
000000d0: b7e6 6f3f 3e1e 863f 4c8d a13f e0a9 7a3f
000000e0: 1a15 893f 68a5 9b3f 9077 9d3f 76dd 663f
000000f0: d5e6 6c3f 835d 973f 49a0 6e3f 69ad a23f

tcn.1.bn1.bias f4 [64]
-0.049314644 -0.11641666 -0.100506134 -0.0056712297 -0.10111663 -0.10977126 -0.07604343 -0.062263593
-0.011783587 0.00078062544 -0.060659952 -0.06568367 0.054041047 -0.06866909 -0.11573081 -0.12135908
-0.12163719 -0.0431235 -0.054245185 -0.09397042 0.0013436931 -0.121542715 -0.19151247 -0.088620685
-0.05578817 -0.0758741 0.025543734 -0.026138183 -0.04465946 -0.0495552 -0.10755593 -0.05449444
-0.15718637 -0.09578877 -0.047673527 0.08025986 -0.08167209 -0.0866407 -0.14386904 -0.09195725
-0.014698312 -0.06173652 -0.1387166 0.03105104 -0.131613 -0.18853721 -0.102909 0.0022558738
-0.15425421 -0.08171596 -0.106203675 -0.002789752 -0.0637027 -0.043088134 -0.16519591 -0.07392148
-0.074215256 -0.15892822 -0.13736069 -0.21592787 -0.11900937 -0.02674151 -0.035086878 -0.040320963
00000000: 27fe 49bd dc6b eebd 29d6 cdbd b9d5 b9bb
00000010: 3c16 cfbd c1cf e0bd a8bc 9bbd 1c08 7fbd
00000020: f20f 41bc e3a2 4c3a 9276 78bd 2985 86bd
00000030: 255a 5d3d 61a2 8cbd 4604 edbd 1c8b f8bd
00000040: eb1c f9bd 44a2 30bd 3330 5ebd 9073 c0bd
00000050: dc1e b03a 63eb f8bd d81b 44be c37e b5bd
00000060: 2382 64bd e163 9bbd 1841 d13c be1f d6bc
00000070: d7ec 36bd 65fa 4abd 4946 dcbd 9035 5fbd
00000080: 77f5 20be e72c c4bd 5145 43bd 485f a43d
00000090: b243 a7bd ae70 b1bd 6852 13be 1554 bcbd
000000a0: 30d1 70bc 6fdf 7cbd b90b 0ebe c05e fe3c
000000b0: 8fc5 06be e60f 41be f4c1 d2bd 48d7 133b
000000c0: d1f4 1dbe b25a a7bd 5081 d9bd 46d4 36bb
000000d0: 9076 82bd 2f7d 30bd 1e29 29be 2564 97bd
000000e0: 2bfe 97bd 14be 22be 48a8 0cbe 321c 5dbe
000000f0: 2fbb f3bd 0311 dbbc 42b7 0fbd 9827 25bd

tcn.1.bn1.running_mean f4 [64]
-0.99440646 1.5166221 -0.8334979 1.4317429 -0.15721314 0.33598682 -0.691607 -0.46270975
-0.11093805 -0.44331056 -0.18676957 0.6199761 -0.41996816 0.44546527 0.91069037 -1.0362849
-1.0580355 -0.55767876 -0.40316573 -1.3244518 -0.44966254 0.27018198 -0.96533537 0.9058121
-0.36950853 -0.6067633 -0.82876664 -0.41082206 -0.992613 -0.5512846 -0.24765103 -0.44746768
0.12895727 0.008393353 -0.5264829 -0.37567848 -0.869488 -0.3559331 0.16828308 0.8110709
-0.3093567 -0.98915106 -0.19049172 0.49262956 0.022127843 1.1881181 -0.33670473 -0.70643854
1.2048649 0.8127331 -0.8769552 -0.43100414 0.2046041 -0.51170284 -0.9410473 0.71048295
-0.7993015 -0.8776361 -0.27340832 0.18739441 -0.556834 -0.5809731 -0.30197635 -0.20422089
00000000: 6c91 7ebf ac20 c23f 1e60 55bf 5a43 b73f
00000010: 7bfc 20be 7706 ac3e 280d 31bf 4be8 ecbe
00000020: 7d33 e3bd 9af9 e2be 8640 3fbe c1b6 1e3f
00000030: 1106 d7be 0614 e43e 0123 693f fca4 84bf
00000040: b56d 87bf 09c4 0ebf bd6b cebe a387 a9bf
00000050: 2b3a e6be 4b55 8a3e 3820 77bf 4de3 673f
00000060: 3930 bdbe d754 1bbf 0d2a 54bf 4557 d2be
00000070: e31b 7ebf fd20 0dbf 3b98 7dbe 7c1a e5be
00000080: 600d 043e 4684 093c 95c7 06bf ee58 c0be
00000090: c496 5ebf dd3c b6be 6652 2c3e 58a2 4f3f
000000a0: 0064 9ebe 0139 7dbf 4310 43be f139 fc3e
000000b0: 7345 b53c 4114 983f 9064 acbe 28d9 34bf
000000c0: 0339 9a3f 470f 503f 2380 60bf 93ac dcbe
000000d0: bd83 513e f5fe 02bf 7ae8 70bf 36e2 353f
000000e0: 069f 4cbf c2ac 60bf 2dfc 8bbe 52e4 3f3e
000000f0: ac8c 0ebf a7ba 14bf a59c 9abe 481f 51be

tcn.1.bn1.running_var f4 [64]
0.12654744 0.5625134 0.19166283 0.59034956 0.12534519 0.18514058 0.12931895 0.2352428
0.106528185 0.31445032 0.31095082 0.14410542 0.2091378 0.22738239 0.2807746 0.36741966
0.58974653 0.27682075 0.116667494 0.38290474 0.17261629 0.11575207 0.45618117 0.17317191
0.17481586 0.29309157 0.25215518 0.18252899 0.30749196 0.37306398 0.13974664 0.25039
0.15787058 0.20527548 0.22427464 0.3343958 0.24230671 0.16227652 0.14178577 0.26397017
0.4022294 0.43152773 0.18403074 0.36790287 0.08903523 0.24230434 0.37064433 0.3929429
0.31363994 0.23506075 0.2782597 0.23763144 0.18240015 0.19303471 0.5804888 0.15904339
0.18468371 0.31803837 0.23252533 0.1670173 0.19073097 0.30203986 0.122293435 0.30041182
00000000: a795 013e e100 103f 4343 443e 2621 173f
00000010: 7d5a 003e 7e95 3d3e 306c 043e 7de3 703e
00000020: 732b da3d a2ff a03e f234 9f3e 5f90 133e
00000030: 3828 563e eed6 683e b0c1 8f3e 6e1e bc3e
00000040: a1f9 163f 73bb 8d3e 5eef ee3d 170c c43e
00000050: 53c2 303e 6c0f ed3d 9490 e93e fa53 313e
00000060: ee02 333e 1910 963e 7c1a 813e e1e8 3a3e
00000070: 966f 9d3e 3e02 bf3e be19 0f3e 1e33 803e
00000080: d3a8 213e bc33 523e 40a8 653e ed35 ab3e
00000090: 401f 783e d12b 263e 4a30 113e 1927 873e
000000a0: 03f1 cd3e 34f1 dc3e 8e72 3c3e c45d bc3e
000000b0: 1a58 b63d a11e 783e 18c5 bd3e d02f c93e
000000c0: 6a95 a03e c4b3 703e 0e78 8e3e a855 733e
000000d0: 1bc7 3a3e e4aa 453e ea9a 143f 45dc 223e
000000e0: ba1d 3d3e edd5 a23e 1f1b 6e3e 9506 2b3e
000000f0: fb4e 433e f8a4 9a3e fb74 fa3d 94cf 993e

tcn.1.conv2.conv.weight f4 [64, 64, 3]
-0.049110916 0.0069603384 0.019413583 0.0120022725 0.019902429 -0.009149649 0.025544045 -0.047070432
0.06408199 0.01180337 0.0021266309 0.031947974 -0.029744234 0.013719419 0.013661182 -0.058104932
-0.07773802 -0.059281856 -0.028156247 -0.050417982 0.11545247 0.0449474 0.013187868 -0.0052267383
-0.11286091 -0.05166091 -0.009166225 0.02306881 -0.071670935 -0.025943007 -0.12423271 -0.025779352
-0.051198997 0.040603925 0.061254617 0.0016378617 -0.037870716 -0.056614663 0.09565683 -0.009338742
0.036544375 -0.0022848465 -0.0036896293 0.04989236 -0.15103981 -0.06322007 -0.06194623 -0.009371548
-0.047552124 0.009247499 -0.0807288 -0.16642283 -0.067068994 -0.12699954 0.045442577 0.071180396
-0.004533945 -0.06324236 -0.11666599 -0.1082035 -0.12959358 -0.1095833 0.07022456 0.03858239
0.04027495 -0.03924539 0.010729241 0.019193323 -0.06963114 -0.026060786 0.026419986 -0.008245171
-0.10692767 -0.08454003 -0.03955101 -0.0331679 -0.084817976 -0.075142354 -0.050434127 -0.098214075
-0.0368006 0.014883984 0.03208685 -0.067767724 0.046683885 -0.063077934 -0.046713576 -0.007382171
-0.034396205 -0.16678256 -0.07361905 -0.014742923 0.026733678 -0.0043574097 -0.04803233 -0.07092078
-0.064361155 0.0103539815 -0.031961225 0.014409178 -0.025479719 0.047187347 -0.02013281 -0.06704697
0.0051809214 -0.061643902 0.022152973 -0.08779436 -0.00077168434 0.038223755 -0.05111092 -0.031805433
-0.03836026 -0.05089635 0.028181186 0.008617713 -0.010673315 -0.0024297913 -0.04851277 -0.062068556
-0.1291432 -0.036148764 -0.0051868157 -0.013434386 -0.11595351 -0.1739575 -0.050580464 -0.08537195
-0.15440737 -0.047683276 0.020561805 -0.1717248 -0.025821473 -0.015676692 0.05435664 -0.053678837
0.077257946 -0.17640881 -0.115945384 -0.118309736 -0.1736878 -0.0005799171 -0.09053529 -0.11730741
0.06984933 0.07764515 -0.07750585 -0.084756434 0.014822935 0.019047733 -0.041543886 0.010066755
-0.12207032 -0.0057103 -0.04342025 -0.118671305 -0.010623893 0.027245013 -0.16954322 -0.019015238
-0.07786395 0.064994074 -0.07090297 -0.0721626 0.00709193 -0.17714094 -0.09676446 -0.19357118
0.030022316 0.08132703 -0.043033857 -0.05833205 -0.074418165 0.01882602 -0.061619338 -0.04058523
-0.02662689 0.023213742 0.0179627 -0.102141745 -0.053072426 -0.12160279 -0.06726073 -0.11160547
0.053445566 -0.12069024 -0.03351721 0.033314247 -0.15031429 -0.06414746 -0.05453841 -0.15796477
-0.0031177113 -0.0437257 -0.028628483 0.023006337 0.057254333 -0.042710774 -0.081307165 0.018372515
0.064677335 0.04179852 -0.049559914 -0.026543682 -0.017059436 0.0056579434 -0.0040049143 -0.060226955
0.059352443 0.017902983 -0.022424841 -0.035247028 -0.011710287 0.033930115 0.03258489 -0.05593352
0.03891194 -0.029612951 0.040832203 -0.0059795217 0.009290042 -0.014546295 -0.06533159 0.020635188
-0.06363508 0.03329967 0.050246734 -0.038320452 -0.075541615 0.017252937 -0.009846516 0.06208467
-0.04158284 0.010024191 -0.053924043 -0.0014600739 0.026979003 0.1025454 0.011756632 0.078271136
0.055685647 0.07253508 0.050263807 0.0057872455 0.055700887 0.012047961 0.06681629 0.017301304
-0.074073695 0.03251844 -0.03517864 -0.08081641 0.034869675 -0.0054768873 0.040125884 -0.017966853
00000000: 8728 49bd 8d13 e43b 3c09 9f3c 2ea5 443c
00000010: 6b0a a33c 69e8 15bc bf41 d13c edcc 40bd
00000020: 6b3d 833d ec62 413c f25e 0b3b e1db 023d
00000030: 2eaa f3bc 6ac7 603c 26d3 5f3c 70ff 6dbd
00000040: 1c35 9fbd 88d1 72bd eea7 e6bc 1683 4ebd
00000050: 5872 ec3d c41a 383d ed11 583c 0f45 abbb
00000060: 9f23 e7bd 649a 53bd ef2d 16bc cdfa bc3c
00000070: 36c8 92bd 6e86 d4bc b86d febd 382f d3bc
00000080: 0ab6 51bd 4d50 263d 1fe6 7a3d 85ad d63a
00000090: 531e 1bbd c7e4 67bd bae7 c33d 8601 19bc
000000a0: 8eaf 153d 5dbd 15bb b5cd 71bb ee5b 4c3d
000000b0: 2eaa 1abe 8679 81bd 54bb 7dbd 1f8b 19bc
000000c0: 04c6 42bd d282 173c 2455 a5bd bf6a 2abe
000000d0: 785b 89bd 2b0c 02be ff21 3a3d 07c7 913d
000000e0: 7d91 94bb 3685 81bd 94ee eebd cc99 ddbd
000000f0: 2eb4 04be 366d e0bd e5d1 8f3d 9108 1e3d
00000100: 59f7 243d c6bf 20bd b3c9 2f3c 513b 9d3c
00000110: c59a 8ebd 6e7d d5bc ba6e d83c c116 07bc
00000120: e5fc dabd 5323 adbd 3d00 22bd 10db 07bd
00000130: 0cb5 adbd 3ce4 99bd 0494 4ebd 7624 c9bd
00000140: 3abc 16bd f4db 733c 806d 033d cec9 8abd
00000150: 9a37 3f3d 012f 81bd bc56 3fbd 24e6 f1bb
00000160: 09e3 0cbd 0cc9 2abe 96c5 96bd 4d8c 71bc
00000170: 9600 db3c 9ac8 8ebb 8cbd 44bd ea3e 91bd
00000180: c8cf 83bd bfa3 293c c6e9 02bd 7914 6c3c
00000190: d8ba d0bc 8547 413d 90ed a4bc ec4f 89bd
000001a0: b8c4 a93b 517e 7cbd 277a b53c 88cd b3bd
000001b0: dc4a 4aba 8390 1c3d af59 51bd 6a46 02bd
000001c0: a61f 1dbd b178 50bd 3bdc e63c 4f31 0d3c
000001d0: 21df 2ebc 223d 1fbb 54b5 46bd 993b 7ebd
000001e0: 1d3e 04be ba10 14bd 2af6 a9bb e61b 5cbc
000001f0: 0979 edbd ea21 32be 762d 4fbd 7dd7 aebd
00000200: f71c 1ebe 8a4f 43bd 3b71 a83c a0d8 2fbe
00000210: 8e87 d3bc 686c 80bc 11a5 5e3d 57de 5bbd
00000220: 6a39 9e3d 83a4 34be c674 edbd 604c f2bd
00000230: 37db 31be 9405 18ba 916a b9bd de3e f0bd
00000240: 2a0d 8f3d 6c04 9f3d 63bb 9ebd c894 adbd
00000250: e5db 723c fe09 9c3c ec29 2abd 08ef 243c
00000260: 0100 fabd 781d bbbb 6fd9 31bd f109 f3bd
00000270: d60f 2ebc ef30 df3c bd9c 2dbe d8c5 9bbc
00000280: 2277 9fbd 9d1b 853d 9435 91bd fcc9 93bd
00000290: 6c63 e83b 6f64 35be 722c c6bd 8637 46be
000002a0: 5cf1 f53c c98e a63d 4544 30bd 96ed 6ebd
000002b0: 8d68 98bd 0739 9a3c 8f64 7cbd b33c 26bd
000002c0: a320 dabc bf2a be3c 8326 933c b12f d1bd
000002d0: 7962 59bd e20a f9bd febf 89bd 6991 e4bd
000002e0: bde9 5a3d 722c f7bd 5849 09bd 8574 083d
000002f0: fdeb 19be be5f 83bd ab63 5fbd 84c1 21be
00000300: 8452 4cbb b819 33bd 4886 eabc c977 bc3c
00000310: 8583 6a3d 7ef1 2ebd 5f84 a6bd f581 963c
00000320: 8d75 843d ed34 2b3d 56ff 4abd 2372 d9bc
00000330: 3bc0 8bbc 4566 b93b a83b 83bb 8ab0 76bd
00000340: 8c1b 733d 47a9 923c 4db4 b7bc 305f 10bd
00000350: 81dc 3fbc 4efa 0a3d bc77 053d 8c1a 65bd
00000360: 2062 1f3d dc96 f2bc ab3f 273d ddef c3bb
00000370: 4335 183c 9553 6ebc 92cc 85bd 200b a93c
00000380: 1c53 82bd 3c65 083d 85cf 4d3d e8f5 1cbd
00000390: 90b5 9abd 0856 8d3c 4853 21bc 7f4c 7e3d
000003a0: c552 2abd 813c 243c 75df 5cbd f35f bfba
000003b0: 1203 dd3c 5303 d23d e39e 403c 9e4c a03d
000003c0: a216 643d 468d 943d 6ce1 4d3d efa2 bd3b
000003d0: 9d26 643d d064 453c fbd6 883d 77bb 8d3c
000003e0: f3b3 97bd 0e32 053d 7a17 10bd 1383 a5bd
000003f0: 81d3 0e3d 7677 b3bb 0a5b 243d 392f 93bc

tcn.1.conv2.conv.bias f4 [64]
-0.07087982 -0.05335837 -0.01811723 -0.024863183 0.032575812 -0.06945959 0.06774962 -0.046325702
0.020460725 -0.024841733 0.061530124 -0.008288843 -0.047693867 0.067306966 0.019590912 -0.02646195
-0.051223613 0.06482682 0.051316187 0.029986683 0.0073067197 0.038014002 -0.051744517 0.015945775
-0.04789013 -0.02084911 -0.0684514 -0.043985404 0.05524956 0.032168597 0.061906837 -0.029151302
0.04766479 -0.014164122 -0.03890027 -0.041008342 0.06447803 0.05529076 0.058510456 0.045125905
-0.046760526 -0.018830266 0.0016200785 -0.050674126 0.04203143 -0.040878702 -0.063607305 0.056073166
-0.01926471 0.04103098 0.010523765 -0.015319778 0.00015133194 -0.048498426 -0.01906246 -0.011085763
0.03244311 -0.04524801 -0.053296294 0.027911058 -0.03872396 0.054294325 -0.0445916 0.011798108
00000000: 7029 91bd 4e8e 5abd 966a 94bc e0ad cbbc
00000010: 376e 053d d440 8ebd 50c0 8a3d 05c0 3dbd
00000020: 409d a73c e480 cbbc 0307 7c3d edcd 07bc
00000030: a55a 43bd 3cd8 893d 1f7d a03c bbc6 d8bc
00000040: dacf 51bd ecc3 843d ec30 523d a2a6 f53c
00000050: 356d ef3b 92b4 1b3d 0ff2 53bd b7a0 823c
00000060: 7128 44bd c1cb aabc 3f30 8cbd 0a2a 34bd
00000070: 5d4d 623d 38c3 033d 0692 7d3d b6ce eebc
00000080: 283c 433d a210 68bc e455 1fbd 5df8 27bd
00000090: 0f0d 843d 9078 623d a9a8 6f3d f1d5 383d
000000a0: f787 3fbd ee41 9abc d058 d43a ac8f 4fbd
000000b0: 2629 2c3d 6d70 27bd 8c44 82bd faac 653d
000000c0: 06d1 9dbc 1a10 283d df6b 2c3c ceff 7abc
000000d0: dcae 1e39 49a6 46bd e028 9cbc 0fa1 35bc
000000e0: 11e3 043d fa55 39bd 374d 5abd bba5 e43c
000000f0: 049d 1ebd ba63 5e3d aea5 36bd da4c 413c
