models/checkpoints/tcn_kernel15.pt (torch, 350689 bytes, 41 tensors)

tcn.0.conv1.conv.weight f4 [32, 16, 5]
0.044755712 -0.15176544 -0.15658754 0.02010439 0.06065673 0.05396832 -0.08235281 -0.042799126
-0.0069947997 0.056245137 -0.041099075 -0.014094677 -0.14205182 0.004820889 -0.200489 -0.012083338
0.0101219 -0.090928406 -0.10097798 0.050924968 -0.17184614 -0.113120034 -0.1427505 -0.16775693
-0.1646169 -0.026309064 -0.036513936 -0.11415652 0.069229886 0.009111502 0.0006334323 0.059615042
0.012002756 -0.059505522 -0.045291033 0.082018025 0.022960054 -0.015916986 0.05226796 -0.06356045
0.07049066 -0.10468059 -0.022264438 0.0088723395 0.037331183 -0.10579605 -0.09356773 0.06925495
0.046620566 0.048727453 0.027003124 -0.10455497 -0.076763816 -0.07405291 -0.07119347 0.017982684
-0.01831871 0.026168145 -0.12361075 -0.13335499 0.1356002 0.124981746 0.1796316 0.16507126
0.20284869 0.1475486 0.09827267 0.087785855 -0.050114073 -0.056260977 -0.024643224 0.034819234
-0.0057560927 -0.026907124 0.10356117 0.19295081 0.295623 0.29472843 0.27534097 0.3241603
0.00037188217 0.08471349 0.016384572 0.14013173 0.5209302 0.068768926 -0.018957935 -0.10304282
-0.012356024 -0.038288143 -0.031938788 0.08257195 0.04499962 -0.075241394 0.04512754 0.022982405
-0.04001767 0.06848147 -0.05868961 0.08099412 0.008990825 0.003386622 0.07223258 -0.050219063
0.08025579 -0.28011543 -0.17794977 -0.15484905 -0.08472313 0.16217452 -0.23036675 -0.16200238
-0.18811288 0.097904965 0.1285481 -0.19693467 -0.121517025 -0.0073476275 0.114566736 0.24877927
0.10144003 0.16659532 -0.034021955 -0.019874077 -0.12068745 -0.078279115 -0.04744157 0.06997838
-0.062159345 0.111585066 0.05420265 -0.04858123 0.01734397 0.008058603 -0.037209664 -0.005549982
-0.07226619 0.11712536 -0.0723243 0.14605816 0.023249479 0.05075903 0.08007781 -0.067922086
-0.070968926 0.0641621 -0.058547106 -0.07564941 0.012087243 0.06251072 -0.024731431 0.0074959313
0.050412595 0.052143626 -0.08094849 -0.0109423315 0.025969528 -0.089401424 0.02065447 -0.118148506
-0.081939645 0.036823474 0.18546219 0.05543398 0.2992802 -0.077905744 -0.07653864 -0.029614668
-0.0409251 0.040935025 0.007734071 -0.079220176 -0.034472294 -0.049964894 -0.18806991 0.028930444
0.0025753356 0.07713717 0.07556652 0.043574214 0.10296476 0.10478222 -0.00038594112 -0.1011888
-0.11911363 -0.067114495 -0.174517 -0.0050773323 0.07719589 0.14116116 -0.16804588 -0.17053387
-0.10581149 -0.042493373 0.045452535 -0.23490521 -0.21875054 -0.17469865 -0.14413264 -0.0113315005
-0.015603229 -0.118035436 0.04793899 -0.12142502 0.046300977 -0.06812407 -0.052632574 -0.124630004
0.03510943 -0.0020488342 0.047145493 -0.037971348 -0.0145491315 0.06205227 0.052121338 -0.100331455
-0.014982408 0.0015877294 0.114078514 -0.09040541 0.07160755 0.17881514 0.029572707 0.08285203
-0.004776538 -0.066764325 0.027228227 -0.09984432 -0.07230334 -0.014456044 0.050944462 0.073515974
-0.10723784 -0.1256005 0.040173028 -0.17049724 -0.15575375 -0.0825362 -0.03983378 -0.23642506
-0.03405669 0.18641026 0.09049613 0.18752049 0.5420694 -0.04455873 -0.06264048 0.06112011
0.09159103 0.05775113 0.08788036 -0.107236944 0.06861237 -0.11704282 -0.11108818 0.04705668
00000000: c451 373d 6668 1bbe 7c58 20be f6b1 a43c
00000010: 3173 783d e30d 5d3d 97a8 a8bd 234e 2fbd
00000020: a234 e5bb 4d61 663d 8157 28bd 5ced 66bc
00000030: 0876 11be 8cf8 9d3b fd4c 4dbe 31f9 45bc
00000040: 53d6 253c ac38 babd 8bcd cebd b396 503d
00000050: 6ff8 2fbe 7aab e7bd 302d 12be 79c8 2bbe
00000060: 5591 28be 1b86 d7bc a38f 15bd e5ca e9bd
00000070: 66c8 8d3d 6948 153c ec0c 263a e72e 743d
00000080: 35a7 443c 10bc 73bd 1783 39bd 11f9 a73d
00000090: b916 bc3c 5764 82bc ee16 563d fb2b 82bd
000000a0: 685d 903d c762 d6bd e963 b6bc 4a5d 113c
000000b0: 95e8 183d 99ab d8bd 70a0 bfbd 8ad5 8d3d
000000c0: 35f5 3e3d 7096 473d a835 dd3c eb20 d6bd
000000d0: 5936 9dbd 0da9 97bd e2cd 91bd 6c50 933c
000000e0: 1f11 96bc 945e d63c a227 fdbd 368e 08be
000000f0: c7da 0a3e 6ef6 ff3d 59f1 373e 7108 293e
00000100: 91b7 4f3e fb16 173e 2e43 c93d 12c9 b33d
00000110: 6a44 4dbd e971 66bd 96e0 c9bc 9d9e 0e3d
00000120: 9b9d bcbb 546c dcbc e117 d43d e694 453e
00000130: e65b 973e a5e6 963e 7ef9 8c3e 57f8 a53e
00000140: 2ef9 c239 447e ad3d f038 863c b17e 0f3e
00000150: ae5b 053f b9d6 8c3d ac4d 9bbc 1d08 d3bd
00000160: ec70 4abc 07d4 1cbd 3fd2 02bd 7c1b a93d
00000170: 8651 383d 2918 9abd a8d7 383d 9945 bc3c
00000180: 91e9 23bd 0340 8c3d 8464 70bd 3fe0 a53d
00000190: 414e 133c 17f2 5d3b adee 933d 81b2 4dbd
000001a0: 265d a43d 4a6b 8fbe 7738 36be c090 1ebe
000001b0: 5283 adbd 1411 263e 43e5 6bbe f4e3 25be
000001c0: aaa0 40be 6682 c83d 1da2 033e 3ea9 49be
000001d0: ebdd f8bd 5ec4 f0bb f7a1 ea3d febf 7e3e
000001e0: cabf cf3d f797 2a3e 9b5a 0bbd f6ce a2bc
000001f0: fb2a f7bd cd50 a0bd 1752 42bd d350 8f3d
00000200: cc9a 7ebd b686 e43d 9903 5e3d 1dfd 46bd
00000210: f114 8e3c 3b08 043c 2969 18bd a0dc b5bb
00000220: 4c00 94bd 6cdf ef3d c31e 94bd 4590 153e
00000230: b175 be3c b3e8 4f3d d6ff a33d bc1a 8bbd
00000240: 2858 91bd 6b67 833d 17cf 6fbd 14ee 9abd
00000250: 9209 463c 9f05 803d 9299 cabc 6ea0 f53b
00000260: 707d 4e3d 8e94 553d 52c8 a5bd 7747 33bc
00000270: 0cbe d43c 1818 b7bd 9033 a93c d8f7 f1bd
00000280: f9cf a7bd 36d4 163d cde9 3d3e be0e 633d
00000290: 413b 993e 0c8d 9fbd 4ac0 9cbd 769a f2bc
000002a0: 14a1 27bd 7cab 273d 176e fd3b 303e a2bd
000002b0: d232 0dbd fda7 4cbd 6695 40be 8aff ec3c
000002c0: f6c6 283b 18fa 9d3d 9fc2 9a3d e07a 323d
000002d0: 30df d23d 1098 d63d 2458 cab9 133c cfbd
000002e0: d9f1 f3bd 5373 89bd 96b4 32be c05f a6bb
000002f0: e118 9e3d 8d8c 103e 3814 2cbe 6ea0 2ebe
00000300: b2b3 d8bd 880d 2ebd 702c 3a3d fe8a 70be
00000310: 2400 60be 34e4 32be 8297 13be c2a7 39bc
00000320: b0a4 7fbc 90bc f1bd ad5b 443d aead f8bd
00000330: 18a6 3d3d a284 8bbd 4195 57bd 043e ffbd
00000340: e8ce 0f3d bc45 06bb a21b 413d d887 1bbd
00000350: 7b5f 6ebc 852a 7e3d 2f7d 553d 947a cdbd
00000360: c678 75bc 5c1b d03a ffa1 e93d 7926 b9bd
00000370: fba6 923d 511b 373e 7642 f23c 53ae a93d
00000380: 8184 9cbb bcbb 88bd bb0d df3c 2e7b ccbd
00000390: c613 94bd 0bd9 6cbc 24ab 503d 8b8f 963d
000003a0: 839f dbbd 6b9d 00be 798c 243d d496 2ebe
000003b0: e97d 1fbe bd08 a9bd bf28 23bd 6919 72be
000003c0: 077f 0bbd 55e2 3e3e 0956 b93d 5f05 403e
000003d0: 0fc5 0a3f 3783 36bd a749 80bd 1559 7a3d
000003e0: 1494 bb3d 738c 6c3d 9efa b33d 0b9f dbbd
000003f0: a484 8c3d 25b4 efbd 3382 e3bd 81be 403d

tcn.0.conv1.conv.bias f4 [32]
-0.07778909 0.10927783 0.044757042 -0.0318564 -0.01906998 0.03218406 -0.06429169 0.026202504
-0.10093641 0.037164915 0.09276878 0.09739521 0.027982432 -0.09945418 0.078224525 -0.101888224
0.032790188 0.04052282 -0.08419203 0.075040996 -0.07640105 0.015109191 0.016553566 -0.10407166
-0.028197981 0.084634066 0.10886039 -0.031878285 0.06440071 0.07259165 0.108254455 -0.010543739
00000000: e34f 9fbd 0ecd df3d 2953 373d db7b 02bd
00000010: a638 9cbc 6fd3 033d 5dab 83bd a2a6 d63c
00000020: c0b7 cebd 3d3a 183d 8ffd bd3d 2477 c73d
00000030: 6a3b e53c a2ae cbbd 2e34 a03d c6aa d0bd
00000040: 014f 063d 42fb 253d df6c acbd 18af 993d
00000050: 2778 9cbd 8a8c 773c 589b 873c 8623 d5bd
00000060: 74ff e6bc a054 ad3d 32f2 de3d ce92 02bd
00000070: 85e4 833d eeaa 943d 83b4 dd3d a6bf 2cbc

tcn.0.bn1.weight f4 [32]
1.0055453 1.1749333 0.9237328 1.0642484 0.96214455 0.96453506 0.81101453 0.9241464
0.9933416 0.97660804 1.1501349 0.8249708 0.9750182 1.0413966 1.301141 0.87850195
1.180345 0.9025748 1.007539 0.9418216 0.7992471 0.9012189 1.0685889 1.03218
1.0245454 1.0430764 0.883469 0.9434479 1.2183496 0.89747196 0.8904187 0.9429596
00000000: b5b5 803f 3764 963f c179 6c3f 4b39 883f
00000010: 1b4f 763f c5eb 763f a69e 4f3f dc94 6c3f
00000020: a34b 7e3f fc02 7a3f 9f37 933f 4931 533f
00000030: cb9a 793f 7c4c 853f ca8b a63f 81e5 603f
00000040: 8c15 973f 240f 673f 0af7 803f 381b 713f
00000050: 759b 4c3f 48b6 663f 85c7 883f 791e 843f
00000060: 4e24 833f 8783 853f 062b 623f cd85 713f
00000070: e1f2 9b3f b9c0 653f 7bf2 633f cd65 713f

tcn.0.bn1.bias f4 [32]
-0.10925011 -0.21971555 -0.1549418 -0.04365059 0.21203601 -0.14788474 -0.14280546 0.021063939
-0.14221719 -0.0729222 0.12825003 -0.21093844 -0.063444436 -0.14326786 -0.019052058 -0.11268036
0.07658762 -0.22650929 -0.041394856 0.04423967 -0.16379292 -0.26824376 -0.08162381 -0.08930119
-0.24403852 -0.00956393 -0.08610524 -0.16991624 0.16514198 -0.0053865 -0.17812891 -0.064864084
00000000: 86be dfbd 1dfd 60be 10a9 1ebe f6ca 32bd
00000010: f81f 593e 196f 17be 983b 12be 488e ac3c
00000020: 62a1 11be 3c58 95bd fa53 033e 3f00 58be
00000030: 28ef 81bd cfb4 12be 1013 9cbc f6c4 e6bd
00000040: f8d9 9c3d 0df2 67be a78d 29bd a834 353d
00000050: 55b9 27be 3f57 89be 622a a7bd 8be3 b6bd
00000060: 3ce5 79be 08b2 1cbc f257 b0bd 86fe 2dbe
00000070: fb1a 293e 3d81 b0bb 6d67 36be 76d7 84bd

tcn.0.bn1.running_mean f4 [32]
-0.84407586 -3.0994744 -4.078997 1.8012459 0.21532989 0.39182407 3.7725549 -3.5641503
-3.7280378 3.5385556 0.12045675 1.6676732 -5.831412 -1.0668017 -1.8882183 -0.51152676
-4.145722 4.1448245 -0.046338625 -5.83285 0.13250865 -1.9915241 -1.0499102 -2.3405664
-2.0654824 -1.6722016 4.67248 8.112145 -0.80932003 -3.9927404 -2.470965 -4.2529764
00000000: 5b15 58bf ca5d 46c0 2587 82c0 3a8f e63f
00000010: 707f 5c3e 2a9d c83e 8a71 7140 0a1b 64c0
00000020: 2c98 6ec0 b277 6240 07b2 f63d 5176 d53f
00000030: ed9a bac0 f58c 88bf 23b1 f1bf 6bf3 02bf
00000040: c1a9 84c0 67a2 8440 92cd 3dbd b5a6 bac0
00000050: 59b0 073e 43ea febf 7563 86bf d7cb 15c0
00000060: dd30 04c0 b40a d6bf f584 9540 59cb 0141
00000070: 992f 4fbf 0f89 7fc0 4a24 1ec0 6218 88c0

tcn.0.bn1.running_var f4 [32]
22.707785 8.587018 8.272967 5.5691795 16.727615 18.982971 13.40604 16.441967
9.234168 11.1844 3.5033565 8.539335 8.528415 5.227929 6.916616 6.9012675
36.23141 17.800438 8.529619 9.487227 25.078537 4.498192 3.968363 5.4014006
5.013484 4.0551605 11.405701 15.671732 2.6261177 11.690931 7.919138 3.6353176
00000000: 8ba9 b541 6d64 0941 135e 0441 b836 b240
00000010: 28d2 8541 20dd 9741 247f 5641 2689 8341
00000020: 27bf 1341 4df3 3241 fe36 6040 1ea1 0841
00000030: 6374 0841 324b a740 eb54 dd40 2fd7 dc40
00000040: f7ec 1042 4c67 8e41 5279 0841 afcb 1741
00000050: d8a0 c841 30f1 8f40 a9f9 7d40 46d8 ac40
00000060: 766e a040 e0c3 8140 c07d 3641 6abf 7a41
00000070: 5012 2840 0e0e 3b41 9469 fd40 0ba9 6840

tcn.0.conv2.conv.weight f4 [32, 32, 5]
-0.012604491 0.10623997 -0.008264475 0.047101583 -0.053270373 -0.058880843 -0.08226239 0.06055882
-0.06629257 -0.1681255 0.14936318 0.12731473 0.046568926 -0.032507766 0.023031605 -0.02099832
0.2361796 0.16402374 0.009523967 -0.049609996 0.07735082 0.098196976 0.00079470465 0.18652645
0.074325204 -0.30446965 -0.1508938 -0.01917528 -0.07476318 -0.054914672 -0.06337922 -0.05880415
0.050154068 0.0055539017 0.12729488 -0.113984935 -0.11537722 -0.13705434 -0.008757366 0.02782324
-0.080699824 -0.10017475 -0.13487823 -0.26223028 0.005918058 -0.1367885 -0.1266306 0.07886793
0.019687956 -0.102186374 0.107464306 0.07059354 0.11597288 -0.015506713 -0.15951149 -0.018137982
0.007588581 0.11806834 0.021812007 -0.19496587 0.04985958 -0.10069439 -0.10057881 -0.07048622
-0.13547172 0.090621844 -0.13803972 -0.0030889146 -0.077690385 -0.17334138 -0.22340114 0.03523984
-0.14475307 -0.0560234 -0.29991665 -0.1161603 -0.104700536 -0.09141377 -0.033019196 0.06468113
-0.24167961 -0.28739193 -0.22801526 -0.21202762 -0.15413168 -0.013061232 0.075947896 -0.11647492
-0.046050474 -0.14206664 -0.018637322 -0.12300582 -0.07820304 -0.11157423 -0.13800268 0.030393612
0.019260697 -0.06989925 -0.010349627 -0.12567067 -0.055436164 -0.11313641 -0.20385233 -0.09554978
0.0045139026 -0.17440286 -0.12746187 -0.09026697 -0.1398427 -0.18711019 -0.028678283 0.055130787
0.08949782 0.105956584 -0.36747503 -0.10688107 -0.14118686 0.03838701 -0.07726387 -0.17382944
0.010998677 -0.07533659 -0.068044126 -0.041030902 -0.27075815 -0.14712004 -0.18069047 -0.099250264
-0.17469412 0.017354835 -0.029553909 -0.0816422 0.022215828 0.07336301 0.027988914 0.039142445
0.011395639 0.015889473 0.06059066 -0.10911845 0.013790737 0.013776709 0.038349662 -0.05681727
-0.4058124 -0.1730155 0.032080963 -0.11194174 -0.09298013 -0.023089658 -0.11352327 -0.11491642
-0.050751414 -0.067772895 -0.098957166 -0.03672574 -0.012657393 0.0029014894 -0.14856574 0.13634035
0.052513283 -0.04898339 -0.04605519 -0.011572236 0.053870045 0.14774854 0.05917477 0.16383493
0.09219193 -0.091300614 0.05410095 0.017472725 -0.03436054 -0.070925914 -0.042049102 -0.030793048
-0.08899887 0.037889395 0.15656886 0.12673277 -0.014084683 0.09223416 0.16492613 -0.052453402
0.05746874 0.108652115 0.16135056 0.072781794 0.12162491 0.03962438 -0.17294815 -0.11270907
-0.13039884 -0.19535391 -0.06085025 -0.014890753 -0.12217812 -0.12171816 -0.0239477 -0.07763461
-0.15029909 -0.20869394 -0.1431476 -0.10892673 -0.04807106 0.049473576 0.014586411 -0.12199589
-0.057186827 -0.0031416272 0.08462665 0.039742116 -0.035201866 -0.058090724 0.022547558 -0.009076449
0.022064997 -0.09015136 0.017761534 0.13459463 -0.088343434 -0.0019167931 -0.108382635 -0.15066154
-0.092119634 -0.03243952 -0.20948417 -0.16925268 -0.0931384 -0.028965427 0.1346798 0.17746432
0.015071349 -0.03594424 -0.10990249 -0.007729881 -0.017672172 -0.0977726 -0.0003740456 0.022655712
-0.024645844 -0.118422724 -0.08726337 -0.15942502 -7.453819e-05 0.00279737 0.023420963 0.0004256078
0.11628133 -0.006158959 0.022215908 -0.017990373 0.029868543 0.1521351 0.057274144 -0.061330874
00000000: 1183 4ebc 5794 d93d b867 07bc 97ed 403d
00000010: 0932 5abd 0a2d 71bd 2f79 a8bd 860c 783d
00000020: 66c4 87bd 1729 2cbe a9f2 183e cb5e 023e
00000030: 0fbf 3e3d dd26 05bd c7ac bc3c ab04 acbc
00000040: 11d9 713e d7f5 273e 6a0a 1c3c da33 4bbd
00000050: 1b6a 9e3d 7f1b c93d ba53 503a ca00 3f3e
00000060: d037 983d 72e3 9bbe e883 1abe 7a15 9dbc
00000070: 701d 99bd 35ee 60bd f7cc 81bd 9fdc 70bd
00000080: 5a6e 4d3d 81fd b53b 9759 023e ef70 e9bd
00000090: e44a ecbd f957 0cbe 0e7b 0fbc 90ed e33c
000000a0: f345 a5bd 6b28 cdbd 851d 0abe 0c43 86be
000000b0: 45ec c13b 4912 0cbe 74ab 01be 8285 a13d
000000c0: a348 a13c 1747 d1bd 3f16 dc3d 5993 903d
000000d0: 3083 ed3d de0f 7ebc fb56 23be 1b96 94bc
000000e0: a2a9 f83b d0cd f13d 18af b23c 22a5 47be
000000f0: 8f39 4c3d dc38 cebd 43fc cdbd 145b 90bd
00000100: 19b9 0abe f297 b93d 495a 0dbe 636f 4abb
00000110: 231c 9fbd 6780 31be 45c3 64be a757 103d
00000120: 263a 14be cb78 65bd ad8e 99be 74e5 edbd
00000130: 3c6d d6bd 2537 bbbd 233f 07bd 8a77 843d
00000140: dc7a 77be 0925 93be d57c 69be c51d 59be
00000150: b2d4 1dbe c7fe 55bc 928a 9b3d 678a eebd
00000160: 6c9f 3cbd eb79 11be 4cad 98bc 7aea fbbd
00000170: ea28 a0bd 0881 e4bd 9350 0dbe 06fc f83c
00000180: 9cc8 9d3c 5727 8fbd 7b91 29bc d0af 00be
00000190: 0811 63bd 10b4 e7bd aabe 50be 9aaf c3bd
000001a0: 5ce9 933b aa96 32be 5d85 02be e4dd b8bd
000001b0: ed32 0fbe d099 3fbe b8ee eabc d2d0 613d
000001c0: a24a b73d c4ff d83d b025 bcbe 76e4 dabd
000001d0: 4a93 10be b33b 1d3d 853c 9ebd 5800 32be
000001e0: cc33 343c 124a 9abd b85a 8bbd 0510 28bd
000001f0: d0a0 8abe a3a6 16be ec06 39be b943 cbbd
00000200: 04e3 32be ba2b 8e3c 0a1b f2bc 0734 a7bd
00000210: f8fd b53c 593f 963d 0249 e53c d453 203d
00000220: c6b4 3a3c a42a 823c e92d 783d 7e79 dfbd
00000230: 8bf2 613c b5b7 613c 8914 1d3d 3ab9 68bd
00000240: a5c6 cfbe fa2a 31be 5467 033d b641 e5bd
00000250: 5e6c bebd 8626 bdbc e37e e8bd 4d59 ebbd
00000260: b7e0 4fbd 84cc 8abd 0eaa cabd bb6d 16bd
00000270: f460 4fbc ea26 3e3b 9e21 18be ce9c 0b3e
00000280: 2b18 573d cfa2 48bd 5ea4 3cbd 7a99 3dbc
00000290: d6a6 5c3d 654b 173e 3e61 723d 58c4 273e
000002a0: 1fcf bc3d d1fb babd f598 5d3d f622 8f3c
000002b0: a3bd 0cbd 9b41 91bd ae3b 2cbd b441 fcbc
000002c0: 0a45 b6bd e931 1b3d 9653 203e 3cc6 013e
000002d0: 71c3 66bc 43e5 bc3d 65e2 283e 61d9 56bd
000002e0: 5764 6b3d 0085 de3d 1539 253e 9f0e 953d
000002f0: 7b16 f93d 2d4d 223d 5219 31be 03d4 e6bd
00000300: 4687 05be db0a 48be 1d3e 79bd 58f8 73bc
00000310: 8638 fabd 5f47 f9bd f82d c4bc e5fe 9ebd
00000320: 01e8 19be ddb3 55be 4995 12be fa14 dfbd
00000330: 29e6 44bd cea4 4a3d d8fb 6e3c fbd8 f9bd
00000340: bc3c 6abd c2e3 4dbb bd50 ad3d a1c8 223d
00000350: d52f 10bd 8af0 6dbd a8b5 b83c 63b5 14bc
00000360: a7c1 b43c 47a1 b8bd a380 913c 2dd3 093e
00000370: 67ed b4bd e73c fbba b7f7 ddbd 0547 1abe
00000380: 38a9 bcbd 4ddf 04bd 0583 56be 9350 2dbe
00000390: 58bf bebd e748 edbc 80e9 093e 35b9 353e
000003a0: d2ed 763c 443a 13bd 8f14 e1bd f14a fdbb
000003b0: 3bc5 90bc 003d c8bd 8d1b c4b9 7998 b93c
000003c0: 15e6 c9bc 9d87 f2bd 23b7 b2bd 5040 23be
000003d0: 6351 9cb8 1554 373b 52dd bf3c 1d24 df39
000003e0: e824 ee3d 18d1 c9bb 23fe b53c 8c60 93bc
000003f0: e0ae f43c 4ec9 1b3e 4b98 6a3d 1536 7bbd

tcn.0.conv2.conv.bias f4 [32]
0.026897816 -0.0046376726 0.06496269 0.042643674 0.06950479 -0.047885794 0.07635307 0.025206592
0.013115247 0.023563726 -0.038029484 0.034237977 0.06339148 -0.0012910878 0.010785191 0.021864338
0.016823208 0.054747608 0.0032657378 0.06632602 -0.0029985262 -0.0006482295 0.014248612 -0.02774209
0.01685431 0.058442578 -0.036569946 -0.083651945 0.06531561 0.011131975 0.0439045 -0.018690966
00000000: cf58 dc3c 9ef7 97bb 290b 853d 22ab 2e3d
00000010: 8758 8e3d e523 44bd 005f 9c3d 0e7e ce3c
00000020: 55e1 563c b708 c13c cec4 1bbd 1f3d 0c3d
00000030: 64d3 813d b839 a9ba 5fb4 303c d71c b33c
00000040: d3d0 893c 073f 603d fd05 563b f0d5 873d
00000050: ec82 44bb f2ed 29ba 0373 693c 6143 e3bc
00000060: 0d12 8a3c 7c61 6f3d 5eca 15bd b651 abbd
00000070: 31c4 853d e362 363c 34d5 333d cc1d 99bc

tcn.0.bn2.weight f4 [32]
0.97188807 0.69383264 0.8409246 0.74166113 0.6205776 0.7567053 0.9044045 0.72036684
0.5649442 0.7576483 0.9739082 0.9887514 0.54036784 0.6644781 0.8286094 0.6785403
0.83613545 0.69641334 0.43094528 0.84492713 0.82461065 0.6944776 0.88269955 0.9621519
0.6665066 0.90095145 0.41511136 0.8028639 0.9936527 0.5242638 0.748044 0.6353569
00000000: a8cd 783f 049f 313f d646 573f 81dd 3d3f
00000010: 2cde 1e3f 70b7 413f 0e87 673f f669 383f
00000020: 2fa0 103f 3df5 413f 0c52 793f d01e 7d3f
00000030: 8c55 0a3f 3d1b 2a3f bf1f 543f d1b4 2d3f
00000040: f90c 563f 2548 323f dca4 dc3e 254d 583f
00000050: af19 533f 49c9 313f 99f8 613f 964f 763f
00000060: 2da0 2a3f c1a4 663f 7a89 d43e 7d88 4d3f
00000070: 0660 7e3f 2736 063f d07f 3f3f c0a6 223f

tcn.0.bn2.bias f4 [32]
0.12358029 -0.26504633 -0.116031975 -0.2203186 -0.48676705 -0.14645474 -0.13402717 -0.4386542
-0.5387119 -0.1732191 -0.014605212 0.024465041 -0.47085077 -0.15290004 -0.083755024 -0.14013767
-0.112359665 -0.24767447 -0.49765834 -0.057635114 -0.24599402 -0.2024881 -0.27152318 -0.06913137
-0.21237338 -0.13298436 -0.3492071 -0.21376485 0.115948945 -0.36402577 -0.40575778 -0.20711836
00000000: aa17 fd3d 27b4 87be 2ca2 edbd 339b 61be
00000010: 8839 f9be 3bf8 15be 6b3e 09be 4997 e0be
00000020: 06e9 09bf 5960 31be b34a 6fbc e96a c83c
00000030: 5a13 f1be d491 1cbe c187 abbd 4080 0fbe
00000040: d31c e6bd 609e 7dbe 13cd febe cc12 6cbd
00000050: dbe5 7bbe 0a59 4fbe 1605 8bbe bf94 8dbd
00000060: 6878 59be 0d2d 08be 46cb b2be 2ce5 5abe
00000070: a476 ed3d 9661 babe 7cbf cfbe d616 54be

tcn.0.bn2.running_mean f4 [32]
-2.8648953 -0.69098026 0.38944417 -1.7067952 -0.28300503 -2.3216836 -0.23422796 -0.59617734
-0.7519864 -1.9887692 0.38151956 -0.36498988 -0.813196 -0.2640675 -1.1211518 -0.35071093
-1.5148964 -1.1942512 -1.8226558 -1.4951465 -0.5266126 -2.7889419 1.6080356 0.36613554
-1.4273665 -0.39927593 -1.4598625 -0.6096859 -2.1279275 -0.45407173 -0.3049711 -0.6554413
00000000: 725a 37c0 15e4 30bf 3a65 c73e 4478 dabf
00000010: 09e6 90be 7796 14c0 74d9 6fbe 149f 18bf
00000020: 2e82 40bf fd8f febf 8856 c33e f4df babe
00000030: 9d2d 50bf db33 87be e781 8fbf 6290 b3be
00000040: 20e8 c1bf 39dd 98bf c94c e9bf f660 bfbf
00000050: 15d0 06bf 067e 32c0 1cd4 cd3f 1e76 bb3e
00000060: f2b3 b6bf e56d ccbe c6dc babf 6014 1cbf
00000070: f72f 08c0 177c e8be 2c25 9cbe 00cb 27bf

tcn.0.bn2.running_var f4 [32]
4.6736875 4.0571704 3.2492688 6.7975783 4.5566273 6.2360196 2.5036116 4.9713316
4.4391584 7.9800878 4.6017804 4.260505 4.501663 3.2891552 2.2727118 7.192396
3.8047824 6.037399 7.818016 2.0427191 3.024596 5.940065 4.5686884 3.7717195
9.348915 5.4697714 5.5604086 2.8673515 6.4132204 4.1333623 3.1696072 4.2752347
00000000: d98e 9540 57d4 8140 05f4 4f40 c385 d940
00000010: e4cf 9140 798d c740 2c3b 2040 2615 9f40
00000020: 960d 8e40 e15c ff40 c941 9340 0f56 8840
00000030: a00d 9040 8581 5240 1c74 1140 1c28 e640
00000040: 8e81 7340 5f32 c140 302d fa40 e9bb 0240
00000050: fb92 4140 0315 be40 b232 9240 da63 7140
00000060: 2895 1541 5e08 af40 deee b140 b082 3740
00000070: 1a39 cd40 8144 8440 d8da 4a40 b9ce 8840

tcn.0.downsample.weight f4 [32, 16, 1]
-0.62176764 -0.008663981 -0.096489385 -0.015350758 0.14807287 -0.17392074 -0.10202336 -0.14279291
0.1921307 0.16109638 0.17485714 0.10383331 0.38684466 0.08984305 -0.12998691 -0.00082527706
0.023877606 0.20028318 0.049196385 -0.11661735 0.021493591 0.18157156 -0.12778008 -0.3610644
-0.120757945 -0.09602428 0.24858552 0.050878145 0.22291921 0.32186738 0.16060682 0.39271683
-0.6283 -0.246556 0.19627161 -0.06750466 0.032978326 0.12691356 -0.2942938 0.038549986
0.17834933 0.19435595 -0.083769105 -0.32029334 0.20191537 -0.3010735 0.038788572 -0.06011521
-1.0056452 0.048552796 0.035390664 -0.104377165 -0.18031159 0.084985346 -0.13945189 -0.011291936
0.29651427 -0.12534142 0.12744871 -1.759961e-05 0.09926515 0.08064709 0.03862948 0.11644869
-1.3801593 -0.10093145 -0.12655522 0.09081533 0.04576114 0.18350302 0.12507391 0.08487535
0.0022309807 -0.15390152 -0.008822681 0.23492105 -0.08707034 0.023766344 0.08679025 0.19729884
-0.23695512 -0.23839453 -0.010422409 0.11981622 -0.072754994 -0.24178638 0.110059954 -0.21932016
-0.29503062 -0.26402828 -0.036468502 -0.26297832 -0.016704772 0.13603918 0.012693057 0.3776754
-0.016742824 0.23140734 -0.18247527 0.1529201 -0.084754735 -0.18506642 -0.15439922 -0.32414457
0.1497425 -0.062474895 -0.2115337 0.0071948264 0.18446957 0.5685704 0.006492067 -0.32426614
-0.46395394 0.19623242 -0.032687876 -0.0934483 0.06829564 0.06252722 -0.025086775 0.06273138
-0.09985813 0.10492898 -0.049713027 -0.0806661 -0.20862368 -0.15806419 -0.14468656 0.191338
1.3341211 -0.10665179 0.03180006 0.060745936 -0.116384186 -0.02995748 0.15498996 0.14371893
-0.14623246 0.049757592 0.067990504 -0.030681431 0.0029652545 -0.16664985 0.07713604 0.12905328
-0.32324466 -0.038050953 -0.09347974 -0.056140933 -0.17489089 -0.32918808 -0.11826162 0.19566691
0.14729154 -0.17875876 0.257071 -0.042378444 0.37642702 -0.12322358 -0.039902765 -0.33323896
-0.33449283 -0.058483932 0.11360775 -0.10502399 0.17491557 -0.05207661 -0.31570294 -0.1848958
0.13543731 0.17433311 -0.050482 -0.08416548 -0.34099597 -0.085894726 -0.031182336 -0.039845835
-0.10566155 0.14993103 -0.0509138 -0.058927875 -0.16858192 0.09722529 -0.08588535 -0.15440297
-0.25884363 0.08767645 -0.2155028 0.33544037 -0.20595294 -0.2868917 -0.1231838 -0.107410595
1.5060612 0.0005268585 0.006337361 -0.028203195 0.033992354 -0.019909382 0.14372224 0.08117846
0.12282629 0.10946943 0.1287793 -0.01800862 -0.048800003 0.10081591 0.006627243 0.021556621
0.6870458 0.011072672 -0.026846997 -0.05814051 0.019647878 0.06941065 -0.06280218 0.09515444
0.23225084 -0.0265681 0.2919323 -0.16406399 -0.2258258 -0.06601857 0.060016036 -0.21321417
-0.38795057 -0.2326053 -0.06599372 0.04500746 -0.014183395 0.03978617 -0.2728866 0.020351673
0.0701129 -0.16062568 0.17851105 -0.097990885 0.011668652 -0.17304671 -0.029765988 0.09116407
0.359144 0.15951309 -0.01195607 0.15417162 -0.043427978 -0.15703017 0.07587213 -0.11894821
-0.40912744 0.16689384 -0.36716312 0.26025024 -0.16864344 0.05549458 0.02736892 -0.117431775
00000000: 2a2c 1fbf 5ff3 0dbc 3a9c c5bd bf81 7bbc
00000010: 6aa0 173e 4718 32be a0f1 d0bd 4e38 12be
00000020: e9bd 443e 73f6 243e c00d 333e 8fa6 d43d
00000030: 8110 c63e a2ff b73d 4a1b 05be 6857 58ba
00000040: f89a c33c 0917 4d3e 2682 493d 14d5 eebd
00000050: 5413 b03c e5ed 393e c8d8 02be 6fdd b8be
00000060: f14f f7bd 61a8 c4bd 348d 7e3e 9a65 503d
00000070: ef44 643e cdcb a43e 1d76 243e 2e12 c93e
00000080: 45d8 20bf 2d79 7cbe 6dfb 483e e23f 8abd
00000090: 4814 073d a1f5 013e adad 96be 97e6 1d3d
000000a0: 35a1 363e 3f05 473e 238f abbd 7dfd a3be
000000b0: e7c2 4e3e 4e26 9abe c4e0 1e3d 5e3b 76bd
000000c0: fbb8 80bf 4cdf 463d cdf5 103d b2c3 d5bd
000000d0: 9aa3 38be cc0c ae3d 7acc 0ebe d001 39bc
000000e0: b8d0 973e 8059 00be ea81 023e e0a2 93b7
000000f0: 874b cb3d 4d2a a53d f239 1e3d a77c ee3d
00000100: 0fa9 b0bf 26b5 cebd b197 01be 63fd b93d
00000110: 0870 3b3d 37e8 3b3e 6013 003e 21d3 ad3d
00000120: a535 123b 5c98 1dbe 028d 10bc 258f 703e
00000130: ef51 b2bd a3b1 c23c 16bf b13d b508 4a3e
00000140: 5da4 72be b21d 74be c0c2 2abc 3562 f53d
00000150: 9200 95bd d996 77be 1d67 e13d 7795 60be
00000160: 410e 97be b72e 87be ff5f 15bd 18a5 86be
00000170: 72d8 88bc db4d 0b3e 8af6 4f3c ac5e c13e
00000180: 3f28 89bc 0cf6 6c3e ccda 3abe 1697 1c3e
00000190: e493 adbd 0d82 3dbe d41a 1ebe 47f6 a5be
000001a0: 1956 193e ade5 7fbd 4a9c 58be 94c2 eb3b
000001b0: 97e5 3c3e d48d 113f 68bb d43b 3606 a6be
000001c0: 5f8b edbe 27f1 483e b9e3 05bd d361 bfbd
000001d0: 96de 8b3d 450e 803d c882 cdbc 4f79 803d
000001e0: 6b82 ccbd 01e5 d63d e39f 4bbd 4534 a5bd
000001f0: 72a1 55be 94db 21be b728 14be 1cee 433e
00000200: 7bc4 aa3f 416c dabd c840 023d bbd0 783d
00000210: d55a eebd 6469 f5bc b0b5 1e3e 0e2b 133e
00000220: f6bd 15be 9ece 4b3d 9b3e 8b3d a057 fbbc
00000230: b754 423b 42a6 2abe 80f9 9d3d 8b26 043e
00000240: 5380 a5be 51db 1bbd 4e72 bfbd 09f4 65bd
00000250: 9916 33be 578b a8be 2633 f2bd e85c 483e
00000260: 98d3 163e 890c 37be cf9e 833e 0595 2dbd
00000270: 0bbb c03e a55c fcbd 1571 23bd 4c9e aabe
00000280: a542 abbe d98c 6fbd 2eab e83d d116 d7bd
00000290: 111d 333e 494e 55bd d1a3 a1be 5355 3dbe
000002a0: 14b0 0a3e 6184 323e 37c6 4ebd f45e acbd
000002b0: 0697 aebe 93e9 afbd 1972 ffbc 6335 23bd
000002c0: 1565 d8bd 8587 193e fd8a 50bd 5b5e 71bd
000002d0: bda0 2cbe 0e1e c73d a9e4 afbd d01b 1ebe
000002e0: 2787 84be b68f b33d c4ac 5cbe d7be ab3e
000002f0: 54e5 52be 78e3 92be ca47 fcbd 16fa dbbd
00000300: 9dc6 c03f e01c 0a3a a3a9 cf3b 630a e7bc
00000310: 913b 0b3d 0019 a3bc ec2b 133e e440 a63d
00000320: 5a8c fb3d 8231 e03d b9de 033e d086 93bc
00000330: 83e2 47bd 9278 ce3d 5829 d93b 8397 b03c
00000340: 3ce2 2f3f 276a 353c 3cee dbbc be24 6ebd
00000350: 96f4 a03c 2c27 8e3d 6e9e 80bd 55e0 c23d
00000360: 2ad3 6d3e 58a5 d9bc 2778 953e 6400 28be
00000370: e13e 67be be34 87bd 60d3 753d d154 5abe
00000380: 75a1 c6be 1530 6ebe b727 87bd be59 383d
00000390: 7861 68bc d3f6 223d cbb7 8bbe 8db8 a63c
000003a0: 5a97 8f3d 0f7b 24be 9acb 363e 72af c8bd
000003b0: e02d 3f3c 2833 31be cdd7 f3bc 3ab4 ba3d
000003c0: b9e1 b73e 6657 233e 64e3 43bc 2adf 1d3e
000003d0: 89e1 31bd 84cc 20be d962 9b3d 1e9b f3bd
000003e0: 2779 d1be 38e6 2a3e cefc bbbe 853f 853e
000003f0: deb0 2cbe 494e 633d c934 e03c 1280 f0bd

tcn.0.downsample.bias f4 [32]
0.11190194 -0.10201497 0.20693396 0.10546561 0.27234432 -0.080051996 -0.30817986 -0.11990746
-0.057496943 -0.063174546 0.09999988 -0.3843927 -0.043247122 -0.15110765 -0.3311139 -0.46509945
-0.33487424 -0.12983148 -0.093000315 -0.2546284 -0.058194004 0.1486187 -0.03318669 -0.34093088
-0.18545395 -0.21437918 0.13971059 -0.102023445 -0.11977421 0.27780578 -0.14495523 0.23692091
00000000: d82c e53d 39ed d0bd 7fe6 533e 5bfe d73d
00000010: b770 8b3e 4df2 a3bd c0c9 9dbe 0b92 f5bd
00000020: ea81 6bbd a861 81bd bdcc cc3d 1fcf c4be
00000030: e523 31bd f7bb 1abe c387 a9be 8421 eebe
00000040: a374 abbe 8bf2 04be f376 bebd a75e 82be
00000050: d65c 6ebd 802f 183e c4ee 07bd 7e8e aebe
00000060: a4e7 3dbe 3786 5bbe 4b10 0f3e abf1 d0bd
00000070: 2e4c f5bd 8f3c 8e3e 256f 14be 659b 723e

tcn.1.conv1.conv.weight f4 [64, 32, 5]
-0.061821945 -0.13792288 -0.08108868 -0.080535285 0.012260893 -0.13177629 -0.09716507 0.007994294
0.1324874 0.16319 0.08295969 -0.08580247 -0.03716653 0.008818357 0.17541933 -0.1457875
0.013853416 -0.018510103 -0.004058344 0.02519458 -0.029371424 -0.08623359 0.006577904 -0.042802032
-0.20748794 0.0606757 0.10318851 0.0921215 0.1828024 0.10191594 -0.11418436 -0.014483534
0.020310499 0.08402182 0.03595264 0.016920948 -0.0660121 -0.0044648354 0.07790219 0.0030751599
-0.124895215 0.0060529993 0.083808646 0.07693305 -0.11086531 0.07505223 -0.027933832 -0.033175148
-0.07075827 -0.06947141 -0.066117525 -0.032345697 0.043146066 0.003272744 0.0716084 0.13674638
0.08082993 0.014950916 0.11588804 0.011759812 -0.05542924 -0.017474474 0.1480897 0.119681835
-0.032477222 0.008266067 -0.04055208 0.1590376 0.12262017 -0.024832211 -0.105310515 0.07184201
0.032043133 -0.09550084 0.0075756 -0.061159864 -0.09887602 0.05797581 -0.09016065 -0.09098241
0.027325809 -0.066628896 -0.032346666 0.056844983 -0.07483816 0.065885335 0.007300378 0.045892924
0.27000624 0.11925292 -0.13425891 -0.1695468 0.053540643 0.21794644 -0.020694848 -0.07814865
-0.16932584 0.024734834 0.032785144 -0.012670796 -0.0791641 -0.033417374 0.046000745 0.024974044
0.089427724 -0.022036577 -0.09526499 -0.08789289 -0.015047128 0.076412186 -0.07891867 0.061729077
0.05689791 0.121881 0.021607937 -0.10156344 0.03420515 0.06366778 0.07997722 -0.09042501
-0.04613599 0.10631348 0.12852028 0.14752124 0.10040723 0.018285615 -0.00017729343 0.07690755
0.02988745 -0.042924047 -0.10507088 -0.09311855 0.030384889 0.07628457 -0.0027392753 0.12564808
0.14567874 0.0950802 0.13011704 0.071087375 -0.0842974 -0.04983955 0.06383895 -0.055560358
0.14384507 -0.12622267 0.055409245 -0.040736873 0.046242464 -0.0689881 -0.05059224 -0.013502929
0.0108287325 -0.05852353 -0.023157973 -0.034657694 0.039948203 0.04881322 0.06076012 -0.1474785
-0.045902915 -0.1123067 -0.020160006 0.039499633 -0.051445708 -0.0045147073 -0.11692095 0.009298681
-0.019253684 0.013707421 -0.029950121 -0.12996946 -0.05051279 0.00019228365 0.105622575 -0.07911897
0.028936638 -0.055294536 0.14846024 -0.018672861 -0.05085777 -0.010935707 -0.0011114903 0.039946612
0.1951013 0.006754744 -0.026252536 0.06235069 0.16776241 0.19023843 -0.058088508 -0.19829988
-0.11365954 -0.121941365 -0.059852853 0.004790618 -0.06888582 -0.028782465 0.056852892 -0.029227853
-0.031972364 0.057477687 -0.0046406523 -0.058994707 -0.062224314 0.10773979 0.10521059 -0.0040065716
0.08059796 -0.16563286 -0.15938233 -0.14357316 0.009673303 0.064914726 -0.027480805 0.0033068203
0.016957356 0.0017144973 0.06802796 0.14833735 -0.19720528 -0.117311895 -0.0305784 -0.082701236
0.080871664 -0.08537097 -0.050164677 -0.03976676 -0.07597294 -0.07234151 0.06898708 -0.06498022
-0.06752358 0.08647712 0.024235472 -0.070976295 -0.11745992 -0.14685884 -0.04299399 -0.023184288
-0.04466683 -0.045912225 -0.0034964962 -0.05915569 -0.0052082967 -0.07635562 0.00866521 0.0024748617
-0.0844645 -0.1674132 -0.091620736 0.053843174 -0.08400283 -0.14202079 0.06894079 -0.08394762
00000000: 0239 7dbd a83b 0dbe d211 a6bd afef a4bd
00000010: eae1 483c 5df0 06be 7bfe c6bd 80fa 023c
00000020: c7aa 073e 481b 273e c5e6 a93d 35b9 afbd
00000030: ee3b 18bd df7a 103c 20a1 333e 5249 15be
00000040: 70f9 623c 80a2 97bc dbfb 84bb dd64 ce3c
00000050: 579c f0bc 3d9b b0bd 758b d73b 2f51 2fbd
00000060: b877 54be 1587 783d 7f54 d33d 32aa bc3d
00000070: 8d30 3b3e 4eb9 d03d 7dd9 e9bd 584c 6dbc
00000080: 3462 a63c a213 ac3d 1343 133d cd9d 8a3c
00000090: 5a31 87bd c14d 92bb 2f8b 9f3d 9f88 493b
000000a0: 10c9 ffbd 3d58 c63b dea3 ab3d 138f 9d3d
000000b0: 5a0d e3bd fcb4 993d 7ed5 e4bc aae2 07bd
000000c0: b6e9 90bd 0747 8ebd a068 87bd ec7c 04bd
000000d0: eeb9 303d 887b 563b 6da7 923d 3e07 0c3e
000000e0: 2a8a a53d b0f4 743c b556 ed3d 3aac 403c
000000f0: c509 63bd a126 8fbc d4a4 173e c01b f53d
00000100: d606 05bd 666e 073c f019 26bd c1da 223e
00000110: 4920 fb3d ec6c cbbc 0aad d7bd e721 933d
00000120: a93f 033d f295 c3bd bd3c f83b c482 7abd
00000130: 837f cabd 0b78 6d3d 26a6 b8bd fc54 babd
00000140: 60da df3c bb74 88bd f07d 04bd 49d6 683d
00000150: c044 99bd e4ee 863d 0238 ef3b 38fa 3b3d
00000160: 423e 8a3e e03a f43d 2b7b 09be ad9d 2dbe
00000170: 6f4d 5b3d 5a2d 5f3e 3e88 a9bc 660c a0bd
00000180: c163 2dbe b5a0 ca3c b749 063d 2c99 4fbc
00000190: ca20 a2bd a8e0 08bd 476b 3c3d 5e96 cc3c
000001a0: e225 b73d 0d86 b4bc 4b1a c3bd 3001 b4bd
000001b0: 3b88 76bc fe7d 9c3d 1da0 a1bd a1d7 7c3d
000001c0: c80d 693d bf9c f93d 2103 b13c 7e00 d0bd
000001d0: b31a 0c3d 4164 823d 19cb a33d bf30 b9bd
000001e0: 18f9 3cbd e2ba d93d d29a 033e cf0f 173e
000001f0: 4ea2 cd3d b7cb 953c d8e7 39b9 b581 9d3d
00000200: 87d6 f43c 20d1 2fbd 672f d7bd f0b4 bebd
00000210: bbe9 f83c 163b 9c3d 6a85 33bb e4a9 003e
00000220: cf2c 153e 68b9 c23d 673d 053e 4296 913d
00000230: 1ea4 acbd 8e24 4cbd ffbd 823d 4293 63bd
00000240: 1f4c 133e 8440 01be cef4 623d b5db 26bd
00000250: bd68 3d3d a249 8dbd cf39 4fbd 643b 5dbc
00000260: ff6a 313c 5eb6 6fbd cab5 bdbc 3af5 0dbd
00000270: baa0 233d 5ff0 473d 9bdf 783d 9b04 17be
00000280: b204 3cbd 0e01 e6bd 9926 a5bc 5eca 213d
00000290: bcb8 52bd 1cf0 93bb 4074 efbd 7f59 183c
000002a0: e7b9 9dbc 1795 603c f559 f5bc b716 05be
000002b0: 80e6 4ebd c09f 4939 a650 d83d 2009 a2bd
000002c0: 870c ed3c 867c 62bd f605 183e d4f7 98bc
000002d0: 3d50 50bd ae2b 33bc 6daf 91ba 0f9f 233d
000002e0: a3c8 473e e656 dd3b 8f0f d7bc 7063 7f3d
000002f0: e9c9 2b3e ddcd 423e 37ee 6dbd 200f 4bbe
00000300: 55c6 e8bd 65bc f9bd 4428 75bd 9efa 9c3b
00000310: 0214 8dbd 34c9 ebbc 94de 683d 406f efbc
00000320: 74f5 02bd b96d 6b3d 9d10 98bb 6fa4 71bd
00000330: ecde 7ebd aea6 dc3d a678 d73d 8f49 83bb
00000340: 8b10 a53d a99b 29be 1f35 23be d804 13be
00000350: c67c 1e3c 03f2 843d 6d1f e1bc 3db7 583b
00000360: 27ea 8a3c fcb8 e03a 3e52 8b3d bfe5 173e
00000370: 2ef0 49be 3841 f0bd 8d7f fabc 445f a9bd
00000380: 0ba0 a53d fad6 aebd 7a79 4dbd 78e2 22bd
00000390: b397 9bbd c927 94bd 1949 8d3d 5914 85bd
000003a0: cd49 8abd eb1a b13d 7889 c63c 055c 91bd
000003b0: d48e f0bd 2a62 16be 771a 30bd faec bdbc
000003c0: 91f4 36bd 750e 3cbd 7925 65bb 3d4d 72bd
000003d0: 5caa aabb 5660 9cbd 86f8 0d3c 4a31 223b
000003e0: b9fb acbd 5e6e 2bbe a7a3 bbbd a98a 5c3d
000003f0: ad09 acbd e66d 11be d430 8d3d bbec abbd

tcn.1.conv1.conv.bias f4 [64]
0.036616746 -0.04781595 -0.025470993 0.047711316 0.019838614 -0.04768422 -0.028095469 -0.047722712
0.07080364 0.0025142394 -0.058320455 0.00016123381 0.02274598 0.03206365 0.009780219 -0.026419252
0.0064472826 0.035235394 0.017639251 -0.048364982 -0.06895732 -0.013046927 -0.0017631184 -0.042102452
0.0005020316 -0.051114544 0.020079521 0.06045998 -0.001547198 -0.030605858 -0.06820647 0.05332727
0.04950606 0.07261713 0.047828294 0.020923233 -0.021405185 0.0207675 0.049210116 -0.00080992974
-0.049793553 -0.07066968 -0.068687715 0.0379512 0.024160827 0.07021744 0.035439935 0.014934832
-0.023381336 -0.0047645248 0.06296668 -0.026064781 0.03537241 -0.02429192 -0.005794522 -0.062733896
0.05317759 0.027830001 -0.074162714 -0.040469103 -0.005505506 0.0022959923 -0.049614236 0.05311956
00000000: 71fb 153d a8da 43bd 8ba8 d0bc f16c 433d
00000010: 9784 a23c 8750 43bd 7828 e6bc e478 43bd
00000020: 8001 913d f0c5 243b 6ee1 6ebd df10 2939
00000030: c755 ba3c 2d55 033d 363d 203c 306d d8bc
00000040: ba43 d33b fd52 103d 3180 903c 5c1a 46bd
00000050: 7f39 8dbd c7c2 55bc 7018 e7ba 9f73 2cbd
00000060: c59a 033a 7c5d 51bd cf7d a43c e2a4 773d
00000070: 5acb caba 23b9 fabc d5af 8bbd b26d 5a3d
00000080: dec6 4a3d 4ab8 943d 9ae7 433d 3367 ab3c
00000090: ed59 afbc 9b20 aa3c 8c90 493d 7751 54ba
000000a0: 53f4 4bbd 44bb 90bd 25ac 8cbd b872 1b3d
000000b0: edec c53c 29ce 8f3d 7729 113d 3ab1 743c
000000c0: 378a bfbc bb1f 9cbb adf4 803d cf85 d5bc
000000d0: a9e2 103d d9ff c6bc f9df bdbb a17a 80bd
000000e0: bfd0 593d befb e33c 9fe2 97bd eec2 25bd
000000f0: 8867 b4bb 5c78 163b 4c38 4bbd e593 593d

tcn.1.bn1.weight f4 [64]
0.93499374 1.0916764 0.8756007 0.91064155 0.9137236 0.85419095 0.8445114 1.0805956
0.9163914 1.0014952 1.0634887 0.88126624 0.97750115 1.0119746 0.9893475 1.019946
1.1117144 0.909128 0.92834127 0.86645395 0.8455451 1.0524496 1.1487246 1.0458354
1.1293455 0.923287 0.9616884 0.8563978 1.0959522 1.2271097 0.8512969 1.1528445
1.2080851 1.1822845 0.898664 1.1495144 1.1492666 0.89663285 1.0524808 0.91378075
0.79521656 0.9818334 0.915328 0.9793229 0.91564184 0.9563948 1.0864862 0.9436191
0.86467856 1.1966503 0.9572849 1.1280454 0.8554892 1.2948241 0.7795242 1.1028721
1.1173561 0.8546413 1.0543629 0.9246943 0.899275 1.0425123 1.035371 1.0299419
00000000: c05b 6f3f 0dbc 8b3f 5e27 603f ce1f 693f
00000010: cae9 693f 42ac 5a3f e631 583f f550 8a3f
00000020: a098 6a3f ff30 803f 6620 883f aa9a 613f
00000030: 843d 7a3f 6288 813f e145 7d3f 978d 823f
00000040: a84c 8e3f 9dbc 683f c6a7 6d3f edcf 5d3f
00000050: a575 583f abb6 863f 6809 933f efdd 853f
00000060: 658e 903f 895c 6c3f 3631 763f e33c 5b3f
00000070: 2948 8c3f ee11 9d3f 98ee 593f 6990 933f
00000080: 88a2 9a3f 1955 973f d80e 663f 4a23 933f
00000090: 2b1b 933f bb89 653f b1b7 863f 89ed 693f
000000a0: 5093 4b3f 6f59 7b3f f052 6a3f e8b4 7a3f
000000b0: 8167 6a3f 4ad6 743f fb11 8b3f 0591 713f
000000c0: 935b 5d3f d62b 993f a010 753f cb63 903f
000000d0: 5701 5b3f ccbc a53f e68e 473f ea2a 8d3f
000000e0: 8605 8f3f c6c9 5a3f 5df5 863f c4b8 6c3f
000000f0: e336 663f 0b71 853f 0987 843f 23d5 833f

tcn.1.bn1.bias f4 [64]
-0.11007488 0.0075984327 -0.22722985 -0.114679456 -0.21507677 -0.23452806 -0.20451908 -0.13197924
-0.18614952 -0.076033644 -0.05125012 -0.16521919 -0.16947009 -0.06516963 0.096718825 -0.14653109
-0.05887057 -0.08849492 -0.11940632 -0.13599615 -0.16692536 -0.18617502 0.064529106 0.03189951
-0.032275822 -0.16726016 -0.035678305 -0.17596896 -0.031454924 0.090371504 -0.17437427 0.05709633
0.11109055 0.09141521 -0.14906707 -0.13239418 0.0559049 -0.16711946 -0.1482861 -0.12533155
-0.070384726 -0.1797656 -0.088709354 -0.048835315 -0.0469805 -0.06592244 -0.0723876 -0.13165496
-0.18604088 0.0065538813 -0.2046907 0.018682478 -0.09992012 -0.14042677 -0.17237379 -0.12423109
-0.12081748 -0.27561593 0.046673834 -0.16250326 -0.07852749 -0.06336892 0.040703192 -0.20236184
00000000: f06e e1bd 46fc f83b f1ae 68be 10dd eabd
00000010: 163d 5cbe 2028 70be 736d 51be 9125 07be
00000020: fb9d 3ebe 87b7 9bbd a5eb 51bd 382f 29be
00000030: 9189 2dbe a877 85bd 8514 c63d 3f0c 16be
00000040: 4422 71bd d33c b5bd 4d8b f4bd 9342 0bbe
00000050: 7bee 2abe aaa4 3ebe d627 843d 10a9 023d
00000060: a733 04bd 3f46 2bbe 6a23 12bd 3531 34be
00000070: e1d6 00bd b214 b93d 2b8f 32be d7dd 693d
00000080: 7183 e33d e637 bb3d 0aa5 18be 5792 07be
00000090: 89fc 643d 5d21 2bbe 50d8 17be ea56 00be
000000a0: de25 90bd 7914 38be 40ad b5bd 8a07 48bd
000000b0: a06e 40bd 5802 87bd f33f 94bd 8fd0 06be
000000c0: 8081 3ebe f1c1 d63b 709a 51be ff0b 993c
000000d0: eba2 ccbd 09cc 0fbe c182 30be df6c febd
000000e0: 286f f7bd 881d 8dbe 102d 3f3d 4167 26be
000000f0: 05d3 a0bd 90c7 81bd 64b8 263d f137 4fbe

tcn.1.bn1.running_mean f4 [64]
-0.29540566 -0.88639235 -0.27916408 -0.08347261 2.0118568 0.5229102 -1.5928917 -1.409142
-0.43001452 0.899616 -1.1888741 -0.7937024 -1.1780809 -2.0536637 -0.34917718 -0.48613265
0.9784581 -1.1709161 0.4609577 -0.2561881 0.10242786 -0.6041676 -0.5952637 -0.39044678
0.69334066 -0.7874265 -2.4025667 -0.46076366 -0.8807398 0.056931 0.373412 -0.9584183
-1.1181897 -0.46618465 0.77792424 -1.0214349 -0.8975447 2.4190817 0.1006377 0.28474832
-1.0564804 0.52239364 -1.2851125 0.34432635 -0.5665141 0.9630337 -0.2491047 -1.0120403
0.30015633 -1.3839914 0.7924215 -0.44172987 0.81855524 -0.99971336 -1.1083457 -1.4197624
-0.4143258 -1.2190081 -0.9862776 -0.8555329 1.4002267 0.32669318 -1.4625727 -0.730114
00000000: 693f 97be 9cea 62bf 98ee 8ebe b0f3 aabd
00000010: 43c2 0040 71dd 053f e0e3 cbbf c45e b4bf
00000020: dd2a dcbe 3c4d 663f 072d 98bf 1530 4bbf
00000030: 5bcb 96bf 3a6f 03c0 5ac7 b2be 61e6 f8be
00000040: 3b7c 7a3f 94e0 95bf a602 ec3e 162b 83be
00000050: b3c5 d13d baaa 1abf 3463 18bf a4e8 c7be
00000060: c67e 313f c894 49bf a7c3 19c0 37e9 ebbe
00000070: 2a78 61bf 7b30 693d dc2f bf3e e75a 75bf
00000080: d720 8fbf c1af eebe 0b26 473f 61be 82bf
00000090: 7dc5 65bf 3cd2 1a40 231b ce3d 88ca 913e
000000a0: c03a 87bf 97bb 053f 917e a4bf 8b4b b03e
000000b0: 1107 11bf 6089 763f 4d15 7fbe 898a 81bf
000000c0: 17ae 993e a126 b1bf 23dc 4a3f 6b2a e2be
000000d0: d68c 513f 37ed 7fbf 46de 8dbf c6ba b5bf
000000e0: 8322 d4be 7508 9cbf b07c 7cbf 3404 5bbf
000000f0: a13a b33f 5444 a73e 9535 bbbf c0e8 3abf

tcn.1.bn1.running_var f4 [64]
0.58401173 1.2906309 0.655619 0.66128355 0.71019953 0.26321343 1.3033471 0.5749637
0.6412097 0.39086735 0.683677 0.71420014 0.8701055 1.2996118 0.642539 0.9707565
0.6412246 0.831409 0.8109064 0.54646045 0.30140623 0.31403992 0.6118626 0.58459985
0.8129041 0.9112037 0.7891501 0.7178595 0.84140354 0.54293257 0.34891194 0.6318728
0.61845046 0.6022634 0.7106451 1.2928368 0.5484609 0.98964167 0.3035605 0.36745533
0.3427237 0.7230737 0.9529235 0.54060763 0.50011504 0.7776939 0.5604744 0.963341
0.52945405 1.2461728 0.408813 0.7017658 0.43343917 1.2916087 0.9016693 1.6152478
0.6306534 0.34967345 0.72102916 0.48048738 0.98481965 0.3566927 0.62272954 0.46550107
00000000: cb81 153f 6533 a53f a6d6 273f e149 293f
00000010: a3cf 353f e9c3 863e 14d4 a63f d230 133f
00000020: 5226 243f c41f c83e 7505 2f3f d2d5 363f
00000030: 3cbf 5e3f ae59 a63f 707d 243f 7f83 783f
00000040: 4c27 243f 38d7 543f 9097 4f3f d5e4 0b3f
00000050: eb51 9a3e d7c9 a03e 07a3 1c3f 56a8 153f
00000060: 7c1a 503f a544 693f be05 4a3f a4c5 373f
00000070: 3966 573f a1fd 0a3f 96a4 b23e 6ac2 213f
00000080: c552 1e3f ef2d 1a3f d6ec 353f ad7b a53f
00000090: ef67 0c3f 2859 7d3f 486c 9b3e 1b23 bc3e
000000a0: 7b79 af3e 5c1b 393f cbf2 733f 4365 0a3f
000000b0: 8a07 003f f316 473f 407b 0f3f 849d 763f
000000c0: 4d8a 073f 9782 9f3f f04f d13e eca6 333f
000000d0: bdeb dd3e 6f53 a53f cdd3 663f 71c0 ce3f
000000e0: 8072 213f 6608 b33e 5e95 383f 7102 f63e
000000f0: 241d 7c3f 6da0 b63e 346b 1f3f 2856 ee3e

tcn.1.conv2.conv.weight f4 [64, 64, 5]
-0.040236115 0.070044935 0.03858197 0.11446298 0.043964818 0.10178031 0.08380188 0.07442302
0.078597315 0.07437385 0.008302325 0.06271147 0.06728909 0.018286262 -0.03912794 0.01478294
0.057653565 0.08162745 0.05002201 0.072816044 0.09575892 0.107800186 0.04635904 0.021489484
0.00493446 -0.059778523 -0.030840773 0.0023905 0.08033588 0.019690802 -0.010030685 -0.037142627
0.06652593 0.050754894 0.014354542 0.0066193272 0.05793838 -0.04271433 0.08830659 0.09165469
0.09272679 0.03027097 0.06072787 0.05183317 0.035023123 0.044285625 0.0074761207 -0.023834039
-0.025312953 -0.07486308 0.08679224 0.0941709 0.04199257 0.046244852 0.07090248 0.023090968
-0.01996545 0.03529173 0.08229975 -0.012979112 0.029401312 0.006785959 0.023885094 0.0603199
0.051132765 0.04702982 0.084235966 0.053426098 0.08002268 0.015325551 0.034852903 0.09572379
0.054514915 0.064925805 -0.0019562107 0.03725439 -0.0056843515 0.03715656 0.05430329 0.016391555
-0.069966696 -0.04337474 0.054223064 -0.06445467 -0.023199594 0.10232098 0.10103141 0.10559735
-0.008306855 -0.029555216 0.016372576 0.049437553 -0.021280717 0.027580218 0.010805414 0.07973395
0.03960661 -0.0021448426 0.031796675 0.023164153 0.048417706 -0.03775328 0.059946727 0.046744626
0.019878346 -0.039956138 -0.031717293 -0.04752942 -0.03219863 0.028586447 0.08360686 0.0016208785
0.037386496 -0.03168648 -0.0160935 0.08342125 0.027561538 0.024889695 -0.0031286716 -0.010045787
-0.050681274 0.02020351 0.082184985 -0.028046599 -0.011897733 0.068752885 -0.0073952945 -0.004573207
0.06557194 -0.05279667 0.03650924 0.046396695 0.0646039 0.025007017 0.01682566 -0.031210272
0.021719843 -0.045931116 -0.038653567 0.04475037 0.109917685 0.027700339 0.016722735 0.066360295
-0.03512354 0.0905988 0.025347682 0.019240953 0.054833684 -0.043307852 0.03491805 -0.046469864
0.04331466 -0.037343208 0.036842056 -0.03842989 -0.028407618 0.03437233 -0.02722666 0.037910227
-0.059293486 -0.007490695 -0.017288305 0.05029868 -0.092765085 -0.069144554 -0.058055844 0.03580228
0.043406017 0.047568593 -0.103264034 -0.02927314 0.038275275 0.054033242 -0.069404885 0.03785126
0.040414374 0.033009034 0.060681283 0.00505165 0.034966882 -0.005754766 -0.015014676 0.06792588
0.03128958 -0.014543461 0.052055925 -0.0046309256 0.014386645 0.011832531 0.05558231 0.026629066
0.08109209 0.041271925 -0.029691087 0.022303682 -0.09278969 0.053439002 -0.0116231255 0.041329965
-0.00026538284 0.015017354 0.014551632 -0.07018377 -0.04837948 0.022653574 0.12175891 0.0030344469
0.04244634 0.056101542 0.08783422 -0.01990309 0.08886057 0.050038654 0.06007896 0.0896692
0.11089644 0.07331965 0.013655475 -0.0783442 -0.016017227 0.05920272 0.051882543 0.119194545
0.010219317 0.0154539775 -0.023030909 0.035041697 0.11101221 0.11757546 0.10982523 0.021461274
0.039044227 0.052403394 -0.01806068 -0.013564611 0.026567413 0.044704575 0.004951497 -0.00041955974
-0.036861997 0.033922445 0.03085336 -0.0037026994 0.09078843 0.007423398 0.040017214 0.09943347
0.06559642 -0.033109497 -0.018043986 0.036672298 0.051120576 0.03889977 0.03666181 0.0014769685
00000000: a0ce 24bd b873 8f3d 2108 1e3d 916b ea3d
00000010: 7414 343d 3272 d03d 52a0 ab3d 196b 983d
00000020: a1f7 a03d 5151 983d 7a06 083c df6e 803d
00000030: ddce 893d 12cd 953c 9e44 20bd 2534 723c
00000040: 2526 6c3d 4b2c a73d e1e3 4c3d 9420 953d
00000050: 411d c43d 58c6 dc3d fae2 3d3d b70a b03c
00000060: 40b1 a13b 53da 74bd caa5 fcbc efa9 1c3b
00000070: 2387 a43d 9b4e a13c be57 24bc de22 18bd
00000080: bf3e 883d 5de4 4f3d 502f 6b3c f1e6 d83b
00000090: cb50 6d3d 39f5 2ebd 16da b43d 74b5 bb3d
000000a0: 8be7 bd3d d3fa f73c c9bd 783d 054f 543d
000000b0: 6874 0f3d d864 353d 3ffa f43b 9a3f c3bc
000000c0: 1c5d cfbc d151 99bd 21c0 b13d acdc c03d
000000d0: 6700 2c3d 3e6b 3d3d 5235 913d 4529 bd3c
000000e0: 958e a3bc 108e 103d c58c a83d 57a6 54bc
000000f0: 05db f03c c05c de3b acaa c33c 0012 773d
00000100: 9770 513d 57a2 403d e883 ac3d 53d5 5a3d
00000110: eee2 a33d 0518 7b3c ebc1 0e3d d60a c43d
00000120: 084b 5f3d d2f7 843d c533 00bb 0f98 183d
00000130: cc43 babb 7a31 183d 206d 5e3d 9547 863c
00000140: b34a 8fbd b6a9 31bd 0119 5e3d cf00 84bd
00000150: 130d bebc a98d d13d 8ee9 ce3d 6c43 d83d
00000160: 7a19 08bc c81d f2bc c81f 863c 087f 4a3d
00000170: e654 aebc e9ef e13c 3109 313c 8e4b a33d
00000180: 8a3a 223d 7d90 0cbb 3b3d 023d c0c2 bd3c
00000190: a551 463d 2fa3 1abd b38a 753d 4b77 3f3d
000001a0: ead7 a23c 0ca9 23bd fee9 01bd 36ae 42bd
000001b0: b6e2 03bd 202e ea3c 133a ab3d a873 d43a
000001c0: 9522 193d afc9 01bd 84d6 83bc c3d8 aa3d
000001d0: bcc8 e13c 79e5 cb3c 660a 4dbb 1697 24bc
000001e0: 2b97 4fbd d581 a53c 9a50 a83d fbc1 e5bc
000001f0: b6ee 42bc 50ce 8c3d 3a54 f2bb d7da 95bb
00000200: 954a 863d 5241 58bd b68a 153d 760a 3e3d
00000210: 0d4f 843d 84db cc3c f7d5 893c afac ffbc
00000220: d0ed b13c 4422 3cbd 3453 1ebd 2a4c 373d
00000230: 861c e13d d2eb e23c 1efe 883c e8e7 873d
00000240: b3dd 0fbd dd8b b93d f1a5 cf3c 349f 9d3c
00000250: 4999 603d 9363 31bd 3b06 0f3d 2f57 3ebd
00000260: b76a 313d 31f5 18bd b2e7 163d a968 1dbd
00000270: 18b7 e8bc 00ca 0c3d 720a dfbc c147 1b3d
00000280: badd 72bd 8174 f5bb 34a0 8dbc fd05 4e3d
00000290: 9ffb bdbd a99b 8dbd f7cb 6dbd 69a5 123d
000002a0: 82ca 313d 49d7 423d 187c d3bd 39ce efbc
000002b0: 89c6 1c3d f651 5d3d 2624 8ebd ec09 1b3d
000002c0: 8b89 253d 7b34 073d f08c 783d 5088 a53b
000002d0: 6f39 0f3d 7a92 bcbb 1e00 76bc b91c 8b3d
000002e0: 8129 003d b247 6ebc 9838 553d 05bf 97bb
000002f0: f6b5 6b3c 3bdd 413c 47aa 633d 3325 da3c
00000300: 9c13 a63d c00c 293d b93a f3bc 36b6 b63c
00000310: 8508 bebd dbe2 5a3d ec6e 3ebc 9c49 293d
00000320: 1523 8bb9 590b 763c f869 6e3c 82bc 8fbd
00000330: 9029 46bd fd93 b93c bc5c f93d 92dd 463b
00000340: 37dc 2d3d bbca 653d 6de2 b33d ce0b a3bc
00000350: 88fc b53d 55f5 4c3d 5b15 763d 7ca4 b73d
00000360: ac1d e33d 9d28 963d 37bb 5f3c ed72 a0bd
00000370: 8f36 83bc 8d7e 723d ca82 543d 451c f43d
00000380: ec6e 273c ae32 7d3c 51ab bcbc e287 0f3d
00000390: 5f5a e33d 67cb f03d 0dec e03d 8ecf af3c
000003a0: d7ec 1f3d f1a4 563d fef3 93bc 1a3e 5ebc
000003b0: e7a3 d93c 251c 373d 2b40 a23b 5bf8 dbb9
000003c0: 9bfc 16bd 43f2 0a3d 30c0 fc3c fda8 72bb
000003d0: 49ef b93d fa3f f33b 17e9 233d c6a3 cb3d
000003e0: 6a57 863d d39d 07bd fbd0 93bc b135 163d
000003f0: cf63 513d 5d55 1f3d b22a 163d d796 c13a

tcn.1.conv2.conv.bias f4 [64]
-0.033165313 -0.032192238 -0.05551269 -0.009985653 0.057323232 0.023445865 0.0032251955 0.044531196
0.045853335 0.017614026 0.04141074 -0.03131553 0.012238549 0.0018293149 -0.040488925 0.047520407
0.013848612 0.029785845 -0.043881916 -0.03423377 -0.04310723 0.040500134 0.017657652 0.05176566
-0.03597591 0.045523096 0.047829855 0.021772418 0.03882994 -0.0108320145 -0.051305696 -0.020142885
0.010542316 -0.011232763 -0.027776685 0.046438936 0.045276396 0.015801102 0.04031125 0.050406713
-0.020918105 0.021756336 -0.044170845 0.05072868 -0.04711674 0.0069749113 0.05964273 0.033856273
0.014456287 -0.029424252 -0.004024102 -0.015653297 0.03799226 -0.048575148 -0.05721007 0.04323411
-0.049475584 0.011262904 -0.04051033 0.052560948 0.044827998 0.024740329 -0.0028966856 -0.0095586525
00000000: 5ad8 07bd 02dc 03bd 4661 63bd dd9a 23bc
00000010: c4cb 6a3d 8b11 c03c cd5d 533b 5866 363d
00000020: b5d0 3b3d 4a4b 903c 4f9e 293d b744 00bd
00000030: 3284 483c 9fc5 ef3a b7d7 25bd c2a4 423d
00000040: 4ae5 623c 7201 f43c 86bd 33bd b638 0cbd
00000050: 3591 30bd 78e3 253d c8a6 903c 3b08 543d
00000060: 7a5b 13bd 6d76 3a3d 3de9 433d 125c b23c
00000070: 250c 1f3d c378 31bc ec25 52bd b102 a5bc
00000080: aeb9 2c3c 9f09 38bc ee8b e3bc c136 3e3d
00000090: be73 393d 5071 813c 691d 253d 4577 4e3d
000000a0: 725c abbc 583a b23c 7dec 34bd e0c8 4f3d
000000b0: 7cfd 40bd cc8d e43b ef4b 743d e0ac 0a3d
000000c0: 10da 6c3c 210b f1bc 9ddc 83bb 583b 80bc
000000d0: c69d 1b3d bcf6 46bd 1b55 6abd 4016 313d
000000e0: e9a6 4abd 0b88 383c 29ee 25bd 264a 573d
000000f0: 909d 373d 3bac ca3c 52d6 3dbb e59b 1cbc
