models/checkpoints/tcn_wide.pt (torch, 285453 bytes, 39 tensors)

tcn.0.conv1.conv.weight f4 [64, 16, 3]
00000000: bc45 983c 42f2 3bbe 8c38 f53d 3f72 c93c
00000010: 4f72 09be b1cf 973d fc4d e8bd 69c8 a23b
00000020: 30a8 c53d fad2 23be cbd5 bf3d 8243 853e
00000030: 799f 05be 29a3 a2bc e2f4 003d 53b3 cfbd
00000040: 0dcc 53be 52a9 f5bd 87df b33c 549b 05be
00000050: 4af8 0e3d 8ea5 85be acf6 893d 45fe 0d3e
00000060: dee6 d4bd f2c9 c53d 6f54 aa3c 293c 71be
00000070: 5361 35bd 48db 313d fbfc cdbd f4e4 77bd
00000080: 3d6a b23d d07b 123d 074d c63b db69 0abd
00000090: 6b58 abbb 7811 28be 7272 77bc 6ae4 29bc
000000a0: 7695 ddbd f0a0 b0bc 9ade 94be 056b cdbe
000000b0: 78f1 83be 0dc6 e93d e315 153d 4206 cdbd
000000c0: e34c a0bd d033 e3be be3b d13e 4da9 553e
000000d0: 4e3e d6bd 5476 eebd 9171 b5bd 9a22 eabd
000000e0: c92f 46bd 7ae1 fb3d a2d0 e73d d5a3 0dbe
000000f0: 316b d8bc 5366 143e ecff 00be 9fc2 debd
00000100: ba3b 8ebe 60ed 1cbe 4407 313b 0830 acbe
00000110: fe8d e5bd 80ba cabd d795 80be c8cf d5bd
00000120: d9c7 973c ca79 83bd 12a9 363d 9b0d fb3d
00000130: d895 b8bd 6878 a43d db6b e4bc 4827 383d
00000140: 760b a7bc cd60 923d 3734 7cbd 23d0 80bd
00000150: 2e92 003d 5d7c 76bd 9b7f 083e 4e52 89bb
00000160: a730 953c 8dc6 19be 40e7 e4bc 932c f93d
00000170: d71e 953d b6b5 813e 39c3 743e 3fdb 6d3e
00000180: 80e6 9d3d 0055 0bbf 017e 803f 2243 febc
00000190: a475 f8bb 6b03 453e 7dff 6dbc 539c 273e
000001a0: a6d5 97bd de99 89bd 1ee5 21bd 2a05 c43d
000001b0: 7963 c33d 18f4 2b3d 71b3 08be 410a debd
000001c0: cc0a 4cbe c080 6e3e 4788 43bd e52c 293a
000001d0: 201e 393e 6afc 99bd a6c7 fa3d a30c 7c3e
000001e0: 7cca f43d 74f3 353e 9cae 503d 013d bbbd
000001f0: 860e f03d 323c 5cbd 55a5 203e 55b4 e03d
00000200: 3d52 21bd e717 0a3e 8c0b 98bd 11d0 513d
00000210: cc03 f73d 08ee 863e 0c2c ee3d 0747 df3d
00000220: 3805 21be 65cd 0cbe 88f9 1c3d 510c 013e
00000230: cd13 80bd 800f dfbe 75c3 dcbe d479 abbe
00000240: b51b 9c3d 70c1 e9be 8a07 893f 03b2 db3c
00000250: d402 853d 9721 82bd 7450 833d 792d 46bd
00000260: d7de f1bd 5d0e 5c3d f3c1 94bb b72d 5dbd
00000270: 00e0 0d3e 8295 073d e01b 24be e317 12be
00000280: 512e 6ebc db6d 4d3c 128b 70be ffe5 bd3d
00000290: 74d8 893e d307 2fbe 0657 cf3c 4c08 8e3e
000002a0: 99ac 663d 210f 16bd 7f19 403d 76e0 bd3d
000002b0: 15c3 a13d 2bf4 103e 5dda 86be b192 513d
000002c0: 29b4 5bbe b7bd 6d3d a7fa 673d f2f4 74bd
000002d0: b007 333e efdb e63d f7df f7bb ade2 e4bc
000002e0: ae44 0fbe 7159 10be 55e0 87bd 045b d33d
000002f0: 7ecd 8f3d 4f2d 5c3c 31be 46be 0f7c 80bd
00000300: 6549 0ebf cf23 a5be f46a 15be 9037 9e3d
00000310: d963 b7b9 1bff 6a3d 4994 c3bd c026 1a3e
00000320: 2992 293e 3f02 9abd 0387 163d ff56 1fbe
00000330: 937c 79bd b99b 05be e6c9 d03d d6a5 ba3d
00000340: 4d56 953e 6553 853e d19a 3a3e 2bd1 a13e
00000350: 9749 6f3e ab82 6b3e 123b 903e a475 ac3d
00000360: 8323 323e e6ce e03d e1fa a8bd 138f 26bd
00000370: a5eb 8ebc 1dc3 563d 9727 bf3d c5ee d83d
00000380: 3ea5 80bc 5fc6 773d 2e68 083e b892 d73d
00000390: 5017 093e 8baa 483e d489 573d 1bd3 54be
000003a0: 90e5 4dbd d3ba 80be ca21 303e 030a 283e
000003b0: 4bd4 423a 785c 8f3d 414e 1bbd 9666 5a3e
000003c0: 849e af3e 44d6 8d3e e9b6 1a3f 1dd9 c83d
000003d0: 9800 053b a497 b2bd b0d3 2d3e 6ab1 4fba
000003e0: 5852 f73b 2507 583b a246 c5bd 1e36 0abe
000003f0: a4d3 d33d 89a6 273e 1abf 213d da52 03be
0.01858794 -0.18354133 0.11973676 0.02459061 -0.13422512 0.07412661 -0.11342999 0.0049677384
0.0965122 -0.1599845 0.0936695 0.26028067 -0.13049115 -0.019853191 0.03148354 -0.10141625
-0.20683308 -0.11995186 0.021957172 -0.13047534 0.034904756 -0.2610287 0.06736502 0.13866527
-0.10395597 0.09657659 0.020792214 -0.23558106 -0.04428227 0.043422014 -0.10058018 -0.06052108
0.087116696 0.035762608 0.006051663 -0.033792358 -0.005229046 -0.16412914 -0.0151029695 -0.0103694
-0.10819523 -0.021561116 -0.29076082 -0.40120712 -0.25770164 0.11414728 0.036397826 -0.10010959
-0.07827165 -0.44375467 0.40865892 0.20865364 -0.104611024 -0.11643663 -0.08859552 -0.11432381
-0.048385415 0.122988656 0.113190904 -0.13832028 -0.0264183 0.14492159 -0.12597626 -0.10876965
-0.27779943 -0.15324926 0.0027012387 -0.33630395 -0.112087235 -0.09898853 -0.2511432 -0.10440022
0.018527912 -0.06419714 0.04459483 0.122584544 -0.090129554 0.08030778 -0.02788346 0.044959337
-0.020391207 0.071473695 -0.061573233 -0.06289699 0.031389408 -0.060177196 0.13329928 -0.0041907197
0.018211676 -0.15017147 -0.0279423 0.12166705 0.07281273 0.25333947 0.23902597 0.23228167
0.0770998 -0.54426575 1.0038453 -0.03103787 -0.007582383 0.19239585 -0.014526245 0.16368227
-0.07413797 -0.06718801 -0.039525144 0.095712975 0.09540457 0.041980833 -0.13349701 -0.108417995
-0.19925994 0.23291302 -0.047737386 0.0006453528 0.18077898 -0.07518847 0.12245111 0.24614196
0.11952683 0.17768651 0.05094777 -0.09142495 0.1172152 -0.053768344 0.15688069 0.109718956
-0.03938507 0.1348568 -0.074240774 0.05122382 0.12061271 0.26353478 0.11629495 0.10902219
-0.15724647 -0.13750227 0.03832391 0.12602355 -0.06253777 -0.43566513 -0.43117872 -0.33491385
0.07622472 -0.45655394 1.0705426 0.026818281 0.0649468 -0.06354063 0.064118296 -0.04838321
-0.118100815 0.053724635 -0.004539722 -0.053998675 0.1385498 0.033101566 -0.16026258 -0.14266925
-0.01453741 0.012538399 -0.23490551 0.09272384 0.26922953 -0.17092828 0.02531005 0.27740705
0.056316946 -0.03663552 0.046899315 0.09271328 0.07898537 0.14155643 -0.26338473 0.051165286
-0.21455444 0.058042254 0.056635525 -0.05980391 0.17483401 0.11272418 -0.0075645405 -0.027940119
-0.13991043 -0.14096619 -0.06634585 0.10320094 0.070216164 0.013438537 -0.1940849 -0.06273662
-0.5558074 -0.32253882 -0.1459158 0.077254415 -0.00034978872 0.057372194 -0.095497675 0.15053844
0.16559662 -0.0751996 0.03674985 -0.1556053 -0.06090982 -0.13047685 0.10194759 0.09113662
0.29167405 0.26040187 0.1822312 0.31604895 0.23367916 0.22999065 0.28170067 0.08420876
0.17396359 0.10976963 -0.08250976 -0.04066379 -0.017446348 0.05243217 0.09333723 0.10592417
-0.015703794 0.060491916 0.13320991 0.10526031 0.133878 0.19596307 0.052621678 -0.20783655
-0.050267756 -0.25142536 0.1720039 0.16410069 0.0007432147 0.07000059 -0.037916426 0.21328196
0.34300625 0.27702534 0.6043535 0.09807036 0.0020294543 -0.087203294 0.16975284 -0.000792286
0.007547658 0.0032963243 -0.09632613 -0.13497207 0.103431016 0.16372122 0.03948889 -0.12824574

tcn.0.conv1.conv.bias f4 [64]
00000000: 0d0a a23d 34c9 993d 1097 f0bd e233 b3bd
00000010: 861a bbbd 9943 61bc 6b25 8d3d 4f71 0dbe
00000020: 900c d13d 766c e83d 0d79 093e e3c4 b3bd
00000030: 555e 133e ac49 c03d 040b 953d 33c2 373d
00000040: 14fe bc3d 217a c8bd 17b5 a43d 4910 8cbd
00000050: f998 05be 6e5d 023e e3c6 843c 8bca 5fbd
00000060: 6a80 84bd ba8e ba3d 1ca5 473c f30a 813d
00000070: 1952 b1bd 3ba2 3f3d cde2 3abd 9310 41bd
00000080: 706b 573d ef30 8b3d 4d47 353d 201f ba3d
00000090: afd3 893c b4f0 39bd f039 083e 2f74 4ebc
000000a0: 5d68 03be 3549 95bd af5c cdbd 4ab4 dabd
000000b0: d2cd 86bd 9779 3ebd 413b b83d 2039 c43d
000000c0: f66b c3bd b795 633d 4713 ae3d a3bb 573a
000000d0: 414e a0bb 9541 83bd e92a 6abd 19d5 6cbd
000000e0: 43a8 a9b8 d329 d13c 11d8 0cbe ce8b acbd
000000f0: 3650 84bd b4f4 ecbd 4b42 ecbd db50 123d
0.07912073 0.075090796 -0.11747563 -0.0875013 -0.09135918 -0.013749027 0.068919025 -0.13812755
0.10207474 0.11348812 0.13425083 -0.087777875 0.14391454 0.09389052 0.07277492 0.044862937
0.09228149 -0.09788919 0.08042353 -0.06839044 -0.13046636 0.12730953 0.016208118 -0.05463652
-0.064698055 0.09109254 0.012185361 0.063009165 -0.08658237 0.046785574 -0.04562645 -0.047134947
0.052592695 0.06796443 0.04425745 0.09087968 0.016824571 -0.045395568 0.13303351 -0.0126009425
-0.1283278 -0.07289354 -0.100274436 -0.10678919 -0.06582226 -0.046502676 0.08995677 0.09581208
-0.09542076 0.0555627 0.084997706 0.0008229559 -0.004892141 -0.06408993 -0.05716983 -0.057820413
-8.089889e-05 0.025532639 -0.13754298 -0.08425103 -0.064606115 -0.11570111 -0.11536082 0.03572164

tcn.0.bn1.weight f4 [64]
00000000: f56b 3d3f 6cf3 6a3f 98a1 7e3f 9cd7 8e3f
00000010: 07c2 653f 2103 3f3f dab6 8a3f e0c1 853f
00000020: e6b7 673f 6613 383f f1ac 603f 8f20 5d3f
00000030: 055b 9a3f 9ba0 913f 286a 3d3f ca49 4a3f
00000040: 35e9 4b3f d3d6 553f 037e 323f c8bc 3c3f
00000050: eac2 383f 02e2 603f 0fc8 403f 5254 453f
00000060: 9e82 523f 55fd 5f3f ff05 483f afb2 ab3f
00000070: d0ca 8f3f c45b 2b3f ab73 703f b61d 333f
00000080: 7f48 6e3f 47c9 713f 4e44 303f c0a0 9d3f
00000090: 4f77 ab3f 16db 6a3f cb07 a13f 3f01 623f
000000a0: 7bb2 9a3f 5799 503f 4b5a d53f bedb 6f3f
000000b0: 1658 503f e43d 383f c2e6 973f 6561 553f
000000c0: d6ca 3d3f 7f07 8c3f 9188 433f 15dc 823f
000000d0: 812b 5e3f 9e9b 683f 0b58 813f 80ca 383f
000000e0: f83b 773f 3c51 3b3f 6f13 433f abd8 593f
000000f0: a4c9 a33f 22ee 5d3f 3620 3c3f 6ab7 a33f
0.73992854 0.9177768 0.9946532 1.1159549 0.8974919 0.7461415 1.0837052 1.0449791
0.9051498 0.719046 0.8776389 0.86377805 1.2059027 1.1377138 0.73990107 0.79018843
0.7965272 0.8353092 0.6972353 0.7372556 0.72172415 0.8784486 0.75305265 0.7708179
0.82230556 0.8749593 0.7813415 1.3413905 1.1233768 0.669369 0.93926495 0.6996721
0.9307937 0.9444775 0.68854225 1.2314682 1.3395785 0.9174055 1.2580503 0.8828315
1.2085718 0.8148398 1.666818 0.93694675 0.8138441 0.7196944 1.1867297 0.8335174
0.7413763 1.0939788 0.7638026 1.0223414 0.8678513 0.90862453 1.0104994 0.7218399
0.9657588 0.7317083 0.7620153 0.85096234 1.2795911 0.86691487 0.7348665 1.2790349

tcn.0.bn1.bias f4 [64]
00000000: eb9b 93be 5055 91be 7885 01be 44b1 49bd
00000010: dcd2 aebe ffe4 48be 8553 07be 7256 aebe
00000020: e70a 72bd 45a2 9dbe bab8 a3bd e1fa a0be
00000030: 42b3 1dbf 1cef babe 3403 dcbd 63a7 99bd
00000040: 8c95 5ebe 5c5b f0bc 42f7 46be 6cbb a5be
00000050: a03f 4dbe a27f b2be 3e40 98be bae3 8ebe
00000060: a0f2 9bbe b423 a8be ad1e bcbd dc42 7b3d
00000070: 0191 f2be 41a0 9abe 98d1 86be 0857 acbe
00000080: 2ec3 fcbd 422c 29be 4824 50be b37a 503e
00000090: 1111 55bf 780b 3fbe 740b 12bf 2002 cebd
000000a0: 7dc7 89be c231 23be cef9 ef3e 9b81 a1be
000000b0: 2c94 68be 2d85 66be 3a49 213e 7f06 7ebe
000000c0: 140c 4fbe 118e 03bd ce59 b2be df38 f4bd
000000d0: 22b0 5cbe de4e 6cbe c5f8 54be f19d 94be
000000e0: a4d0 ddbd 17fc 46be af45 83be f7d6 8fbe
000000f0: bcbd dcbe e970 82be a4c9 a6be daf2 33be
-0.28829893 -0.283854 -0.1264857 -0.04924132 -0.34145248 -0.19618605 -0.13215454 -0.34050328
-0.05909243 -0.30787864 -0.07994218 -0.31441405 -0.6160165 -0.3651055 -0.107427984 -0.075026296
-0.21736735 -0.029340439 -0.19430259 -0.32369554 -0.20043802 -0.34863 -0.29736513 -0.27908117
-0.30458546 -0.3283974 -0.091855384 0.06134306 -0.47376254 -0.3020039 -0.26331782 -0.3366015
-0.12341915 -0.1652079 -0.2032634 0.20359306 -0.83229166 -0.18656719 -0.57048726 -0.10058999
-0.2691001 -0.1593695 0.46870273 -0.31544194 -0.22712773 -0.2251174 0.1575059 -0.24807166
-0.20219451 -0.032117907 -0.3483414 -0.1192491 -0.21551564 -0.2307696 -0.20798023 -0.2902675
-0.10830811 -0.19432102 -0.25639102 -0.28093693 -0.43113506 -0.2547677 -0.32575715 -0.1757311

tcn.0.bn1.running_mean f4 [64]
00000000: 3995 01c0 b9ad bcc0 afe1 db3f bdd3 7a3f
00000010: c25f 0041 3af5 57c0 8c16 6cbf b186 a2be
00000020: 1c49 b0c0 a9fc cf3f 89dd 33c0 5492 2240
00000030: 8e6d 35c0 232c 41be 00bf 043f f7e6 80c0
00000040: 2bc1 a23f b7b5 00c1 dcc1 6bc0 fded 99bf
00000050: 2033 74c0 a206 3bc0 88f9 7740 5efc 1840
00000060: 5458 0840 b04c 87bf 6760 1ec0 cdec dbbc
00000070: 8fd0 b8be 307f ab40 4ae3 e140 caac 60be
00000080: 9c95 c5c0 d534 273f 60e1 b9c0 0fb3 d23e
00000090: fd44 b1bf 942e 77bf 0388 9cbe 7b5e 7ac0
000000a0: 0213 55bf 9a91 edc0 ec5b 03bd 1c04 99bf
000000b0: 8eb2 8240 68f4 4fc0 8758 533f f77d d03f
000000c0: e0d1 223f 58ad d0be a705 19c0 4408 b5be
000000d0: fa21 b6bf 8639 6040 a7de aa40 1d3e 3ec0
000000e0: 3d27 df3f cbf7 ac3f d1e8 c53f 2df4 b4c0
000000f0: 95a2 92bf a459 0f40 b311 12c0 7430 42be
-2.0247328 -5.8962064 1.7178248 0.97979337 8.023378 -3.3743424 -0.92221904 -0.31743386
-5.5089245 1.6248981 -2.8103964 2.5401812 -2.8348117 -0.18864493 0.5185394 -4.028194
1.27152 -8.044364 -3.6837072 -1.2025753 -3.8156204 -2.9222798 3.8746052 2.3904033
2.1303911 -1.0570278 -2.474634 -0.026846314 -0.36096618 5.359276 7.0589952 -0.21940914
-6.174513 0.6531499 -5.8087616 0.41152236 -1.3849179 -0.9655545 -0.3057252 -3.9120166
-0.8323213 -7.4240236 -0.032070085 -1.1954379 4.084296 -3.2492924 0.82556957 1.6288441
0.63601494 -0.4075725 -2.39097 -0.3535787 -1.4229119 3.503511 5.3396792 -2.972541
1.743385 1.351312 1.5461675 -5.6548066 -1.1455866 2.2398462 -2.2823303 -0.18963796

tcn.0.bn1.running_var f4 [64]
00000000: 49d0 2d40 0228 e540 f93c 3340 3077 b13f
00000010: 12e0 3f41 5b1d 2841 995a 963f 6471 2c40
00000020: 15da e840 01c4 e540 12bf 1540 03ff ef40
00000030: 4216 7b40 5a41 1940 72de c740 2754 2e41
00000040: ed5a 6140 ba28 8741 5824 a240 ee7c 4441
00000050: 0750 3841 1df3 5e40 ad5c 9d40 a2c5 0742
00000060: fc8b cd40 cca9 bc3f 7dd7 5841 9044 bf3e
00000070: a544 2940 7ef0 2841 f266 0b41 ca54 1641
00000080: f40b 2241 a8ac 0a40 d449 c440 51b9 a83f
00000090: 13ca 7640 b641 e93f adb7 8940 bb6a e740
000000a0: 2fdd e43f 54fd 8e41 42a2 373e 4a5d ad3f
000000b0: 6e44 9440 18fb d240 d7ff e53e 536c 4b40
000000c0: 989e 0b40 45b3 0940 566c 4440 afa6 9a3f
000000d0: 0a6f 5540 b06b 9040 1bd9 c040 eb5e 1a41
000000e0: 987f 0940 2e4b 3341 1740 0a40 4fc8 0c41
000000f0: 12e3 8a40 ec2a 3a40 2541 0a40 823c 0240
2.7158377 7.161134 2.8005965 1.3864498 11.992205 10.507167 1.1746398 2.6944208
7.2766213 7.1801763 2.339787 7.4998794 3.9232335 2.3946137 6.245904 10.895545
3.5211747 16.894886 5.0669365 12.2805 11.519538 3.4835885 4.917563 33.943
6.423338 1.4739318 13.552609 0.37356997 2.6448147 10.558714 8.712633 9.3957
10.127918 2.166788 6.134012 1.3181554 3.8560836 1.8223178 4.3036714 7.2317786
1.788 17.873695 0.1793299 1.3544095 4.633353 6.593151 0.44921753 3.1784866
2.1815548 2.1515667 3.0691123 1.2082118 3.3349023 4.5131454 6.026502 9.648173
2.1484127 11.205854 2.1601617 8.798903 4.3402185 2.9088697 2.160226 2.034943

tcn.0.conv2.conv.weight f4 [64, 64, 3]
00000000: 4f21 f2bc f40c ab3d fbd3 1c3d 6fb9 debc
00000010: bd17 97bd c693 ae3d 4810 afbd 5dc2 bbbd
00000020: 7840 123e fc0e b938 0a91 1bbd dadf 763e
00000030: 4098 2cbe 98ec b2bd bb48 2a3e 681c 22be
00000040: bcdf a4bd 4ff6 8e3d b0f0 223c 95ca 8a3d
00000050: fa8c c1bd ebb4 afbc bce6 143d aa0e 873d
00000060: 8282 87bd 2cd5 49bc 627c 85bd 9e06 97bd
00000070: 65e5 87bc 16e3 bd3b 8a16 57be 96ee 03be
00000080: 2a32 37be 170a 59bd 9aa6 cfbb 973d b83d
00000090: 937f 37bd 2e66 9f3d 59f7 cb3d 429c adbc
000000a0: 118b e83d 0097 883e e495 bb3c b03e 8f3c
000000b0: 42dd 8f3d 08df 1e3d 6f5f f63c d95a 8f3d
000000c0: ab14 93be abf4 b1bd a310 a43d 1448 6bbe
000000d0: 4dd0 2a3a 8ef7 a63c 0ec1 83bd 3f93 ec3d
000000e0: eb30 8ebd 7481 c3bd a3ab 9abc d758 31be
000000f0: 5cc8 42bd 761e 81bc d8be 98bc 4acb 0dbd
00000100: 2499 263d b319 203e e710 99bd d983 773d
00000110: 69cd 1a3d 52bc 7abc 4aee 2d3c 2760 843d
00000120: c188 76be 1e34 b5bd dbfd acbd 04e0 26bd
00000130: dde5 94bd 8a2d 423d 2c16 2fbe 0d67 34be
00000140: 166e 0fbe 9d7e 343a 00a5 48be 7625 683e
00000150: f374 91bd f423 f9bd f71d 0d3e 5098 e3bc
00000160: c9b9 3dbd 80c3 b9bd b39c 48be 203e 2abd
00000170: 67ce d23c ee1b 54bd bdd4 033d e4ef ab3d
00000180: df4b f7bd 9c07 85bd c5c3 bd3b ec23 683d
00000190: 12cb 143d 875a d8bd 2a93 c3bb 57e0 833c
000001a0: e3d0 0a3d daff 22be b375 44be 94f5 2bbd
000001b0: d9c2 7fbe 0a87 853d 9a80 0e3e 6d6e 693e
000001c0: 496a d03d ac09 81bd 07da 23be c009 bb3d
000001d0: ed2f 513e 7081 e2ba c2fe 4c3b 972d 34bd
000001e0: ae73 80be 01ba f03d 4c54 6dbd 72ba 93bd
000001f0: 62c4 66bd 4850 003c 74b4 06bc be73 3fbe
00000200: 000b 123e 8354 e73c 5668 c6bd 23ed c83c
00000210: 8183 5fbd 0d58 e0bd 638b 87bb 3dce 903d
00000220: 9f0a 423e 59c4 133d e945 cabc 4169 43be
00000230: a2b8 553e b734 163a 55c8 d43d 3073 183e
00000240: 3583 cabd e2f1 62bd de4e 8abd 4c1b c8bd
00000250: fb61 2fbe 82e5 96be e882 e73d 1937 cc3c
00000260: a4ea ae3d 9cf9 1e3d 3910 f7bd a4af 223d
00000270: d207 41bd cb29 0f39 182a fabd eaa0 80be
00000280: 66fb bcbd 82f0 063e 20b8 d0be ef64 4bbe
00000290: bca7 66be 74cb a4be 0642 04be de01 ccbd
000002a0: a9b9 cdbd 7d59 5e3d 98c9 093e 3c74 663c
000002b0: 3591 59bd 613e a03c d805 57be 95c3 fdbd
000002c0: a4fd b23c 84b3 74bd aea7 a6bd abd3 ab3c
000002d0: fb05 0dbd 1df7 ccbd 8280 673e 6a4e c0bd
000002e0: c4ae 98bd 9cba 673d e9e6 663d 7a75 bebd
000002f0: a348 0cbe 7bbd 8fbd d83f 993d 035f 2d3e
00000300: eeb0 42bd cc23 ccbc 2469 0b3e 5b7d efbd
00000310: 9d61 e23d 6d7e c53d 4be5 ecbd 2f17 50be
00000320: 040d b73d 80cc 07bd 5086 afbc 0cae 3b3e
00000330: 43b3 11be 7409 4abe 7aa1 18bd ca24 bcbd
00000340: 18b5 6bbd 2354 20bd 1ac3 24be 92ab 993d
00000350: f3a1 dbbd e714 ccbc a175 21bd 8f1e eb3c
00000360: 8067 06be 4e44 1bbe b153 893c e9e8 0ebd
00000370: cf8b a7bc ff20 34bb 048d bcbd ddea 70bd
00000380: 07e9 723d b966 32be 45fd 8abd be30 32bd
00000390: 2871 5f3d 2025 b93c 409d b63d ac6a 9fbc
000003a0: bd0f 533c dcad 85bd 6430 bfbd 88b8 28be
000003b0: 8c1c 9abd 79ff 6e3d 5afd 08bc 79b3 89bc
000003c0: d5f4 fdbd cb1f 3ebc ba66 b03d 845d 0abe
000003d0: fdbf 5bbd 7c54 49bc 2ba3 aabd a39e 84bc
000003e0: 4175 95bc fa7f 053d 16e6 8e3b 423e 1b3d
000003f0: fc54 19be a167 41be 72b2 0bbe 4f82 4abd
-0.029556898 0.0835208 0.038288098 -0.027188031 -0.073775746 0.08524279 -0.08548027 -0.09167931
0.14282405 8.8242785e-05 -0.037980117 0.2410883 -0.16854954 -0.08736533 0.16629307 -0.15831149
-0.080504864 0.069805734 0.00994508 0.06776921 -0.09450717 -0.021448573 0.036352858 0.06594594
-0.06616689 -0.012318891 -0.06517865 -0.07374309 -0.016588876 0.005794893 -0.21004692 -0.12883982
-0.1789023 -0.052988138 -0.006336999 0.08996122 -0.0447994 0.07783161 0.09959287 -0.021192674
0.1135465 0.26677704 0.022898622 0.017485946 0.070246235 0.038786918 0.030074803 0.0699975
-0.28726706 -0.08689245 0.08010986 -0.22976714 0.00065160246 0.020381715 -0.06433307 0.115515225
-0.06942924 -0.095461756 -0.01888067 -0.17319046 -0.04755436 -0.015761595 -0.018645689 -0.0346177
0.04067339 0.15634803 -0.07473927 0.060428474 0.03779355 -0.015303688 0.010615895 0.06463652
-0.24075605 -0.08847831 -0.084468566 -0.04074098 -0.072704054 0.04740671 -0.17098302 -0.17617436
-0.14006838 0.0006885322 -0.19594193 0.2267054 -0.071023844 -0.12165061 0.13780962 -0.02778259
-0.046319757 -0.09070492 -0.19591026 -0.041563153 0.025733186 -0.05178445 0.032185305 0.08395365
-0.12075018 -0.06495592 0.00579116 0.056674883 0.036326475 -0.10564142 -0.005968471 0.016098185
0.033890616 -0.15917912 -0.19185524 -0.04198225 -0.24976672 0.06519897 0.13916245 0.2279603
0.10176522 -0.06300673 -0.1600114 0.09132719 0.20428438 -0.0017281007 0.0031279777 -0.04398879
-0.25088257 0.117542274 -0.05794172 -0.07213296 -0.05633963 0.007831641 -0.008221734 -0.18696496
0.14262009 0.02823854 -0.09687869 0.024527138 -0.05456877 -0.10954294 -0.0041364892 0.07070587
0.18949364 0.036075924 -0.024691539 -0.1908312 0.20871213 0.0005729901 0.10389773 0.1488769
-0.09888307 -0.05540646 -0.06753324 -0.097708315 -0.1712722 -0.29471976 0.11304265 0.024928616
0.08540848 0.038812265 -0.12063641 0.039718285 -0.0471266 0.00013653112 -0.1221506 -0.25122768
-0.09227638 0.13177684 -0.40765476 -0.19862722 -0.22524923 -0.32186472 -0.12915811 -0.09961294
-0.100451775 0.05428456 0.13455808 0.014065798 -0.053116996 0.019560995 -0.20998323 -0.1239082
0.02184946 -0.059741512 -0.08137451 0.020974955 -0.03442953 -0.100080706 0.22607616 -0.09389956
-0.07455209 0.05657445 0.056372557 -0.092997506 -0.13699584 -0.070185624 0.0748288 0.16930775
-0.047532015 -0.024919413 0.13614327 -0.116938315 0.110537745 0.096432544 -0.11567172 -0.20321344
0.089380294 -0.03315401 -0.02142635 0.18328112 -0.14228539 -0.19730169 -0.03726337 -0.091867045
-0.05754575 -0.03914274 -0.1609005 0.075034276 -0.10724249 -0.02491231 -0.03941882 0.028701095
-0.1312542 -0.15162775 0.01676354 -0.03489009 -0.020452408 -0.0027485488 -0.09206584 -0.058817733
0.059304263 -0.17421998 -0.067865886 -0.043503515 0.054551274 0.02260071 0.08916712 -0.019460045
0.01288217 -0.06527302 -0.09335402 -0.16476643 -0.07524976 0.058349106 -0.008361185 -0.016809212
-0.12400214 -0.01160426 0.086133435 -0.13512236 -0.05364989 -0.012288209 -0.08331903 -0.016188925
-0.018244388 0.03259275 0.0043609245 0.03790117 -0.14973825 -0.18887188 -0.1364229 -0.04944068

tcn.0.conv2.conv.bias f4 [64]
00000000: a9b5 51bd 8d14 e8bc 8674 0e3c b0e3 8ebb
00000010: 459e 6bbd 5818 5e3c 9d13 81bd 4295 69bc
00000020: a1f6 02bd 682c cfbc 15c7 7cbd 1977 41ba
00000030: ec9e dc3c 30f9 75bd 574c e03c b86c ba3c
00000040: ca54 543d 45b4 373d 13ef 9dbb 37a8 ad3c
00000050: 0e8d 2c3c 8e11 e3bc db1b 5ebd 9c3e 013d
00000060: 11c3 63bd bfec 48bd 96d0 5d3c 2142 90ba
00000070: b489 a8bc ce5d 55bc 4515 fb3c 48af 5f3d
00000080: 854c a5bc a411 87bd ce89 733d 6ec7 3abd
00000090: 032f 513c aed5 06bd 6ee7 5a3d c7ba fcbc
000000a0: fbd8 3dbd bc10 133d f071 32bd 02c7 8ebd
000000b0: e799 3e3c 0d3e 943c 6165 74bd cd08 2a3b
000000c0: 3b34 053b 9ee9 f6bc af3f 963b 5f60 613c
000000d0: ea6b b6bc 8b99 e63a 8ac6 debc 4508 49bc
000000e0: bd36 68bc 2a4d 2abb 746d 1abc 4529 d03c
000000f0: 735b 55bd e8a2 3abd 117b 2e3d 6070 3b3d
-0.051198635 -0.028330112 0.008694774 -0.0043606386 -0.057523984 0.013555609 -0.06302569 -0.014256777
-0.031973485 -0.02528973 -0.061713297 -0.00073801127 0.026931249 -0.060052097 0.027380152 0.02275692
0.051838674 0.044849653 -0.0048197596 0.021198375 0.010531677 -0.027718332 -0.054225784 0.03155385
-0.05560595 -0.049053904 0.0135385 -0.0011006036 -0.020573474 -0.013022853 0.03064979 0.05461052
-0.020178089 -0.065951616 0.059457593 -0.045600347 0.012767556 -0.032918625 0.053443365 -0.030850781
-0.046349507 0.03590463 -0.04356569 -0.069715515 0.011633373 0.018095994 -0.059666995 0.0025945187
0.0020325321 -0.030140694 0.0045852284 0.013755887 -0.022268254 0.0017593367 -0.02719428 -0.012270038
-0.014173207 -0.0025985935 -0.00942551 0.025410304 -0.052089166 -0.045565516 0.042597834 0.045761466

tcn.0.bn2.weight f4 [64]
00000000: be2e 293f 5d50 4d3f 9ac7 2b3f 9b67 a83f
00000010: 8946 983f 8f59 683f 48e3 103f 018b 583f
00000020: 3492 d63e a3bf 663f a9c5 353f 3037 4c3f
00000030: 4ba0 ee3e bc63 f53e 90e3 5a3f 11e8 173f
00000040: 8204 553f a473 453f 8186 8b3f 5c33 ee3e
00000050: f0fa fa3e 6c02 373f 5901 403f 4d4b 2f3f
00000060: a095 0b3f 1084 623f 8976 4a3f 2f4f 5d3f
00000070: 6633 663f 0712 e33e e3a1 2b3f 3fd3 4f3f
00000080: 7dfe 7f3f 8586 663f 580a 433f c6d1 623f
00000090: db60 1f3f a596 4f3f 34d9 493f 0672 3d3f
000000a0: ee6e 363f e9af 3d3f c358 773f 3447 0b3f
000000b0: 4fba 443f a105 623f 1e71 f63e f3c5 623f
000000c0: c361 583f 6ea2 583f dccf 733f 369d 003f
000000d0: c79c 543f 9f4c 293f fca8 1f3f acfb 123f
000000e0: 21cc 403f 52e0 063f 2f74 473f 1075 043f
000000f0: a715 603f e611 d73e 9d0c 263f f2ad 433f
0.6608695 0.8020075 0.6710144 1.3156618 1.1896526 0.90761656 0.56596804 0.84587103
0.4190842 0.90136164 0.7100473 0.7977171 0.4660667 0.47927654 0.8550348 0.5933848
0.83210003 0.7712958 1.0900422 0.4652356 0.49019575 0.7148807 0.75002056 0.68474275
0.54525185 0.8848276 0.7908712 0.8644895 0.8992218 0.4434969 0.67043895 0.8118171
0.99997693 0.9004901 0.7618766 0.8860134 0.62257165 0.8108924 0.7884705 0.7400211
0.71263015 0.7409654 0.96619815 0.5440552 0.76846784 0.8828984 0.48133177 0.88583297
0.8452417 0.8462285 0.95239043 0.50239885 0.83051723 0.6613254 0.62367225 0.5741527
0.75311476 0.52686036 0.7791166 0.51741123 0.8753304 0.42005843 0.64862996 0.76437294

tcn.0.bn2.bias f4 [64]
00000000: 13b7 46be cd50 44be 4c01 bdbe b770 b7bd
00000010: 9937 22be d36a f3bc c025 08bf a128 09be
00000020: 9a69 03bf f7de 5cbd 149d a5be cc66 31be
00000030: 3567 04bf dff0 febe ab2d 7abe 7468 35be
00000040: ae1f 92be 6052 83be b803 d0bd 5d8c cdbe
00000050: 9a10 e2be ed3b 93be cd1f 7cbe 1b59 d8bd
00000060: 285b 93be 0333 69bd 9b64 48be d523 10be
00000070: 7f2c 3abe b570 fbbe c787 a1be fb2b 31bd
00000080: 0eda a2bb a415 07be 6ee9 38be a8c7 35be
00000090: 2952 b2be 4aa2 1fbe 81f1 71be e32b 88be
000000a0: b267 b2bd de64 29be c642 4cbe 218d a1be
000000b0: bb53 a8bc f00e 27be ccd9 65be c664 0ebd
000000c0: a0b5 2cbe 3629 05be 1b9d d73c b8bd bfbe
000000d0: 3244 41be fdcf 12be 0844 51be 5757 0fbf
000000e0: ac07 34be 1346 d0be 577b 12be 8dbe 02bf
000000f0: b232 19be b921 09bf f21e 2fbe 1a1f ccbd
-0.19405775 -0.19171448 -0.36915052 -0.089570455 -0.15841521 -0.029714024 -0.531826 -0.13394405
-0.5133301 -0.053923573 -0.32346404 -0.1732437 -0.5171998 -0.49793145 -0.24431483 -0.17715627
-0.28539795 -0.25648785 -0.10156959 -0.4014615 -0.4415329 -0.28756657 -0.24621506 -0.105638705
-0.28780484 -0.056933414 -0.19569628 -0.14076169 -0.18181036 -0.49109426 -0.31548902 -0.043254834
-0.004969842 -0.13191849 -0.18057796 -0.17751944 -0.34828308 -0.15589252 -0.23627283 -0.26595983
-0.087111846 -0.16542384 -0.19947347 -0.31552985 -0.020547738 -0.16314292 -0.22446364 -0.034764074
-0.1686616 -0.13004002 0.02632003 -0.3744943 -0.1887367 -0.14337154 -0.20436108 -0.55992645
-0.17581052 -0.40678462 -0.14304863 -0.5107201 -0.14960745 -0.5356708 -0.17101648 -0.0996687

tcn.0.bn2.running_mean f4 [64]
00000000: 29d2 acbf ad1a c5bf f699 c93e f218 a9be
00000010: ffac 32be 6110 51be 9345 023b 5a2b 8c3e
00000020: 6da1 d9be 67ab 07c0 d019 483f f5fb 0d3e
00000030: 0996 16bf c535 bbbf a64e 2d3f 7a39 e8bf
00000040: 7ef9 8d3f fd88 8b3f 4065 dfbd 34a6 f9bf
00000050: 0ec7 e73e 54d6 793f dfbe 3b3f 92a8 6ebf
00000060: 0dbd 1ebd 9ed9 a1bf c165 83bf 9114 da3e
00000070: b3a8 bf3f 099f 83bf 9e2a 053f 4ce9 a9be
00000080: 0e11 08c0 651f be3e 2fc8 e1bf c8f5 a6be
00000090: 2e76 073e d09b c6bf 885b aebf ee90 aebf
000000a0: 3a96 cebf 29c6 663f 94c8 853f 99d0 87bf
000000b0: 78a4 0cc0 0a8b fabd a9df ddbf 22b1 cbbf
000000c0: cbe3 24bf 61ee 0b3e 660b 12c0 4340 d2be
000000d0: b5cd 46bf f2a6 aabf 7b85 0f3f 4e16 2f3f
000000e0: 8b84 11c0 5645 09bf 72a3 9bbf 235a 93be
000000f0: 3635 1fbf 0ea9 d0bf ab94 afbf adc5 69bf
-1.3501636 -1.5398766 0.39375275 -0.33026844 -0.17448805 -0.20416404 0.0019877895 0.27376825
-0.4250597 -2.1198366 0.78164387 0.13865645 -0.58822685 -1.4625784 0.67698133 -1.814254
1.1091764 1.090118 -0.10907984 -1.9503846 0.45269054 0.97592664 0.7333812 -0.9322597
-0.03875451 -1.2644536 -1.0265428 0.42593816 1.4973358 -1.0282909 0.52018154 -0.33185804
-2.126041 0.37133327 -1.7639216 -0.3260939 0.13228676 -1.55163 -1.3621683 -1.3637979
-1.6139596 0.9014612 1.0451837 -1.0610534 -2.1975384 -0.12233551 -1.7333881 -1.5913432
-0.64410084 0.13665153 -2.2819457 -0.41064653 -0.77657634 -1.3332198 0.5606305 0.6839341
-2.2737148 -0.53621423 -1.2159255 -0.28779706 -0.6219057 -1.6301591 -1.3717245 -0.91317254

tcn.0.bn2.running_var f4 [64]
00000000: 1539 9c40 ceb3 2e40 da94 0b40 54f9 6440
00000010: 18dc 2040 a625 7740 7702 2440 52ca b43f
00000020: dde3 8340 d5a2 ac40 adcb 7540 ca83 3e40
00000030: 6f77 4940 312e 7940 b0a7 8540 d8cf 0941
00000040: 6a6d 1340 cbe4 7540 9e2f 8540 34e8 ac40
00000050: b699 8d40 58ad 5640 3e3e 5c40 eb82 6840
00000060: 4662 8d40 6f3d 3b40 133f 2540 e647 8340
00000070: 6305 3740 421b 2840 8160 1640 480d 9740
00000080: e2b3 8240 0bdf db3f fdae f840 f4c0 1c40
00000090: b504 ca40 8ef5 8340 62d8 7740 52ba 7f40
000000a0: 12b8 9f40 9aed 9440 44b8 6c40 e10c 9140
000000b0: eeee ce40 e3b4 0340 2666 0a41 22a8 4a40
000000c0: e9f3 9940 0f07 3440 d871 5640 a92d 4a40
000000d0: 5fa5 4f40 7b0f e640 6cc8 7640 cb68 5240
000000e0: 9c19 1a41 b789 aa40 d925 0040 16a9 f63f
000000f0: 09c3 a540 a14a 7640 3a96 5d40 5c02 9440
4.881968 2.7297244 2.1809602 3.5777178 2.5134335 3.8616729 2.5626504 1.4124243
4.1215653 5.394877 3.8405564 2.9767938 3.1479146 3.8934443 4.1767197 8.613243
2.303553 3.8420894 4.1620626 5.403345 4.4250135 3.35433 3.441299 3.6329906
4.4182463 2.9256246 2.5819747 4.1025267 2.8597038 2.6266637 2.3496401 4.7203712
4.0844584 1.7177442 7.771361 2.449277 6.3130746 4.123725 3.872582 3.995747
4.9912195 4.654004 3.6987467 4.532822 6.466666 2.0579154 8.649939 3.166512
4.811024 2.8129308 3.3506985 3.1590369 3.2444685 7.1893897 3.8559828 3.287646
9.631252 5.329311 2.00231 1.9270351 5.180058 3.848305 3.462294 4.625288

tcn.0.downsample.weight f4 [64, 16, 1]
00000000: d51b 923f 014e 02be 01e2 6c3d 3e0d b1bb
00000010: 994d 0d3d 6d81 2a3e 89a1 22bd ba88 20be
00000020: 3d49 963e 96fb a2be cdf5 b2bd e5e0 2e3e
00000030: 52bf 05be 3d91 a8bd 2ad0 eebc fab1 9dbc
00000040: a150 e63e 2c67 46bd 6394 c8ba ece2 26bd
00000050: 6c2e 1cbe 0dda babe 8830 0bbd bf87 f73d
00000060: 59fa d63e 5244 efbd 9fc0 413e b626 d13d
00000070: fd22 99be 7df4 273b 820b a73c b769 c13d
00000080: 3d74 013f e8ae 053d c6df 3dbe c59c 4cbd
00000090: f836 623e a58a 04be 2203 26be fa7b 423e
000000a0: 5c78 19be a653 f8bb eaff 5bbd 291c 1abe
000000b0: 4942 e2ba 185c 063e 8c13 d03d 5703 42be
000000c0: e32b 6e3c 5562 173c c8fe 8dbd 461e d53c
000000d0: 1191 f1bd 9b1c 6dbe 00ff 70be cf6c 70bd
000000e0: 0e68 91be d9cc 9c3e 0cbd dc3c 2e6e 3d3e
000000f0: 02e7 163e 12c6 003e fc62 a9bd 034c 89be
00000100: 2699 763d a8fc 2c3e 91b8 0d3c a0a2 82bc
00000110: cc15 663d 9e05 8abe 5228 31be 0755 24be
00000120: 6321 98bd 0e4e b2bd e929 7fbe 3ba3 90bd
00000130: 2f8d 49be 0492 df3d 9411 413e 121b 0abe
00000140: 906e 333e 21b8 b1bc 4f19 e53b d098 193e
00000150: 0d7e 8b3d d255 c0bd 6d60 a2be d385 96bd
00000160: 8f80 953d e43a a8be 7e2a d5bd 984a 773e
00000170: a533 b1be 6f23 613e a7f2 c0bd ba7c 8f3e
00000180: ab21 8b3f b61f 3abe a0ea f0bd 3212 f73d
00000190: 1731 993c 2e63 1d3d efab d93c e000 bebd
000001a0: 7117 2dbe ed41 213e a87f 31bd 0dd5 3a3e
000001b0: c5c7 053b 7059 9f3d 86fa e63b 1813 dfbd
000001c0: 2ff5 54be d306 d83d 26b3 613e 63c8 e4bd
000001d0: 8b36 6dbe d0b0 d3bd 34c2 bdbe 0691 7ebe
000001e0: 115d 2dbe 6ba7 9e3e b2b7 083e 9df7 3ebe
000001f0: 3ff6 5bbc e1c9 29be 7ded 013e aaf6 2d3d
00000200: 6d9f 953f 4ece e6bd cd82 563e 84d5 fb3d
00000210: 3ff0 12be 8f6a fe3d f417 363e 20ec 383e
00000220: fba6 c23d 0832 90bd 0d20 62be a42b 153e
00000230: 46e9 183b c0fa 0e3e 9122 6d3e 803a d2bd
00000240: 4403 bd3e db7c e0bd b8fa 253e 5a18 163d
00000250: c6b8 35be 65c5 84be 6ba6 6abe a6c0 cabd
00000260: f723 cfbc bd4e bf3c a7c3 e73d da0e 273e
00000270: 757f 49be 1df3 3cbc 5bfe d2bd 6c2f 423e
00000280: fd10 82bf 383d 8dbb 9def 72bc 06db c339
00000290: 6d05 4f3e a34b 11be b66b f23d 66c7 67be
000002a0: 5ef1 e6bc 5253 f9bb fe89 9f3d 39c9 603d
000002b0: 3a27 a73d 8751 4ebd fed7 81bd a35e 47be
000002c0: 441a 40bf b91a e6bc 2a24 723e e557 3dbe
000002d0: f241 4d3d 659c 663d a1cb 2ebe 27e4 bebd
000002e0: 4026 b13d 7854 2dbe 4e31 363e c4b6 3d3c
000002f0: ec8e 9f3d d2d4 a4be 935a c5bd 526d 17be
00000300: fd5a 9e3f 7637 1dbd cf03 06be 1431 973b
00000310: 8e77 b33d ce20 133e fc84 1abc 9df1 7a3c
00000320: a2a8 dd3d 42e6 01bd 7bf8 973d 4884 7b3d
00000330: 4805 c2bc 4d66 22be 7cf5 2cbd 42b2 c93d
00000340: d1e5 83bf 8f4e 28bc 6ac6 06be ffd2 1cbc
00000350: b2ad 143e aa9f 633d 70e8 2f3e 55bd 0c3e
00000360: 1256 8f3c 1ec2 d73d 7ac8 0fbe 8502 45bd
00000370: 2288 f0bb 9e9b b93b 4fae ec3d e7db 3ebe
00000380: 8c8a b43e 6fec 333e 0645 563e 35bf 22be
00000390: 42a5 19be c963 563c cf75 a1be c5ba 50be
000003a0: a328 0dbc aa58 1cbe 990f 19be 1f51 ddbd
000003b0: 4727 553d b6f4 84be e504 72be 6d19 913e
000003c0: 307f 673f 882c 95bd a99f 713d 0063 a7bd
000003d0: f7f8 d7bd 0f18 75be 9cd2 2cbd ace6 723e
000003e0: d734 513e eec0 583e d55b c8bb 0569 14be
000003f0: 95da 713e d8e0 cbbd b1e3 64bc 72d4 0abe
1.1414744 -0.12725069 0.05783272 -0.00540319 0.03449783 0.16650935 -0.039704833 -0.15677157
0.2935275 -0.3183257 -0.08738289 0.17077978 -0.13061264 -0.08230827 -0.029151995 -0.019249905
0.4498339 -0.048438236 -0.0015303012 -0.040743753 -0.15252084 -0.36494485 -0.03398183 0.120864384
0.41987875 -0.11682953 0.18921135 0.10212462 -0.29909506 0.0025627904 0.02039123 0.09443992
0.5056799 0.032637507 -0.18542394 -0.049954195 0.22091281 -0.12943514 -0.16212133 0.18992606
-0.1498732 -0.007578331 -0.053710856 -0.15049805 -0.0017262186 0.13121068 0.10159978 -0.18946587
0.014536831 0.009239753 -0.06933361 0.026015412 -0.11795247 -0.23155443 -0.23534775 -0.058697518
-0.283997 0.30625036 0.026945613 0.18499061 0.1473656 0.12575558 -0.08270833 -0.26815805
0.060204647 0.16893256 0.008649961 -0.015946686 0.05617313 -0.2695741 -0.17300537 -0.1604806
-0.07428243 -0.08706294 -0.24918331 -0.07062384 -0.19682764 0.10916522 0.18854362 -0.13486889
0.17522645 -0.021694245 0.0069915424 0.149997 0.06811152 -0.09391369 -0.31714192 -0.07349744
0.07299911 -0.3285743 -0.10408495 0.24149549 -0.34609714 0.21986173 -0.09421282 0.28024846
1.086965 -0.1817616 -0.11763501 0.12064017 0.018700166 0.038424663 0.026571242 -0.09277511
-0.16903473 0.15747805 -0.043334633 0.18245335 0.0020413261 0.07780731 0.0070489077 -0.10892314
-0.20796655 0.105481766 0.22040996 -0.11171033 -0.23165338 -0.10336459 -0.37062228 -0.2486001
-0.16930033 0.30987105 0.13351324 -0.18649144 -0.013425409 -0.16580917 0.12688251 0.042471565
1.1689278 -0.11269818 0.20948334 0.12296584 -0.14349459 0.12422668 0.17782575 0.18058825
0.09504505 -0.07040793 -0.22082539 0.14567429 0.0023332401 0.13962841 0.23157717 -0.10265064
0.36916554 -0.10961314 0.16208923 0.036644317 -0.17746267 -0.2593185 -0.22915046 -0.09900026
-0.025285704 0.023352975 0.113166146 0.16314259 -0.19677527 -0.011532572 -0.10302421 0.18963403
-1.0161434 -0.0043102764 -0.014827636 0.00037356484 0.20216914 -0.1418901 0.118369505 -0.22634658
-0.028191265 -0.0076088095 0.07789992 0.0548794 0.08161779 -0.05037072 -0.06340025 -0.19469695
-0.7504008 -0.028088914 0.23646608 -0.1849056 0.05011172 0.056301493 -0.17069866 -0.0932086
0.08649874 -0.16926754 0.17792246 0.011579219 0.07790932 -0.3219362 -0.09636416 -0.14787796
1.2371517 -0.03838297 -0.1308739 0.004614005 0.087630376 0.14367983 -0.00943112 0.015316394
0.1082318 -0.03171373 0.07420441 0.06140545 -0.023684159 -0.15859337 -0.0422263 0.09848453
-1.0304509 -0.010272636 -0.13161626 -0.00957179 0.14519385 0.05557219 0.17178512 0.137441
0.017497096 0.10535072 -0.1404132 -0.048098106 -0.007340447 0.005664303 0.11556684 -0.18638574
0.35261953 0.17570661 0.20924768 -0.15893252 -0.15004447 0.013085314 -0.31535193 -0.20383747
-0.008615646 -0.15268198 -0.14947356 -0.10806488 0.05203941 -0.2596795 -0.2363468 0.2833971
0.9042845 -0.07283884 0.058990154 -0.081731796 -0.10545533 -0.23934959 -0.04219304 0.23720807
0.20430313 0.21167347 -0.006114463 -0.14493187 0.23618539 -0.09954995 -0.0139703015 -0.13557604

tcn.0.downsample.bias f4 [64]
00000000: 01a1 fe3d 50bf abbe 7896 46be 50dd 94be
00000010: 82d0 1fbe a152 8d3e 5ed9 483d 5380 09be
00000020: 5cc2 6ebe cd62 39be 954a 933c 679e 26be
00000030: 4aee 77bd 2fcc 1d3e 5029 ef3d 501c fbbd
00000040: 50ac bc3b 1dca 2abe bb73 7abe 80f1 633e
00000050: 6f42 ecbd 7e1b 56be b167 52be dedc c33d
00000060: 8e77 4c3e dd69 3dbe 5f3e bdbe 7d00 14be
00000070: bb07 0fbe 0aca 7dbd 0653 1abc 4078 f93d
00000080: d848 94bd ba1d 11be ea6d 0b3e 5200 bdbe
00000090: d4c7 6fbe 1906 83be 6d5e b93c 64dc 893c
000000a0: 6c27 7fbe 0276 4f3d 21d0 e2bd 6173 10be
000000b0: e1bc 863e 6422 a1be 60d9 55be f044 1fbe
000000c0: e3db 46be 95c5 1b3e 989f 543e d730 fb3c
000000d0: d34b 96be e690 eabd 67f2 493b b0ac 0cbe
000000e0: 0a58 863d 773f 2dbd bb34 6dbe 3079 2cbd
000000f0: 4ffc acbe b7ab 303e 6e0b a2be f20a b43d
0.12433053 -0.33544397 -0.19393337 -0.29075098 -0.15606883 0.27602103 0.049035423 -0.13427858
-0.2331633 -0.18104096 0.0179799 -0.16271363 -0.060529985 0.15409921 0.116778016 -0.122612596
0.005757846 -0.16678663 -0.2445821 0.22260094 -0.11536109 -0.20908925 -0.20547368 0.095636114
0.19967481 -0.18497415 -0.36961648 -0.14453311 -0.13967793 -0.061960258 -0.009419208 0.12181139
-0.07240456 -0.14171496 0.13616148 -0.36914307 -0.23416072 -0.2559059 0.022628034 0.016828723
-0.24917382 0.05064965 -0.11074854 -0.14106514 0.26315978 -0.3147155 -0.20883703 -0.15553641
-0.19419818 0.1521209 0.20764005 0.030662937 -0.29354724 -0.114534184 0.003081465 -0.1373775
0.06559761 -0.042296853 -0.23164646 -0.04210776 -0.33786246 0.17253004 -0.31649345 0.0879115

tcn.1.conv1.conv.weight f4 [64, 64, 3]
00000000: 1d97 1cbe ab58 89be 0032 f03d 5158 22bd
00000010: 8b19 1b3e 0f33 f53c 3794 893c a1a8 853d
00000020: 1bdc 313e 46c6 0b3d b9a9 083e f40b 0bbd
00000030: ea43 c33d f49c cc3d dbc4 e03d c8f3 d1bd
00000040: 1275 0abd 01ec 923d 669f 96bd 1e85 34bd
00000050: 760a 593e 31ff c63d d346 4b3d 66f2 883d
00000060: 24b0 14bd 6dcb edbc 9b11 753d 53ce 923d
00000070: 17d2 b63d 6ba1 fc3d 08f3 383d ce47 4a3d
00000080: 06e5 043b 820e 8b3d 7874 4fbc d39e 043e
00000090: 4d58 6c3d 0c7f 9a3d e961 b43e 45d2 e0bd
000000a0: 9ce6 bebd 6b8c f4bd 7122 873d 55de 213e
000000b0: 1044 0a3e 4e06 843c cdf2 68bd 0b84 74bd
000000c0: c1f8 923d 30c2 cf3d 503a ce3d 1dbc df3d
000000d0: 34cd 11bd 8c43 423d afb6 ca3d 1f28 993d
000000e0: 2a5c 303d d139 353d abe4 8ebc 001e e93d
000000f0: f612 653d 256e 09bd 7f86 8ebc bdc6 0a3e
00000100: 1bbb adbd 5084 34be 0d9d 74bd d17e 81bc
00000110: 8f9a e93d 2cde cc3c bfda b0bc 9827 c03e
00000120: 9010 b5bc 71e4 02be 3aaf abbd 8a3b 61bd
00000130: 6336 8b3d e18a a73d 30d1 0dbd 5d49 34bd
00000140: 75a1 5c3d 57bb 14bd d94e 2a3e 2465 ae3d
00000150: c334 0d3e 1b5e 83bc 6246 4e3e 0118 8f3b
00000160: 20df 883d 718c 9fbe 905e acbc 9ea5 113d
00000170: b51a fb3c 2fcc 163e 1e4c 123e 487f 843e
00000180: 0a14 c9ba 111b c2bd 5d66 86bd 1503 963d
00000190: 4faf a93d 2ddc 84bb 31cc 46be 8fcb b3bc
000001a0: 4fff 90bc 4c2f f53d f447 483b 7602 29bc
000001b0: 4d54 4b3c 06fb 7a3d 473b 073c 3c63 c7bb
000001c0: 38a5 c43d fd48 27bc 48af 283e efb0 efbd
000001d0: 0002 2bbe a180 bdbd 2a59 65bd 9b17 70bd
000001e0: ad21 3f3d e90b 3d3e 7e08 fd3d 6f4f 45bd
000001f0: 566e 733d d3fa 883d bf3d d33d 44da b03d
00000200: 722e 0f3e 5ae8 9f3d 69a4 073e ad4d 0a3d
00000210: b85d 673c 5bd9 153e e19a 483e 66be 083e
00000220: d582 b23d 2cc0 e63d 4ef6 f5bc d405 7a3b
00000230: 745d ad3d fe10 2ebe fcab 493b 499f 37bd
00000240: f5b6 f13d 7e99 113e 4468 8d3d e157 443e
00000250: 190f ed3d bfb6 85bd 9645 fbbd f14a e4bc
00000260: 163c 823d 5033 b0bc 9fb7 99bb 9bde 8e3d
00000270: b647 26bc 156a b43c 9b3a 203e 73fd a7bd
00000280: ce82 633c 05cc 3c3e 21f4 463d 852b a03d
00000290: f15d 323e 9341 bc3d 3a61 b23c e85a a7bd
000002a0: 0ae7 17bd 853b 813c 139b b8bc 8d44 0a3e
000002b0: 4e87 b43d 46db dfbd c031 3bbd e2f0 b5bb
000002c0: 6703 133d 9c73 373e 5529 363e c485 f1bc
000002d0: b0ef c73d ce60 db3d dbd6 1e3e 0073 e8bd
000002e0: 9bdb edbd 4f09 773e f345 8ebd 189b a1bd
000002f0: ef06 0d3e 53df 38bd 81d2 3bbc fe64 e43d
00000300: ff19 463e f7c4 8e3d 9960 48bd 59a3 253a
00000310: 9dd5 11bc fd60 9e3d 9812 273a b3fd ccbd
00000320: 7ea6 043d f2df d23d 0f77 a03d 3b94 133e
00000330: 2935 82ba 1d78 953d 3651 8e3b 3b8b 5abd
00000340: daa4 673e 96ee 9f3b 42f9 1e3d fa2e 96be
00000350: d94b acbc dc7b 243d a6fb 84bd e161 533c
00000360: 7f88 37bc c82b fcbd e62a 8d3c e30a b63d
00000370: 147f b1bd 9bc5 833c 63d7 97bd 9b5a a63c
00000380: 4d56 813d 11f9 21bd 8734 bc3d 2f79 85bd
00000390: 9ebb c43d 2730 48be 43b4 4f3d e304 14be
000003a0: 3ff0 f43b a21e 6c3e 09e3 2cbd 81ae 04bd
000003b0: 9b6b 333e 0f69 89bd eea9 1ebd 8e51 473e
000003c0: 9c20 2fbd c7b3 c2bc 57f5 a33d ca25 0ebd
000003d0: 3480 bcbd 8848 14bd e831 5abd 0969 d73d
000003e0: 7aa6 873c 1990 883c 9eba eabd d880 323d
000003f0: bd66 5bbd e2d3 3c3e faf7 103e 9f5a 61bd
-0.1529202 -0.2682546 0.11728287 -0.039635006 0.15146463 0.029931573 0.016794307 0.06526304
0.1736912 0.034124635 0.13345994 -0.033946946 0.09534438 0.09990874 0.10975047 -0.10251576
-0.033803053 0.071739204 -0.073546216 -0.044072263 0.21195397 0.09716643 0.04962809 0.06686859
-0.036300793 -0.029027665 0.059831243 0.071682595 0.0892679 0.123354755 0.045153648 0.049384885
0.002027811 0.067898765 -0.012662046 0.12951212 0.057701398 0.075437635 0.3523095 -0.10977606
-0.09321329 -0.11940845 0.06598366 0.15807469 0.13502526 0.016116288 -0.056872178 -0.05969624
0.07176352 0.1014446 0.10069716 0.10924552 -0.035596088 0.0474277 0.098981254 0.074783556
0.043056644 0.04424459 -0.017443022 0.11382675 0.055926286 -0.033552308 -0.017398117 0.13552375
-0.08482953 -0.17628598 -0.059720088 -0.015807541 0.11406433 0.025008284 -0.021588681 0.37530208
-0.022102624 -0.12782456 -0.08383031 -0.05498842 0.06797483 0.08180786 -0.034623325 -0.044015277
0.053864915 -0.036311474 0.1663164 0.08515385 0.13789658 -0.016036084 0.20144036 0.004366875
0.06683183 -0.31161836 -0.021041185 0.035558335 0.030652383 0.14726327 0.14286849 0.25878358
-0.0015341055 -0.09477819 -0.06562493 0.073248066 0.082853906 -0.0040545673 -0.1941383 -0.02194765
-0.017699866 0.11971912 0.0030560466 -0.010315528 0.012410236 0.06127455 0.008253879 -0.0060848277
0.096018255 -0.010210273 0.16473114 -0.11703669 -0.16699982 -0.0925305 -0.055993237 -0.058616262
0.046662975 0.18461575 0.123551354 -0.048171457 0.059431396 0.06688466 0.103145115 0.08635381
0.13982561 0.078079894 0.13246311 0.033765484 0.014121465 0.14633696 0.19590332 0.13353881
0.087163605 0.112671226 -0.030024674 0.0038150446 0.084650904 -0.1699867 0.0030772677 -0.04482964
0.118024744 0.14218709 0.06904653 0.19174148 0.11575145 -0.06528997 -0.12269132 -0.027867766
0.06359117 -0.021508843 -0.004691079 0.069760524 -0.010148933 0.02202324 0.15647356 -0.082026385
0.013886167 0.18437202 0.048572663 0.07820801 0.17418648 0.09192195 0.021774877 -0.08171636
-0.03708557 0.015775451 -0.022534883 0.13502713 0.0881487 -0.10930495 -0.045701742 -0.005552397
0.035891917 0.17915195 0.17789204 -0.02948273 0.09762514 0.107118234 0.15511648 -0.113500595
-0.11614152 0.24124645 -0.069469355 -0.0789091 0.13772176 -0.045134854 -0.011463762 0.11152075
0.19345854 0.06971162 -0.048920248 0.0006318591 -0.008901027 0.07733343 0.0006373315 -0.10009327
0.03238534 0.102966204 0.078352086 0.14412014 -0.0009934056 0.072983004 0.004343177 -0.053355437
0.2262148 0.0048807366 0.03881193 -0.29332715 -0.02103226 0.040157184 -0.06493311 0.012901754
-0.011201977 -0.12313038 0.01723237 0.08888795 -0.08666816 0.016085437 -0.07414129 0.020306876
0.06315289 -0.03954417 0.09189706 -0.065172546 0.09606098 -0.19549619 0.05070902 -0.14454989
0.0074749286 0.2305856 -0.042208705 -0.032392982 0.17521517 -0.067094915 -0.038736276 0.19464704
-0.042755708 -0.023767365 0.08005779 -0.034704007 -0.0920414 -0.036201984 -0.05327025 0.10518081
0.016558874 0.016670274 -0.11461376 0.043579906 -0.053564776 0.18440202 0.14157096 -0.055018064

tcn.1.conv1.conv.bias f4 [64]
00000000: 44c3 d1bb d1d6 163d 5664 34bc 8e35 7fbc
00000010: 3ade 10bd a080 8fbc 7536 f6bb 220f 6b3d
00000020: 15fb b23c 150c 3abd 552f 5c3d 4e7e 2dbd
00000030: 1c40 a3bc abff 88bd 0694 813d 5dc4 6c3d
00000040: 2b88 19bd b976 953d c57e 42bd c9d1 343d
00000050: dec7 853d 1bee 39bd f0dd ce3c 40f6 4b3d
00000060: 94f2 f9bb 8428 86bd eb0e 873d 794a 7fbd
00000070: 976c 813d 63d2 053d ff0b 313d 89d7 403d
00000080: e239 3abd 11b8 91bc 1856 b73c fd82 0d3c
00000090: b644 e13c 1e66 85bd 7f43 993c bf81 55bc
000000a0: 6cf7 013d ee00 2bbd 13a8 393d 6c3b 8bbd
000000b0: f306 53bc 3cf2 04bd 6363 703d e67a 00bd
000000c0: 3543 eebc 7539 b4bb 1c1c a93c 2286 45bd
000000d0: 8dd1 8fbd 6a98 5fbd 3b8c 02bd 870b e8bc
000000e0: 2c97 f3bc a810 8bbc c746 943d 7045 20bd
000000f0: fda9 d5bc d453 04bd ff28 0ebd 2172 70bd
-0.0064014513 0.03682596 -0.01101025 -0.015576733 -0.03536818 -0.017517388 -0.007513816 0.05738748
0.02184824 -0.04542168 0.053756077 -0.04235678 -0.01992803 -0.0668939 0.06327061 0.057804454
-0.037483376 0.07298035 -0.047484178 0.04414538 0.06532262 -0.04539309 0.025252312 0.04979539
-0.0076277945 -0.065506965 0.06594642 -0.062326882 0.0631954 0.032671344 0.04322433 0.04708055
-0.045465358 -0.017787965 0.02237992 0.008637187 0.027498584 -0.06513618 0.018708942 -0.013031422
0.0317301 -0.041748933 0.045326304 -0.06798443 -0.012880075 -0.032457575 0.058688533 -0.031367205
-0.029084781 -0.0055000135 0.020643286 -0.048223622 -0.070223905 -0.054588713 -0.031872015 -0.02832581
-0.02973517 -0.016975716 0.07240062 -0.03912872 -0.026082033 -0.032306507 -0.034707066 -0.05870259

tcn.1.bn1.weight f4 [64]
00000000: cc24 823f 5afd 623f 1321 943f 04d9 583f
00000010: 3cf0 913f 107a 913f aea0 8a3f 5e49 9d3f
00000020: 9e1c 3e3f 2e22 5d3f d27d 6c3f b583 623f
00000030: ccb4 633f 4c5a 573f ab74 763f 2ce9 4d3f
00000040: 0f53 903f 4dc6 833f 008f 8d3f fd04 683f
00000050: 95e4 573f 1b35 4a3f ea2d 733f e71b 973f
00000060: 3d22 453f e5e8 803f c771 a53f a9f5 483f
00000070: 60a2 b33f 9a27 923f 2285 583f d4c1 943f
00000080: b39c 733f 7054 6f3f 00c5 903f 276c 8a3f
00000090: 0b6c 533f 1cf0 5e3f a5a1 903f c774 783f
000000a0: 46ab 903f ad75 6e3f 5467 4e3f 662d ab3f
000000b0: 533e 443f 030c 8a3f 5144 653f 3b53 673f
000000c0: 2448 a43f 2d3e 8e3f 537e 8b3f 0743 8f3f
000000d0: b859 2d3f c0d6 613f 29af 683f 1969 5f3f
000000e0: 16e8 793f 5f21 4c3f 942e 8a3f 4467 923f
000000f0: d808 5f3f cfe6 6e3f cd28 793f 10e6 953f
1.016748 0.88667834 1.1572593 0.8470614 1.1401439 1.1365376 1.0830286 1.2288015
0.74262416 0.8638028 0.92379487 0.8848222 0.8894775 0.8412216 0.9627177 0.8043392
1.1275347 1.0294892 1.1059265 0.9063261 0.84333163 0.7898728 0.94991934 1.180539
0.7700537 1.0071074 1.2925347 0.7849985 1.4033928 1.1418335 0.84578145 1.1621652
0.9516098 0.93488216 1.131012 1.0814255 0.82586735 0.8708513 1.129933 0.9705319
1.1302269 0.9314831 0.80626416 1.337323 0.766576 1.0784916 0.8955737 0.90361375
1.2834516 1.1112725 1.0897926 1.119233 0.67715025 0.8821831 0.90892273 0.8726974
0.9761976 0.7973842 1.0795465 1.1437764 0.8712287 0.93320936 0.9732788 1.1710835

tcn.1.bn1.bias f4 [64]
00000000: 7f48 95be 960c 7cbe 4de1 09be 75d5 09be
00000010: 13ac 12be 0c1a 70be be2c dfbd 505a 4fbe
00000020: 6773 4bbe b718 c1bc 90ae 82bd 887a 16be
00000030: be2c 49be 8ea8 60be d2be 55be f725 4cbe
00000040: 6877 eabd 5125 febd 8c68 94be a6dc c0bd
00000050: e20e 67be 427d 11be 2c06 dcbd 4e91 86be
00000060: 3b55 40be 31ac c5bd a271 fabd 1a39 78be
00000070: 0779 bbbd 9b20 3cbe b7bc 8bbe 0dcd d3bd
00000080: 3450 6cbe 19ce 11be aab8 44be 1d2d 11bd
00000090: d77d 0abe 7e7f 4ebe bff5 e2bc a13e 44bd
000000a0: f8f2 45be 6518 06be 6b8e 88be 5d49 1dbe
000000b0: 67c5 84be 783e 19be 94e0 91be 032c 66bd
000000c0: fb1c 12be ad7a 00be e474 40bd def7 79be
000000d0: 2513 87be f758 96be f8eb 05be e2fd 3fbe
000000e0: f0e4 9fbe 86e5 43be 9975 9fbd 5afe adbe
000000f0: 50f1 13be 2604 90be 9ad5 90bb fb43 2bbd
-0.29156873 -0.24614176 -0.13464852 -0.13460334 -0.14323454 -0.23447436 -0.10897206 -0.20249295
-0.19868241 -0.023571355 -0.063809514 -0.1469518 -0.19645974 -0.21939299 -0.20873573 -0.19936357
-0.11448556 -0.12409461 -0.28986013 -0.09417085 -0.22564271 -0.14207938 -0.10743365 -0.26282734
-0.18782513 -0.096519835 -0.12228705 -0.24240533 -0.091539435 -0.18371813 -0.27292415 -0.10341845
-0.2307747 -0.14238776 -0.19211069 -0.035443414 -0.13524567 -0.20165822 -0.027705071 -0.04791129
-0.19330966 -0.13095243 -0.26671156 -0.15360017 -0.25931856 -0.14965236 -0.28491652 -0.056194317
-0.14268868 -0.12546797 -0.046986476 -0.2441096 -0.26381794 -0.2936475 -0.13078296 -0.18749192
-0.31229353 -0.19130525 -0.07786102 -0.33983117 -0.14447522 -0.28128165 -0.0044199945 -0.041812878

tcn.1.bn1.running_mean f4 [64]
00000000: f26d d33e 74cb 813d ebdb 1abf a49a 3c3e
00000010: 5ba2 a5be 36b1 9c3e e0bc 0fbf f054 503f
00000020: 7fa0 4c3e a191 1e3f 98ae 7fbf 6505 1abf
00000030: 9f4b 91be b0be 973f b2cb 54bf 276e 333f
00000040: d573 4b3f 50ec 09bf 107d 4c3d ccaf 10bf
00000050: 5086 423f b7bd 2b3f b568 7bbe 0416 3dbd
00000060: 6625 6fbf e5f1 9d3e 6ccf 84bf 0ea9 0840
00000070: 4c4f 143e 1959 32be d45f 6d3f 0b01 25bf
00000080: c0c5 7c3e 1130 fe3f ed24 fc3f 80e1 003f
00000090: 0cb0 84bf 9868 563d 2639 d63e e0c7 2ebf
000000a0: b9b3 fdbe ccb8 ba3d c904 b9be 4498 6cbf
000000b0: 8a71 64bf 8c57 96bf 226c cc3d 19df 1140
000000c0: a1dc 2bbe 8364 20bf d39e 34be 508e efbe
000000d0: 1cb9 92be 6f7b 8bbf 7306 de3f 4fa5 133d
000000e0: 3367 8ebe 644c 993f 1c21 af3d f0c2 6e3e
000000f0: 5617 473f e1a4 0e40 e699 753e 0870 cb3e
0.4129482 0.06337634 -0.6049182 0.18418366 -0.3235043 0.3060395 -0.56147575 0.81379604
0.199831 0.6194096 -0.99875784 -0.6016448 -0.28378007 1.1855068 -0.83123314 0.70089954
0.7947362 -0.5387621 0.049923956 -0.56518245 0.75986195 0.67086357 -0.24551661 -0.046163574
-0.9341644 0.30848613 -1.03758 2.1353183 0.14483374 -0.174168 0.9272435 -0.64454716
0.2468481 1.9858419 1.9698769 0.50344086 -1.0366225 0.052345842 0.41840476 -0.68273735
-0.4955118 0.091172785 -0.36136463 -0.9241984 -0.89235747 -1.1745467 0.09981562 2.2792418
-0.16783382 -0.6265337 -0.17638712 -0.46788263 -0.28656852 -1.0897044 1.7345718 0.036046322
-0.2781311 1.1976438 0.08551237 0.2331655 0.7776998 2.2288134 0.23984489 0.3973391

tcn.1.bn1.running_var f4 [64]
00000000: 0e22 933f b2e5 4f3f baa3 bd3f 58c5 ad3f
00000010: f758 2b3f b2ef c43f e5ad 7b3f d88f ed3f
00000020: 2c18 553f 9893 b43f 7b69 503f 542d 533f
00000030: e67f 863f 9132 2e3f 10ef 2e3f 0140 253f
00000040: 905e aa3f 991f 2b3f 80aa c33f c09f 293f
00000050: 2f1d 883f e4b2 2f3f 66ef 753f e136 ea3e
00000060: 9892 9d3f 6be6 4b3f 0cfa 243f 43e8 8e3f
00000070: 51c2 dc3f 989c af3f af74 053f a9f5 0740
00000080: 90cc fd3f b6b7 ac3f 3fd0 3240 f116 643f
00000090: fbba d83f 93ab 8f3f 394a 8c3f 9877 783f
000000a0: f1d4 ea3f 6c0f 493f fa92 0540 9723 a93f
000000b0: 22b0 893f 7fa0 d63f 7e7c 3a3f f539 f03f
000000c0: 65c2 d03f 108b 503f 2695 ca3f c872 143f
000000d0: 5a6d 6c3f 9a31 af3f 82cf 0040 96c8 413f
000000e0: 34ae c93f 876a a73f cb7d 6c3f eeb3 c33f
000000f0: fd18 123f 432f e33f a709 463f c6aa 9f3f
1.1494768 0.8120986 1.481559 1.357585 0.66932625 1.5385649 0.98312217 1.8559523
0.8324001 1.4107542 0.8141095 0.8249104 1.0507782 0.6804591 0.6833353 0.6455079
1.3310108 0.6684509 1.5286407 0.66259384 1.0633906 0.6863234 0.9606842 0.45744994
1.2310362 0.79648465 0.6444404 1.1164631 1.7246801 1.3719664 0.5213117 2.124369
1.9828053 1.3493564 2.7939603 0.89097506 1.6932062 1.1224235 1.0960151 0.97057486
1.8346235 0.78539157 2.0870957 1.3213986 1.0756876 1.676773 0.7284621 1.8767687
1.6309325 0.8146219 1.5826766 0.5798764 0.9235436 1.3687012 2.0126653 0.75696695
1.5756288 1.3079385 0.92379445 1.5289285 0.5706938 1.7748798 0.7735848 1.2473991
