models/checkpoints/tcn_kernel5.pt (torch, 350635 bytes, 41 tensors)

tcn.0.conv1.conv.weight f4 [32, 16, 5]
0	0xbe08032d	-0.13282461
1	0xbd9f305f	-0.07772898
2	0xbdb02672	-0.08601083
3	0xbdc29945	-0.0950189
4	0x3caeef15	0.021354238
5	0x3d66649d	0.056248296
6	0x3d186034	0.03720112
7	0x3d76ff84	0.060302272
8	0xbd47d00e	-0.0487824
9	0x3d8944cd	0.06702576
10	0x3e47a17b	0.19495194
11	0xbd058966	-0.032601736
12	0x3e57eac2	0.21085647
13	0x3e3a98ed	0.18222399
14	0x3e438da7	0.19097005
15	0x3e354670	0.17702651
16	0x3dec142b	0.11527284
17	0x3d304b7f	0.04304075
18	0x3dcfae48	0.101406634
19	0xbdb9ed17	-0.090784244
20	0x3d5a61fa	0.053316094
21	0x3d7857de	0.06063067
22	0x3e41718a	0.18890968
23	0x3dcfd929	0.10148842
24	0x3d642d05	0.055706996
25	0xbdf7d217	-0.12100618
26	0xbdb7ec69	-0.089806385
27	0x3cfbf0e2	0.03075451
28	0x3dc6ac6a	0.09700854
29	0xbd246293	-0.04013307
30	0xbce11740	-0.027476907
31	0xbdf77dfb	-0.12084576
32	0x3d2923ba	0.041293837
33	0x3d389826	0.045066975
34	0x3cbb65cb	0.022875687
35	0x3cda8f24	0.026679583
36	0xbdd80159	-0.10547132
37	0x3cd981ae	0.026551094
38	0x3e0ed024	0.13946587
39	0x3cda4642	0.02664483
40	0xbb1b4c33	-0.0023696541
41	0x3d2f0e95	0.042738516
42	0xba550bb7	-0.0008127051
43	0xbdd30a38	-0.103046834
44	0xbe19656b	-0.14980094
45	0x3e0c9637	0.13729177
46	0x3e38a1f2	0.18030527
47	0x3d9223cb	0.07135733
48	0x3da74043	0.08166554
49	0xbcdb8b9d	-0.026799971
50	0x3de67710	0.11253178
51	0x3c2a7625	0.010404144
52	0x3d51f204	0.051256195
53	0xbccf5bc1	-0.025312306
54	0xbe19c40b	-0.1501619
55	0x3e0af60b	0.1357042
56	0x3e706310	0.2347529
57	0x3e316433	0.17323379
58	0x3df4c5af	0.11951768
59	0x3ddc58ce	0.10759126
60	0xbd6ad6ab	-0.05733363
61	0xbdb67910	-0.089098096
62	0x3c5c8d0f	0.013461365
63	0x3de03c99	0.10949058
64	0xbdd098ee	-0.10185419
65	0xbd141178	-0.036149472
66	0x3cff047c	0.031130068
67	0x3d7f4eea	0.062331118
68	0xbd3375cc	-0.04381351
69	0xbda81b21	-0.082082994
70	0x3ddd8110	0.10815632
71	0x3b46a14e	0.0030308547
72	0x3d9d5355	0.0768191
73	0x3c545e91	0.0129619995
74	0x3c8c4e56	0.017127197
75	0x3d36e61b	0.04465304
76	0xbc7b88df	-0.015352457
77	0xbda386f8	-0.079847276
78	0x3d7794b0	0.060444534
79	0x3c676560	0.014123291
80	0xbd466e4c	-0.04844503
81	0xbe3e1bec	-0.18565339
82	0xbd4549ba	-0.048166014
83	0xbe766b6a	-0.24064413
84	0x3e04198a	0.12900367
85	0xbd4242b8	-0.04742691
86	0x3df78e56	0.12087695
87	0x3d606030	0.05477923
88	0x3cb4d863	0.022075837
89	0xbc91bb1e	-0.01778942
90	0x3d48f7d9	0.04906449
91	0xbc523c1e	-0.012831716
92	0xbd2c65a6	-0.042089127
93	0xbe0f8858	-0.14016855
94	0xbdb26670	-0.08710945
95	0xbd910e78	-0.07082838
96	0xbd9bbf4e	-0.07604848
97	0x3c3a7c58	0.011382185
98	0xbd69a434	-0.057041362
99	0xbc1543e7	-0.009110427
100	0xbcd8cf68	-0.026466087
101	0x3cd81463	0.026376909
102	0xbe180598	-0.14845884
103	0xbe946971	-0.28986695
104	0xbe5be5e7	-0.2147442
105	0xbdefc0d8	-0.11706704
106	0xbe83e73d	-0.25762358
107	0xbd7492d2	-0.05971033
108	0xbdb5421f	-0.08850502
109	0xbdf1ecb6	-0.11812727
110	0xbc986ed1	-0.018607529
111	0xbd3f30fb	-0.04667757
112	0xbdc1477f	-0.09437465
113	0xbd057ae8	-0.032587916
114	0x3d1a2ae0	0.037638545
115	0x3cbb6a19	0.02287774
116	0xbdd75bf3	-0.10515585
117	0x3da6bc9c	0.08141443
118	0x3c5e6acd	0.013575268
119	0x3d7f1732	0.06227798
120	0x3ba9abfd	0.0051779733
121	0x3de73a00	0.112903595
122	0xbd982042	-0.07428028
123	0x3e016582	0.12636378
124	0xbd313be1	-0.043269996
125	0x3df2238d	0.11823187
126	0x39451642	0.00018795676
127	0xbb0f5543	-0.0021870888
128	0xbe0b56e9	-0.13607372
129	0xbdd1358e	-0.10215293
130	0x3d3ff1ad	0.04686134
131	0xbddfbe39	-0.10924954
132	0x3d28a1a1	0.041169766
133	0xbce532d4	-0.027978338
134	0xbe0ad039	-0.13555993
135	0xbc954763	-0.018222516
136	0xbde7bcf3	-0.11315336
137	0xbba38030	-0.0049896464
138	0xbe0c5ec5	-0.13708027
139	0xbe2295da	-0.15877476
140	0x3e159ca1	0.1461053
141	0x3dd4eee4	0.10397127
142	0x3e73345b	0.23750441
143	0x3e2b5165	0.16730268
144	0x3e1f87de	0.15579173
145	0x3db5e19d	0.08880923
146	0x3d905f45	0.07049421
147	0x3803af04	3.139583e-05
148	0xbdb27860	-0.08714366
149	0xbdd1f816	-0.10252397
150	0xbe53f362	-0.20698312
151	0xbddf2e10	-0.108974576
152	0xbe4c86d3	-0.19973306
153	0xbd821baf	-0.063529365
154	0xbe2896b1	-0.16463734
155	0xbceeeeaf	-0.029166548
156	0xbdbbb0a5	-0.09164552
157	0x3daa23cd	0.0830761
158	0x3db0ae6a	0.08627017
159	0xbc65a368	-0.01401601
160	0x3e03e1d5	0.12879117
161	0x3e475c1c	0.1946873
162	0x3de06005	0.10955814
163	0x3dd1a190	0.10235894
164	0x3f1cb83c	0.6121862
165	0x3e1fd75c	0.15609497
166	0x3d170a07	0.036874797
167	0x3da5ed15	0.081018604
168	0x3d28ed99	0.041242216
169	0x3db38b0b	0.08766755
170	0x3b82f134	0.003996039
171	0xbd80d843	-0.06291249
172	0xbcb8fe6f	-0.02258226
173	0x3d418cb2	0.047253318
174	0x3e01b604	0.1266709
175	0x3e170326	0.14747295
176	0x3dd5133b	0.104040585
177	0x3d30568f	0.0430513
178	0x3e25d183	0.16193204
179	0x3e91627c	0.2839545
180	0xbc9c8196	-0.01910476
181	0xbd8e6158	-0.069521606
182	0x3da4d727	0.080488496
183	0x3d1ecbf2	0.038768716
184	0x3d7c8aa0	0.06165564
185	0x3e09d1e5	0.13458975
186	0xbcefdbfd	-0.029279703
187	0xbda222a2	-0.07916762
188	0x3bbee72a	0.0058258967
189	0x3db2d4b3	0.087319754
190	0xbcf4c250	-0.029877812
191	0x3d677f2d	0.05651777
192	0xbda684df	-0.08130812
193	0xbc3a7813	-0.011381167
194	0x3dc93250	0.098240495
195	0xbcd6164d	-0.02613368
196	0xbccb8c28	-0.024847105
197	0x3d0d4d1c	0.034497365
198	0xbd8748de	-0.06605695
199	0xbd866c46	-0.0656362
200	0x3e32327b	0.1740207
201	0x3dc3bdc6	0.09557681
202	0x3d9d910e	0.076936826
203	0x3dfacf75	0.122466005
204	0x3daf0b00	0.0854702
205	0xbe1a2524	-0.1505323
206	0xbdf09370	-0.117468715
207	0x3d98e50d	0.07465563
208	0xbc259e60	-0.01010856
209	0x3e14cca5	0.1453119
210	0x3df7e4b4	0.121041685
211	0x3e3f95f9	0.18709554
212	0x3d8845bd	0.066539265
213	0x3e35966e	0.17733166
214	0x3df574db	0.11985179
215	0xbe21bb3b	-0.15794079
216	0x3cb837c4	0.022487529
217	0x3ddd50f1	0.10806454
218	0x3df3fe21	0.119137056
219	0x3d9a12dd	0.07523129
220	0x3e271e01	0.1632004
221	0x3df42fa5	0.1192315
222	0x3d40ae0a	0.047040977
223	0xbcb0e3ed	-0.021593058
224	0xbd67b4c8	-0.05656889
225	0xbda364d0	-0.07978213
226	0xbd86c492	-0.065804616
227	0xbe2cab8c	-0.16862315
228	0xbe791ac2	-0.24326614
229	0xbe83866d	-0.25688496
230	0xbce2c34f	-0.027681021
231	0xbd21b622	-0.039480336
232	0xbdc59191	-0.09646905
233	0x3da40c88	0.08010203
234	0x3dd4eec4	0.103971034
235	0xbdb57c22	-0.08861567
236	0x3d422bb1	0.04740495
237	0xbdd1de5b	-0.10247489
238	0xbd9fc54b	-0.078013025
239	0xbb50067f	-0.0031742153
240	0x3e2cfb0d	0.16892643
241	0x3ead72b5	0.33876577
242	0x3ec397df	0.38201806
243	0xbdd1b199	-0.10238952
244	0x3f7658be	0.9622916
245	0x3d76c08a	0.060242213
246	0xbc7c1aed	-0.015387279
247	0xbd2b6632	-0.041845508
248	0xbdb33482	-0.087502494
249	0xbc9eadf4	-0.019370057
250	0xbd3e939f	-0.0465275
251	0xbdab83b4	-0.0837473
252	0x3c1478ab	0.009061973
253	0x3daa2555	0.08307902
254	0xbcdb18f2	-0.026745293
255	0x3da61f85	0.081114806

tcn.0.conv1.conv.bias f4 [32]
0	0x3cc29704	0.02375365
1	0xbc13a3cd	-0.009011221
2	0xbc6f487d	-0.014604685
3	0x3d935dcb	0.07195624
4	0x3b0b05be	0.002121314
5	0xbdc61526	-0.096720025
6	0x3de44679	0.11146254
7	0xbdd1b6fa	-0.10239978
8	0xbd14471f	-0.03620064
9	0xbd56a897	-0.052406874
10	0x3dee2882	0.1162882
11	0xbd9a7db2	-0.07543506
12	0xbce8ce29	-0.028418617
13	0x3d94662f	0.072460525
14	0xbcd8bdad	-0.026457632
15	0xbc66f73f	-0.014097034
16	0xbd8e77da	-0.069564536
17	0xbd0e6fc1	-0.034774546
18	0x3b0595e9	0.0020383543
19	0xbba760e5	-0.0051079863
20	0xbd28f1c6	-0.041246198
21	0xbb36fd23	-0.0027921877
22	0x3d220ba6	0.03956189
23	0xbdd2631b	-0.10272809
24	0x3c83069a	0.015994359
25	0x3dcc8ecb	0.09988173
26	0x3d917efa	0.07104297
27	0xbd29798e	-0.04137569
28	0xbdb5d0b2	-0.08877696
29	0xbdb52f23	-0.08846881
30	0x3ce2bd1f	0.02767807
31	0x3d14f5d5	0.036367256

tcn.0.bn1.weight f4 [32]
0	0x3f4ed831	0.8079863
1	0x3f475425	0.7786277
2	0x3f43cd8e	0.76485527
3	0x3f8d3584	1.1031957
4	0x3f6cb675	0.9246591
5	0x3f4167f1	0.75549227
6	0x3f5ad888	0.8548665
7	0x3f659125	0.896746
8	0x3f546086	0.82959783
9	0x3f897f9b	1.0742067
10	0x3f4b03c4	0.7930262
11	0x3f9bf605	1.2184454
12	0x3f87f771	1.0622388
13	0x3f8769c2	1.057915
14	0x3f765f6c	0.9623935
15	0x3f5f7ef4	0.8730309
16	0x3f5e855e	0.8692225
17	0x3f49883d	0.7872351
18	0x3f4997d3	0.7874729
19	0x3f7aef42	0.9802133
20	0x3f886861	1.0656854
21	0x3f98cf7d	1.193832
22	0x3f972fe5	1.1811491
23	0x3f831dbf	1.0243453
24	0x3f54352b	0.8289363
25	0x3f640c98	0.89081717
26	0x3f87de09	1.0614635
27	0x3f9b34db	1.2125505
28	0x3fb10e07	1.3832406
29	0x3f571ba9	0.8402658
30	0x3f7426b6	0.9537157
31	0x3f8bd395	1.0923945

tcn.0.bn1.bias f4 [32]
0	0xbe27a167	-0.16370164
1	0xbe400d05	-0.18754967
2	0xbe7520bc	-0.23938268
3	0xbdd4b939	-0.10386891
4	0xbd69b12b	-0.057053726
5	0xbe5e0c46	-0.2168437
6	0xbe29d884	-0.165865
7	0xbe3d4215	-0.1848224
8	0xbc623d4f	-0.013808562
9	0xbe28d9a0	-0.16489267
10	0xbe75125e	-0.23932788
11	0xbe57a814	-0.2106021
12	0xbed833b1	-0.42226937
13	0xbdb8c187	-0.090212874
14	0xbe389dcb	-0.18028943
15	0xbe866e20	-0.26255894
16	0xbe44e7e2	-0.19229081
17	0xbe23ccbc	-0.15996069
18	0xbedc48c7	-0.43024275
19	0x3b6feba6	0.0036608963
20	0xbec867fb	-0.3914183
21	0xbe98262e	-0.2971663
22	0xbe36992e	-0.17831871
23	0xbe4ff975	-0.20310004
24	0xbda56613	-0.0807611
25	0xbea04344	-0.3130132
26	0x3d15aa99	0.036539648
27	0x3e0a90c1	0.13531782
28	0x3e97b13c	0.29627407
29	0xbe0f260a	-0.13979355
30	0xbdb604e5	-0.08887652
31	0xbeca330e	-0.39492077

tcn.0.bn1.running_mean f4 [32]
0	0x3c8fe01a	0.017562915
1	0xc049ec51	-3.1550486
2	0x3ff5de58	1.9208479
3	0xbf8715e7	-1.0553559
4	0xc0e44f66	-7.134692
5	0xc091c7c9	-4.555638
6	0x40e7bbd3	7.2416778
7	0x40365b40	2.8493195
8	0xc0bfcb75	-5.993586
9	0x40351268	2.8292484
10	0x4045b0d1	3.088917
11	0x3ebf9532	0.37418514
12	0xc0800d70	-4.0016403
13	0xbf918aad	-1.1370445
14	0xc0cead6b	-6.458669
15	0x41098149	8.594064
16	0xc0e790bf	-7.236419
17	0xc01b9b80	-2.431366
18	0x40e4cd96	7.150096
19	0xc0edf204	-7.435793
20	0x3e834f90	0.2564664
21	0xbf27d9d6	-0.65566766
22	0xc0259730	-2.5873528
23	0xc0700e35	-3.7508671
24	0x40fc496a	7.8839617
25	0x4113fb64	9.248875
26	0xc0141681	-2.3138735
27	0xbf047ad1	-0.517499
28	0x3c61f74f	0.013791873
29	0xbf86d9df	-1.0535239
30	0xc0034981	-2.0513613
31	0xc0392caa	-2.893351

tcn.0.bn1.running_var f4 [32]
0	0x41ed71ef	29.680632
1	0x41a97e84	21.186775
2	0x42006348	32.096954
3	0x403017b3	2.7514465
4	0x412ae358	10.680504
5	0x40f8a06d	7.769583
6	0x41898c9a	17.193653
7	0x40908f96	4.5175276
8	0x41ceafcc	25.835838
9	0x40e9ccfc	7.3062725
10	0x4171224e	15.070875
11	0x403ed1d4	2.981557
12	0x41482adb	12.510463
13	0x40c866fa	6.2625704
14	0x41769797	15.412009
15	0x415bd647	13.739814
16	0x414c213f	12.758117
17	0x40d7e171	6.7462697
18	0x411fb6ed	9.98216
19	0x41a610c3	20.758184
20	0x40b62fb8	5.693325
21	0x40a6cfac	5.2128506
22	0x40c5e34d	6.1839967
23	0x41320259	11.125573
24	0x41293814	10.576191
25	0x4188bb33	17.091406
26	0x40145c27	2.3181245
27	0x4016b4c9	2.3547843
28	0x3ecc0b17	0.3985221
29	0x421c7c1a	39.121193
30	0x40b12316	5.535533
31	0x410fe061	8.99228

tcn.0.conv2.conv.weight f4 [32, 32, 5]
0	0x3c27f66b	0.010251622
1	0x3e0cd63b	0.13753597
2	0x3cfde0b8	0.030990943
3	0x3db6f229	0.08932907
4	0x3d8c1a89	0.06840999
5	0xbe1c0e0d	-0.15239735
6	0xbe300473	-0.17189197
7	0xbe95074f	-0.2910714
8	0xbe38e307	-0.18055354
9	0xbd84a934	-0.064775854
10	0xbda6264b	-0.081127726
11	0x3ac7570a	0.0015208435
12	0x3d81b263	0.06332853
13	0x3e1f18cf	0.15536807
14	0x3d59cbc0	0.053172827
15	0x3c3d29ff	0.011545657
16	0x3d52b223	0.051439416
17	0x3c881b47	0.01661457
18	0x3dbd0175	0.092287935
19	0xbdd8f3ea	-0.10593398
20	0xbd1d34cd	-0.038380433
21	0xbd7aa19d	-0.061189283
22	0xbdbfefe2	-0.09371926
23	0xbdc9a8ec	-0.098466724
24	0xbd0a976e	-0.03383582
25	0x3cb4559d	0.02201348
26	0x3dbb8bb3	0.09157505
27	0x3d870c3a	0.06594129
28	0xbc550518	-0.013001703
29	0x3de32057	0.11090153
30	0xbd9aa782	-0.07551481
31	0xbc2c58ee	-0.010519249
32	0xbe0c4e5a	-0.13701764
33	0xbd6b2363	-0.057406794
34	0xbe1ed101	-0.15509416
35	0x3e146875	0.14492972
36	0x3dc87d24	0.09789494
37	0xbc8131ef	-0.01577088
38	0x3d82421a	0.06360264
39	0x3e06e480	0.13173103
40	0x3d7b0fba	0.061294295
41	0xbdc2f82e	-0.09519993
42	0x3c1b4d0c	0.009478819
43	0xbd9e5d5f	-0.07732653
44	0x3d29c412	0.041446753
45	0xbb8e6b4a	-0.004346286
46	0x3cb79b62	0.02241296
47	0x3bfd1b3b	0.0077241934
48	0xbcdea5e6	-0.027178716
49	0x3c7fd7e6	0.015615439
50	0xbe38f980	-0.18063927
51	0xbdc7da65	-0.09758452
52	0xbd8abd0f	-0.06774341
53	0xbe5e8a55	-0.21732457
54	0xbd9fefce	-0.07809411
55	0x3d597de8	0.05309859
56	0x3ddbf476	0.107399866
57	0xbd12fd3a	-0.035886027
58	0x3d79799f	0.060907003
59	0xbd9405d1	-0.07227672
60	0x3e233a61	0.15940239
61	0xbcbe7322	-0.023248259
62	0x3d08d086	0.03340199
63	0x3cc58315	0.024110356
64	0x3d10540b	0.0352364
65	0x3e57acd6	0.21062025
66	0xbdbfc5e9	-0.0936392
67	0xbd727652	-0.05919487
68	0x3d7f17bf	0.062278505
69	0x3c99a7ef	0.018756835
70	0xbc5a3ca7	-0.013320125
71	0xbd9e6c95	-0.07735554
72	0xbcf09b21	-0.029370846
73	0xbd2a91cc	-0.04164295
74	0xbdcfbc92	-0.10143389
75	0xbd19e5db	-0.037572723
76	0x3cbd3bd5	0.02309982
77	0x3cc35930	0.023846239
78	0xbe16908e	-0.1470358
79	0xbded8cc4	-0.115991145
80	0xbd0c3199	-0.034226988
81	0xbd4f5f80	-0.050628185
82	0x3d915a96	0.07097356
83	0xbdfb93d3	-0.122840546
84	0xbca194c7	-0.019724263
85	0x3d0b9c64	0.034084693
86	0x3d61b523	0.055104386
87	0x3dca0d7b	0.098658524
88	0x3d05e898	0.03269252
89	0xbccc8d97	-0.024969859
90	0xbd12e74e	-0.03586512
91	0xbd4b2243	-0.04959322
92	0x3c4044e3	0.011735174
93	0xbc7cd2e3	-0.015431139
94	0xbcc0f369	-0.023553567
95	0xbdb66abc	-0.08907077
96	0xbdaad228	-0.083408654
97	0x3d153a52	0.03643257
98	0xbd87addc	-0.06624958
99	0xbc2e116d	-0.010624272
100	0x3be4d443	0.0069833114
101	0x3caa1db3	0.020766115
102	0x3d38706a	0.04502908
103	0xbcbe247f	-0.023210762
104	0x3d95a5cd	0.073070146
105	0x3e38c65a	0.18044415
106	0xbd35692c	-0.044289753
107	0xbd055865	-0.032555003
108	0xbd83925a	-0.06424399
109	0xbd92c7b5	-0.07166997
110	0x3e754eab	0.2395579
111	0xbbee8598	-0.007279109
112	0x3df7c0d3	0.12097325
113	0x3dc38ea2	0.095486894
114	0xbd5a7145	-0.05333068
115	0x3e856dce	0.26060337
116	0x3dfb39a8	0.122668564
117	0xbbaeb49d	-0.0053315894
118	0xbd77f286	-0.060534023
119	0xbc51032d	-0.012757105
120	0x3d6655b6	0.056234084
121	0x3c3a48ba	0.011369878
122	0x3c4587e7	0.012056327
123	0xbe13bf0d	-0.14428349
124	0x3c86cd61	0.016455354
125	0x3c0ccc09	0.008593568
126	0x3bd21f89	0.0064124507
127	0xbcbec46c	-0.02328702
128	0xbde41ca8	-0.11138278
129	0xbdd5f252	-0.104466096
130	0xbe30b135	-0.17255099
131	0xbc990a01	-0.018681528
132	0xbe019aea	-0.12656751
133	0xbdac109f	-0.08401608
134	0x3c40c772	0.0117663015
135	0x3e6cc9a7	0.231238
136	0xbdca88ca	-0.09889372
137	0x3cafa59d	0.021441275
138	0xbc6b6e9a	-0.014369631
139	0xbe159994	-0.14609367
140	0x3c8f7ac3	0.017514592
141	0xbd341c55	-0.043972332
142	0xbce7017b	-0.028198948
143	0x3e1b4a00	0.15164948
144	0xbe091efe	-0.13390729
145	0xbdc658cf	-0.09684908
146	0xbcf3e6e8	-0.02977319
147	0xbda85fc8	-0.08221394
148	0xbddc613b	-0.10760733
149	0xbe1d12ca	-0.15339199
150	0x3d922d43	0.07137539
151	0xbcf93d86	-0.030424844
152	0xbd2d9005	-0.042373676
153	0x3d053e64	0.032530203
154	0x3db74a82	0.08949758
155	0x3d0f593c	0.03499721
156	0x3ccc951b	0.024973443
157	0x3e214a55	0.15751012
158	0xbc5adef8	-0.013358824
159	0x3de85296	0.11343877
160	0x3d6f38e9	0.058403883
161	0x3d6646a5	0.056219716
162	0xbd9126b5	-0.07087461
163	0x3ca162f4	0.019700505
164	0xbd755341	-0.05989385
165	0xbb4db1f4	-0.0031386586
166	0x3dbfb523	0.09360721
167	0xbd1e0f83	-0.038589012
168	0xbc79b2b6	-0.015240362
169	0xbc6f579e	-0.014608292
170	0xbdf1b03a	-0.11801191
171	0xbde84588	-0.11341387
172	0xbd17a3c6	-0.03702142
173	0xbdc36415	-0.095405735
174	0xbc002592	-0.007821457
175	0xbdc6a656	-0.09699695
176	0xbdf2783f	-0.11839341
177	0x3acec800	0.0015776157
178	0xbcd9c9b1	-0.026585432
179	0x3c9cb71b	0.01913028
180	0xbdfe1637	-0.12406581
181	0xbe184660	-0.14870596
182	0xbd074982	-0.033029087
183	0xbd85d2a4	-0.06534317
184	0xbc02ed64	-0.007991169
185	0xbd509483	-0.05092288
186	0x3d180393	0.037112784
187	0x3d5266d3	0.051367592
188	0x3c14fbfc	0.009093281
189	0x3d56b9a4	0.052423134
190	0xbe57a9ab	-0.21060817
191	0xbdf513c1	-0.119666584
192	0xbe4adb77	-0.19810282
193	0x3c92f54d	0.017939234
194	0xbb0bcc93	-0.0021331653
195	0x3d426840	0.0474627
196	0x3cceddd3	0.025252258
197	0xbda19081	-0.0788889
198	0xbdc45f69	-0.095885105
199	0xbcf3909e	-0.029732045
200	0xbe38398e	-0.17990705
201	0xbdd3b35d	-0.10336945
202	0xbdb881b8	-0.09009117
203	0xbd6ca5f2	-0.057775445
204	0x3cf68495	0.030092517
205	0xbe5a6a5f	-0.2132964
206	0xbd94384b	-0.072372995
207	0xbd7a6184	-0.061128154
208	0x3dcc289e	0.099686846
209	0x3d63f97c	0.05565785
210	0xbe2d23b1	-0.16908146
211	0xbdfc6abb	-0.12325045
212	0xbe0364c1	-0.12831403
213	0x3d9fb444	0.07798055
214	0xbdb466a2	-0.08808638
215	0xbb7d1155	-0.0038615067
216	0xbd186a36	-0.037210666
217	0x3cdea8a6	0.027180027
218	0xbd28205f	-0.041046496
219	0x3de13885	0.10997108
220	0xbe0522c2	-0.1300154
221	0xbc3f4896	-0.011675021
222	0x3db1736f	0.08664595
223	0x3c47c12a	0.01219205
224	0x3dc3caf8	0.095601976
225	0xbcf6cb5a	-0.030126262
226	0xbacb5b2e	-0.0015514845
227	0xbdc2b26e	-0.09506689
228	0xbd0d81af	-0.034547504
229	0x3e05cab1	0.13065602
230	0xbe49f2b4	-0.1972149
231	0xbe43ec69	-0.19133152
232	0xbd0f060c	-0.034917876
233	0xbb8e5df1	-0.004344695
234	0xbb4ef7a8	-0.003158072
235	0xbd7476a5	-0.05968346
236	0xbe44bec3	-0.19213395
237	0xbdb09824	-0.086227685
238	0xbda2b46d	-0.0794457
239	0xbdf67ce2	-0.12035538
240	0xbe098d05	-0.13432701
241	0xbe1a7de7	-0.1508709
242	0xbd2eedd3	-0.042707276
243	0xbdac9710	-0.084272504
244	0xbdb72151	-0.089419015
245	0xbd9a258d	-0.075266935
246	0xbda2965e	-0.079388365
247	0xbe2faaf4	-0.17155057
248	0xbe831057	-0.25598404
249	0x3c7f62f3	0.015587556
250	0xbe29b6c0	-0.1657362
251	0xbe0d8a6d	-0.13822336
252	0xbe52a6e0	-0.2057147
253	0xbd7bd232	-0.061479755
254	0x3dae8c9b	0.08522912
255	0xbe036717	-0.12832294

tcn.0.conv2.conv.bias f4 [32]
0	0xbd1b1dce	-0.03787022
1	0x3d982cf9	0.07430453
2	0x3bfbcb0c	0.007684117
3	0xbceedaba	-0.029157031
4	0xbd4f6e8b	-0.05064253
5	0x3d891b9c	0.06694719
6	0x3cc32bd7	0.023824615
7	0x3d9b1dcf	0.07574045
8	0x3c9909ea	0.018681485
9	0x3d24adba	0.04020474
10	0xbd099fb5	-0.033599574
11	0x3ce4b699	0.0279191
12	0xbb651486	-0.003495486
13	0xbca918dc	-0.020641737
14	0x3cfe1293	0.031014716
15	0xbd9e3758	-0.077254
16	0x3d48b518	0.04900083
17	0x3d85f56e	0.065409526
18	0x3c5ec705	0.013597255
19	0xbd0dc4c3	-0.034611475
20	0xbb9f1a96	-0.004855464
21	0x3d933d44	0.0718942
22	0xbda739e3	-0.08165338
23	0x3cfec36f	0.03109905
24	0xbd9fb62c	-0.077984184
25	0x3d7ef37e	0.06224393
26	0xbc6f158e	-0.014592541
27	0xbd158c78	-0.036510915
28	0x3d89c8cc	0.06727752
29	0xbd67641d	-0.05649196
30	0xbc596102	-0.013267757
31	0xbd2d80d0	-0.042359173

tcn.0.bn2.weight f4 [32]
0	0x3f7e4824	0.9932883
1	0x3f46f3d9	0.7771583
2	0x3f84d13f	1.0376357
3	0x3ecb8721	0.39751533
4	0x3f196543	0.5992014
5	0x3f422ae4	0.75846696
6	0x3f70d7e5	0.9407943
7	0x3f2802fc	0.65629554
8	0x3f1b6b43	0.60710543
9	0x3f3b8b62	0.73259556
10	0x3f505786	0.8138355
11	0x3f126ef3	0.57200545
12	0x3ef59abe	0.4796962
13	0x3f753671	0.95786196
14	0x3edb83ef	0.42874095
15	0x3f009f2d	0.5024288
16	0x3f59d94a	0.8509718
17	0x3f55b088	0.8347249
18	0x3f75d126	0.9602226
19	0x3f84726d	1.034742
20	0x3eda1f91	0.42602208
21	0x3f5947b5	0.8487504
22	0x3f20e93d	0.62855893
23	0x3f640d6c	0.8908298
24	0x3f19511b	0.5988938
25	0x3f39b4e6	0.72541654
26	0x3f16a92b	0.5885188
27	0x3f261a45	0.64883834
28	0x3f1d9828	0.61560297
29	0x3f64bc0d	0.8934944
30	0x3f41b2a3	0.75663203
31	0x3f36fe8b	0.7148215

tcn.0.bn2.bias f4 [32]
0	0xbe044679	-0.12917508
1	0xbe39a099	-0.1812767
2	0xbd9cd1fb	-0.07657238
3	0xbefba80a	-0.4915164
4	0xbeac2156	-0.33619183
5	0xbe56a3bd	-0.20960899
6	0xbe15792c	-0.14597005
7	0xbe3700e9	-0.17871441
8	0xbe7fa45a	-0.24965039
9	0xbe342d81	-0.17595483
10	0xbe080332	-0.13282469
11	0xbe96e38d	-0.29470482
12	0xbea6b67c	-0.325611
13	0xbe49fb9b	-0.19724886
14	0xbec9417a	-0.39307767
15	0xbec5582c	-0.38543832
16	0xbe2023da	-0.15638676
17	0xbe3df25d	-0.18549486
18	0x3b2b28fa	0.0026116953
19	0xbe0daa39	-0.13834466
20	0xbef7e909	-0.4841998
21	0xbe972793	-0.2952238
22	0xbed77bc1	-0.42086604
23	0xbcad8d01	-0.0211854
24	0xbec25065	-0.3795196
25	0xbe744732	-0.23855284
26	0xbea4d9d1	-0.3219743
27	0xbe8cf787	-0.27532598
28	0xbe80c2fe	-0.25148767
29	0x3cd1e929	0.025623875
30	0xbe1688ad	-0.14700575
31	0xbe59e53f	-0.21278857

tcn.0.bn2.running_mean f4 [32]
0	0xbebd2deb	-0.36949095
1	0xbf9e5fce	-1.2372987
2	0x3df6b7af	0.120467536
3	0x3f63420c	0.88772655
4	0x3fd2547c	1.6432033
5	0xbdd75805	-0.10514835
6	0x3dd6b604	0.104839355
7	0xbd015309	-0.03157333
8	0xbfb907ec	-1.4455543
9	0x3d58b84d	0.052910138
10	0xbfc70356	-1.5547893
11	0x3ea3946f	0.31949183
12	0xbee61532	-0.44938046
13	0x3f96432e	1.1739252
14	0xbf3e0543	-0.7422678
15	0x3dcf988c	0.10136518
16	0xbec45d90	-0.38352633
17	0x3ee1ca2b	0.44099554
18	0xbfa22b92	-1.2669547
19	0xbe8a0260	-0.26954937
20	0xbe3e90f3	-0.18609981
21	0x40090779	2.141081
22	0x3f040439	0.51568943
23	0xbfb79265	-1.4341551
24	0xbe782fac	-0.24236935
25	0xbf51586a	-0.81775534
26	0xbfb59138	-1.4184942
27	0xbfe777ad	-1.8083397
28	0xbf679d05	-0.9047397
29	0xbfd40e54	-1.6566873
30	0xbfd05ebd	-1.6278912
31	0xbd2f0e1f	-0.042738076

tcn.0.bn2.running_var f4 [32]
0	0x400de241	2.2169344
1	0x403024f2	2.752255
2	0x3fcaac43	1.583382
3	0x40334643	2.8011634
4	0x404f3846	3.2378097
5	0x4010d115	2.2627614
6	0x3fed416a	1.8535588
7	0x400e2412	2.2209516
8	0x40884ee1	4.259629
9	0x4021ee8f	2.5301855
10	0x4080dd1c	4.026991
11	0x3fd3e231	1.6553403
12	0x40441c1d	3.064216
13	0x40455983	3.0835884
14	0x4003e333	2.0607421
15	0x407f15a7	3.9856966
16	0x4002d5d6	2.0443015
17	0x4022c3c6	2.543199
18	0x3fd3e684	1.6554723
19	0x400c835c	2.1955175
20	0x4014fdf3	2.3279998
21	0x4042c09e	3.0430064
22	0x4047ca53	3.121724
23	0x405ab2ad	3.4171555
24	0x4019ec54	2.4050493
25	0x4060552e	3.505199
26	0x40af4bda	5.478009
27	0x408b5b49	4.354893
28	0x408ec76d	4.461844
29	0x4015a12b	2.337962
30	0x4011b3a3	2.2765892
31	0x406107bd	3.5160973

tcn.0.downsample.weight f4 [32, 16, 1]
0	0xbf496249	-0.78665596
1	0xbe3630b6	-0.17792019
2	0xbe1817d9	-0.14852847
3	0xbcef9395	-0.029245177
4	0xbdc56475	-0.09638301
5	0xbda2b6fa	-0.07945056
6	0xbde40fc1	-0.11135817
7	0xbd897ade	-0.06712888
8	0x3dc49e23	0.09600475
9	0xbe36c8ff	-0.17850111
10	0xbe81bacb	-0.25337824
11	0x3d1db23a	0.03850005
12	0x3e2e1bb9	0.17002763
13	0x3ef37873	0.47552833
14	0xbd27f780	-0.04100752
15	0x3d4c74c8	0.04991606
16	0xbd25fd37	-0.040524688
17	0xbe4b942c	-0.19880742
18	0xbd91d391	-0.07120431
19	0x3de1d701	0.11027337
20	0x3caecd55	0.021338144
21	0x3e5c93c1	0.21540739
22	0x3da8a6ec	0.08234963
23	0xbeef571b	-0.46746144
24	0x3e70a5de	0.23500773
25	0x3e503acd	0.2033493
26	0xbe8d5057	-0.27600357
27	0xbd0a2d79	-0.033734772
28	0x3c891b56	0.016736668
29	0x3ea60ebd	0.3243312
30	0x3db40c0f	0.087913625
31	0xbddb6113	-0.10711875
32	0xbc63e3d4	-0.013909299
33	0x3e1f38f0	0.15549064
34	0xbd76b25d	-0.060228694
35	0xbd296401	-0.041355137
36	0x3ceb7783	0.028743511
37	0xbd471ee1	-0.048613433
38	0xbe4b2501	-0.19838335
39	0xbe89e250	-0.26930475
40	0xbe80e92e	-0.25177902
41	0xbe679f36	-0.22619328
42	0xbe5376b9	-0.20650758
43	0x3d31ed0c	0.043438956
44	0xbd92ff8f	-0.0717765
45	0xbe31e298	-0.17371595
46	0xbd1cee1a	-0.03831301
47	0xbeab79b5	-0.33491293
48	0x3f903c6b	1.1268438
49	0xbde20a20	-0.110370874
50	0x3dfc41fb	0.12317272
51	0xbd6aba67	-0.057306673
52	0xbe54f6a5	-0.20797212
53	0x3e5aa1c7	0.21350776
54	0x3e2894ee	0.16463062
55	0xbdb30448	-0.08741051
56	0x3bb8cafd	0.0056394325
57	0x3df68242	0.120365635
58	0x3e23fdd7	0.16014801
59	0x3e3a9a8c	0.18223017
60	0xbd1eea32	-0.038797565
61	0x3de868dd	0.11348126
62	0x3e225a2d	0.15854712
63	0x3d01cb1e	0.03168785
64	0xbf3d0240	-0.7383156
65	0x3cc2118a	0.023690004
66	0xbd18c4c8	-0.03729704
67	0xbd8d985e	-0.06913827
68	0x3e1deb65	0.15421827
69	0x3dd0c023	0.10192897
70	0xbdb5904a	-0.088654116
71	0xbe079a0d	-0.1324236
72	0x3e6cc493	0.23121862
73	0x3e7c5190	0.24640489
74	0x3eb1c07b	0.34717163
75	0x3df92713	0.12165656
76	0x3e752b6b	0.23942344
77	0xbcec1290	-0.028817445
78	0xbdea6dcd	-0.11446724
79	0xbeb64770	-0.35601377
80	0x3f2cd278	0.6750865
81	0xbdd7007f	-0.104981415
82	0xbe5010c3	-0.20318894
83	0xbc75d2b1	-0.015003846
84	0x3e1c7ce1	0.15282013
85	0xbd3c96c5	-0.046042223
86	0x3da2b3a0	0.07944417
87	0x3d85c112	0.06530966
88	0x3e72b200	0.23700714
89	0xbd984146	-0.07434325
90	0xbba6b229	-0.0050871563
91	0xbe324e87	-0.17412768
92	0xbc931581	-0.01795459
93	0x3e208d85	0.15678985
94	0xbd5c05aa	-0.05371634
95	0xbd829c71	-0.06377495
96	0x3dba7746	0.09104781
97	0x3e22bb2c	0.15891713
98	0xbd7942fa	-0.06085489
99	0x3c9f53c0	0.019449115
100	0x3e420905	0.18948753
101	0xbea7f3f7	-0.32803318
102	0xbd0d4188	-0.034486324
103	0xbe6be525	-0.2303663
104	0x3c3cf481	0.011532904
105	0xbe06bfa7	-0.13159047
106	0x3e0432dd	0.12910028
107	0xbe76c0b6	-0.24096951
108	0xbdc2fd55	-0.095209755
109	0xbe415e57	-0.18883644
110	0xbe94815b	-0.2900494
111	0xbdc47cd7	-0.09594124
112	0x3f85752d	1.0426384
113	0xbdbba011	-0.091613896
114	0x3d9b00b1	0.07568491
115	0xbdfb91e7	-0.12283688
116	0xbde7a641	-0.11311007
117	0x3dc065f5	0.09394447
118	0xbe645d4b	-0.22301213
119	0x3e1eaa64	0.15494686
120	0x3eb8ce25	0.36094776
121	0x3d56feab	0.052488964
122	0x3cdbf178	0.02684854
123	0x3e869e70	0.26292753
124	0x3e395eb6	0.18102536
125	0xbe286acc	-0.1644699
126	0xbd40bebb	-0.047056895
127	0x3e1384c7	0.1440612
128	0x3fa80dd6	1.3129222
129	0xbdc39425	-0.09549741
130	0xbe1ebc86	-0.15501603
131	0x3c126eff	0.008937596
132	0x3e0411ac	0.12897366
133	0x3df12f87	0.11776643
134	0xbc873850	-0.016506344
135	0xbdb8477f	-0.08998012
136	0xbd223bdf	-0.03960788
137	0xbe2a7d88	-0.16649449
138	0x3e275b9e	0.16343543
139	0xbcfc9be2	-0.03083605
140	0xbe1e0db5	-0.15434916
141	0x3c925dce	0.017866995
142	0x3b9656d8	0.0045879893
143	0xbc62200a	-0.013801584
144	0xbeb1d504	-0.3473283
145	0x3dde74bc	0.10862109
146	0x3e1e96b6	0.15487179
147	0x3e29c606	0.16579446
148	0x3b0b0c97	0.002121722
149	0xbe9ae0c0	-0.30249596
150	0x3e1dc3c1	0.15406705
151	0xbcbf795a	-0.023373295
152	0xbe5f43ae	-0.21803162
153	0x3d6cd05c	0.057815894
154	0xbe8758e7	-0.26435015
155	0xbd963d33	-0.073358916
156	0xbe1f04ac	-0.15529126
157	0xbe115eef	-0.1419637
158	0xbcb304f2	-0.021852944
159	0xbc80b877	-0.01571296
160	0xbe77301c	-0.24139446
161	0xbdec8496	-0.11548726
162	0xbe796213	-0.24353819
163	0xbdb0b641	-0.08628512
164	0xbd11db88	-0.035609752
165	0xbbd20e3e	-0.006410389
166	0xbe2d97f3	-0.16952495
167	0xbe9f0b18	-0.3106315
168	0x3e06cf74	0.13165075
169	0xbdb2fb01	-0.087392814
170	0xbd01d855	-0.03170045
171	0xbddbf7a0	-0.1074059
172	0x3e198600	0.14992523
173	0xbed9f0e2	-0.42566592
174	0xbe37b94e	-0.17941782
175	0x3e83882b	0.25689825
176	0x3f2c4a26	0.6730064
177	0x3e386e72	0.18010882
178	0x3d51f7fa	0.05126188
179	0xbd959e6e	-0.07305609
180	0x3e110442	0.1416178
181	0x3e26e94a	0.1629993
182	0x3c567465	0.013089274
183	0xbe4da68e	-0.20083067
184	0x3da15ea3	0.07879379
185	0xbe721360	-0.23640203
186	0x3d1baee4	0.038008586
187	0xbe933416	-0.28750676
188	0xbbab7d57	-0.0052334475
189	0xbad48f14	-0.0016216957
190	0x3d9ea384	0.07746032
191	0x3daa931c	0.0832884
192	0x3fb0b6f7	1.3805836
193	0xbdaa4a74	-0.08314982
194	0x3e2715c5	0.16316898
195	0x3d9e6659	0.07734365
196	0x3c9ec598	0.01938133
197	0x3e11fc1e	0.14256331
198	0xbcc6918e	-0.024239328
199	0x3e2d4684	0.16921431
200	0x3d3a5c8e	0.045498423
201	0xbe57a41f	-0.21058701
202	0x3db789c9	0.08961827
203	0xbe2314cf	-0.15925907
204	0x3d45c182	0.048280247
205	0xbcbbc704	-0.022922046
206	0x3d82fef2	0.06396283
207	0xbc3d910b	-0.0115702255
208	0x3f3004ac	0.6875713
209	0xbe5e2d63	-0.21697001
210	0x3e597698	0.21236646
211	0xbe563395	-0.20918114
212	0xbcbc19fc	-0.022961609
213	0xbcd61ce9	-0.026136832
214	0xbe85ff88	-0.26171517
215	0x3d1005c4	0.03516175
216	0x3ea347fd	0.3189086
217	0xbdf5ab15	-0.11995522
218	0x3ea376dc	0.3192662
219	0x3e1865b8	0.14882553
220	0x3d9939a2	0.07481696
221	0x3e727aaa	0.23679605
222	0x3cdff848	0.02734007
223	0xbc4a4cbd	-0.012347397
224	0xbfa92ce9	-1.321683
225	0xbde32b2b	-0.11092218
226	0x3be21734	0.0068997387
227	0x3d82bd14	0.0638372
228	0x3b16b136	0.002299381
229	0x3dc0f89c	0.094224185
230	0x3dd42e97	0.10360449
231	0xbda77a37	-0.081776075
232	0xbd580090	-0.05273491
233	0xbd9d988c	-0.07695112
234	0xbce521b5	-0.027970174
235	0x3d53a4bd	0.05167078
236	0xbe14aa5f	-0.14518116
237	0x3dcbe563	0.099558614
238	0x3d756f2a	0.059920467
239	0xbe219778	-0.15780437
240	0xbfab875b	-1.3400682
241	0xbde24fe4	-0.11050394
242	0x3e1548a8	0.14578497
243	0xbc07bcd2	-0.008284764
244	0xbe0f0136	-0.13965306
245	0x3d303276	0.043016873
246	0x3e5f3096	0.21795878
247	0x3c796655	0.015222152
248	0x3dad0e41	0.08449984
249	0xbc993537	-0.018702133
250	0x3cabdb35	0.02097855
251	0xbb9b2191	-0.004734226
252	0x3df4443c	0.11927077
253	0x3e3498fc	0.17636484
254	0x3d1eab39	0.03873751
255	0x3da36b5c	0.079794616

tcn.0.downsample.bias f4 [32]
0	0xbc9c3aa7	-0.019070936
1	0xbeb0f8bd	-0.34564772
2	0xbe57ba01	-0.21067049
3	0xbdae4835	-0.08509866
4	0x3df755e3	0.120769285
5	0xbd071cfb	-0.032986622
6	0x3c3b521f	0.011433153
7	0x3e26f517	0.16304432
8	0x3e51f81d	0.20504804
9	0xbee50195	-0.4472777
10	0x3dc69554	0.09696451
11	0xbe39463a	-0.18093196
12	0x3db37697	0.087628536
13	0xbe03af6e	-0.1285989
14	0x3e48efe2	0.19622758
15	0x3b95ca85	0.0045712614
16	0xbe12a056	-0.14318976
17	0x3db39d7d	0.08770273
18	0x3e3a6f50	0.18206525
19	0x3e0c2a0b	0.13687913
20	0xbe7f4970	-0.24930358
21	0xbe1afbb3	-0.15135078
22	0x3ea81708	0.3283007
23	0xbdee1070	-0.11624229
24	0xbd7af6bc	-0.06127046
25	0x3dd12d62	0.10213734
26	0x3e163f4f	0.14672588
27	0x3e79d32a	0.24396959
28	0xbe948aea	-0.29012233
29	0x3e997965	0.2997543
30	0x3e7bf163	0.246038
31	0x3dd13ba1	0.102164514

tcn.1.conv1.conv.weight f4 [64, 32, 5]
0	0x3dadb4fc	0.08481786
1	0x3dec67f3	0.11543264
2	0x3dc9b823	0.098495744
3	0xbcaf271c	-0.021380953
4	0x3ca77eed	0.020446265
5	0x3dd2c360	0.10291171
6	0x3df45d1d	0.119318224
7	0x3d5494d5	0.05189975
8	0xbd849bf9	-0.06475062
9	0x3de5a6ed	0.11213479
10	0xbc017734	-0.007901955
11	0xbd621299	-0.055193517
12	0x3d7b6095	0.061371405
13	0xbd75d9bd	-0.060022105
14	0x3c1d3281	0.009594561
15	0xbe511431	-0.20417859
16	0x3b333f99	0.002735114
17	0x3cb4872e	0.022037115
18	0x3d77ab76	0.060466252
19	0x3daea247	0.08527046
20	0xbb9e80fe	-0.0048371544
21	0xbc849073	-0.01618216
22	0x3a0a71d8	0.0005281246
23	0x3d8b01fe	0.06787489
24	0xbd43afc8	-0.04777506
25	0xbd83e021	-0.064392336
26	0x3db38d1c	0.08767149
27	0xbd0daa05	-0.03458597
28	0xbdf679ff	-0.12034988
29	0xbdd77931	-0.10521162
30	0xbd016134	-0.03158684
31	0x3d63d130	0.05561942
32	0x3b80c25c	0.0039294194
33	0x3d60086e	0.05469554
34	0xbcee3081	-0.029075863
35	0x3dbbad6a	0.091639355
36	0x3e464400	0.19361877
37	0x3dd5700a	0.104217604
38	0xba932dcc	-0.0011228858
39	0x3caf2d35	0.021383861
40	0xbdee7f57	-0.11645382
41	0x3e23e6cb	0.1600601
42	0xbd24db57	-0.04024824
43	0xbd1f05dc	-0.038823947
44	0xbd933edd	-0.071897246
45	0x3d403836	0.046928607
46	0x3d40e714	0.047095373
47	0xbd13e02c	-0.03610246
48	0xbc3e2c2f	-0.011607214
49	0xbca60c1e	-0.02026945
50	0xbbe5b46d	-0.007010034
51	0x3de76cac	0.113000244
52	0x3dfad863	0.12248304
53	0x3ccbc8e8	0.024876073
54	0x3d9d702c	0.07687411
55	0xbdc238a1	-0.09483457
56	0xbe088502	-0.13331988
57	0x3cd89891	0.026439937
58	0xbd086c75	-0.033306558
59	0x3cfdb316	0.030969184
60	0xbdc21813	-0.09477248
61	0xbd7c63b7	-0.061618533
62	0x3d213686	0.03935864
63	0xbcb49d54	-0.022047676
64	0xbd189112	-0.037247725
65	0xbd6dc39d	-0.05804788
66	0xbd97aecd	-0.074063875
67	0x3cb671f8	0.022271141
68	0x3d977db8	0.07397026
69	0xbc9b4a58	-0.018956348
70	0xbce242c5	-0.027619729
71	0xbdb55087	-0.0885325
72	0x3d81048c	0.062996954
73	0xbd51f834	-0.051262096
74	0x3cb5e7dd	0.022205288
75	0xbdbd12bb	-0.09232088
76	0x3d62ab93	0.055339407
77	0x3e30e50f	0.17274879
78	0x3df0b88e	0.11753951
79	0xbd7b0ef2	-0.06129355
80	0x3cad9ad3	0.02119199
81	0x3db7aa18	0.0896799
82	0x3d053582	0.032521732
83	0x3d010ad0	0.031504452
84	0x3d4efa9e	0.050531976
85	0xbdced466	-0.100991055
86	0xbd5a42c1	-0.053286318
87	0x3c8ef0c2	0.017448787
88	0xbd7d77c0	-0.06188178
89	0x3b2ec4bc	0.0026667556
90	0xbd763220	-0.060106397
91	0x3ce400db	0.02783244
92	0x3d154bfb	0.036449414
93	0x3c33c169	0.010971406
94	0x3e15dee1	0.14635803
95	0x3e04610c	0.12927645
96	0x3d5e0e9a	0.054213144
97	0xbbaf97cb	-0.0053586713
98	0xbd5f2422	-0.05447782
99	0xbdd4e44e	-0.10395108
100	0xbe733394	-0.23750144
101	0xbd292ed7	-0.041304436
102	0xbd840651	-0.06446517
103	0x3beec3eb	0.007286539
104	0x3d491eb2	0.04910154
105	0x3e0de25a	0.13855878
106	0x3e3a8d97	0.18218075
107	0x3df8018b	0.12109669
108	0x3d743d9b	0.059629064
109	0x3e22ee77	0.1591128
110	0xbc3ba15e	-0.011452047
111	0xbda0ecf9	-0.07857699
112	0x3ddaf35d	0.10690949
113	0xbd318d58	-0.043347687
114	0xbe01d7a6	-0.1267992
115	0x3d70c357	0.05878004
116	0xbc1e5f6d	-0.009666306
117	0x3d3f3134	0.046677783
118	0x3db0e434	0.08637276
119	0x3e1fc8c0	0.15603924
120	0x3c8efc3d	0.017454261
121	0xbd0743f3	-0.033023786
122	0x3de836f0	0.113386035
123	0x3dc668ea	0.096879795
124	0xbda82d6b	-0.08211788
125	0x3dd1e442	0.10248615
126	0x3e3ca148	0.18420899
127	0xbddee5d4	-0.1088368
128	0xbe27b061	-0.16375877
129	0xbc73ac04	-0.014872555
130	0x3c7b31e2	0.015331717
131	0x3e40476d	0.18777247
132	0x3e1ec262	0.15503839
133	0x3db22c62	0.086998716
134	0x3d42c2b2	0.047548957
135	0x3e0dd274	0.13849813
136	0x3d7dfbe8	0.062007815
137	0x3e082ceb	0.13298385
138	0x3ce0bfaf	0.027435152
139	0xbc6e7371	-0.014553891
140	0xbd379d12	-0.04482753
141	0x3dafc6db	0.085828505
142	0x3da96642	0.08271457
143	0x3da46bb2	0.08028354
144	0xbe11509c	-0.14190906
145	0x3c64f0db	0.01397344
146	0xbd42e393	-0.047580313
147	0x3de310e4	0.11087206
148	0x3d622c59	0.055218074
149	0x3d5e57a2	0.054282792
150	0x3ba9ee58	0.0051858835
151	0x3d9c7845	0.07640127
152	0xbd1d164a	-0.038351335
153	0x3cd270a1	0.025688471
154	0x3bd67d9b	0.006545735
155	0xbd10ce86	-0.035353206
156	0x3d6b151e	0.057393186
157	0x3b8a7fc4	0.0042266566
158	0x3d3c9479	0.046040032
159	0x3d1f2856	0.038856827
160	0x3d3289f9	0.043588612
161	0x3de3f986	0.11131577
162	0xbc9039df	-0.01760572
163	0xbc00c489	-0.007859358
164	0xbdd3ed3b	-0.103479825
165	0x3e27cb92	0.1638625
166	0x3e1e6457	0.15467964
167	0x3d95c0ab	0.07312139
168	0x3e0283ad	0.12745543
169	0x3ca94440	0.020662427
170	0x3e40f6e3	0.1884418
171	0x3d897c2b	0.06713136
172	0xbd4bffb5	-0.049804408
173	0xbdea4a29	-0.11439926
174	0xbe3c4284	-0.18384749
175	0x3dde3daa	0.10851605
176	0xbc11ab57	-0.008890948
177	0x3d72f047	0.059311178
178	0xbcf481d3	-0.029847061
179	0x3d9fb419	0.07798023
180	0x3e38bfa9	0.18041863
181	0x3d8bda26	0.06828718
182	0xbb864ebe	-0.0040987423
183	0x3d1cbc98	0.038265795
184	0x3c15da26	0.009146249
185	0x3dbbc247	0.09167915
186	0x3b80aef7	0.0039271074
187	0xbc0eee51	-0.008723811
188	0xbd964b3d	-0.07338569
189	0xbc536634	-0.012902785
190	0x3e050899	0.12991561
191	0x3d22fccf	0.03979188
192	0x3dc1026e	0.094242916
193	0x3d1ae931	0.037820045
194	0x3bad2999	0.0052845
195	0x3e88ae50	0.2669549
196	0xb89b40d4	-7.403051e-05
197	0xbe1a21ba	-0.15051928
198	0xbd8d01a0	-0.068850756
199	0xbda01c0d	-0.0781785
200	0x3eaec097	0.3413131
201	0x3e292a16	0.16519961
202	0x3d61d09f	0.055130597
203	0x3d600c15	0.054699022
204	0x3e169c28	0.14708006
205	0x3c1d453e	0.009599028
206	0xbd44731c	-0.04796134
207	0xbd062bc6	-0.03275659
208	0xbe1d006b	-0.1533219
209	0xbdab2464	-0.0835655
210	0x3e22ed0a	0.15910736
211	0x3e14962b	0.1451041
212	0x3b3f5502	0.0029194956
213	0x3e082772	0.13296297
214	0x3e4f1643	0.20223336
215	0x3d4c311b	0.049851518
216	0x3c97126e	0.018441405
217	0x3d2bda52	0.041956253
218	0x3d86f2c6	0.06589274
219	0xbde49b94	-0.11162487
220	0x3e120b10	0.14262033
221	0x3d9671fa	0.07345958
222	0xbd680063	-0.056640994
223	0xbe010e63	-0.12603144
224	0xbd5ff651	-0.054678265
225	0x3e2d8321	0.16944553
226	0x3978bccd	0.00023721457
227	0x3df319a1	0.11870123
228	0x3db1d24f	0.08682691
229	0x3d03cad3	0.03217585
230	0xbdb85a9e	-0.09001659
231	0xbd66edd1	-0.056379143
232	0x3d93780f	0.07200634
233	0x3da980eb	0.08276542
234	0xbd281dee	-0.04104417
235	0xbe1af94c	-0.15134162
236	0xbd947a39	-0.072498746
237	0xbdf18b86	-0.1179419
238	0xbe2232a0	-0.15839624
239	0xbddf8dde	-0.10915731
240	0x3d832eb8	0.06405395
241	0x3dbe8204	0.09302142
242	0xbd7286ee	-0.05921071
243	0xbe3515d0	-0.17684102
244	0xbd7df18d	-0.06199794
245	0xbc83df07	-0.016097559
246	0xbc50fc12	-0.012755411
247	0xbd1a181b	-0.037620645
248	0xbe2bd599	-0.167807
249	0x3c4548ba	0.012041265
250	0xbd402fbd	-0.046920527
251	0xbcb5bcca	-0.022184748
252	0x3d671865	0.05641975
253	0x3e13da19	0.14438666
254	0xbcf42d3f	-0.029806731
255	0x3c9e2eb5	0.019309381

tcn.1.conv1.conv.bias f4 [64]
0	0x3d9b11c9	0.075717516
1	0xbcc55575	-0.0240886
2	0xbd94d635	-0.07267419
3	0x3cf0a753	0.029376661
4	0xbd722a9c	-0.059122667
5	0xbd8739e5	-0.066028394
6	0x3d376f6a	0.044783987
7	0x3d8e7a25	0.06956891
8	0x3da0732b	0.078344665
9	0xbd8d4d4a	-0.06899507
10	0x3d126b87	0.035747077
11	0xbd69dcd5	-0.057095367
12	0x3d94c1ec	0.0726355
13	0xbc8ef2c0	-0.017449737
14	0x3d6d59d9	0.057947014
15	0xbc8dc213	-0.017304456
16	0x3c6675c0	0.01406616
17	0x3d7e8b7d	0.062144745
18	0x3b63fe6a	0.0034789094
19	0xbd6c9193	-0.057756018
20	0xbd744613	-0.05963714
21	0xbd60f5a2	-0.054921754
22	0xbd89dac6	-0.06731181
23	0xb9d16d92	-0.00039945223
24	0xbd877a73	-0.06615152
25	0xbcf532aa	-0.029931385
26	0xbb195940	-0.0023399144
27	0xbcaa66cf	-0.020800976
28	0xbd65d5d5	-0.05611213
29	0xbd7b03ae	-0.061282806
30	0x3d261ade	0.040552966
31	0x3d9152e1	0.07095886
32	0xbd5e3e84	-0.05425884
33	0xbd8fa010	-0.070129514
34	0xb96e0b85	-0.0002270174
35	0x3c3167b1	0.010827945
36	0xbd184b31	-0.037181083
37	0xbce8133c	-0.028329484
38	0x3d637c4c	0.05553846
39	0xbd004b03	-0.031321537
40	0x3d0bd3c4	0.034137502
41	0xbd0c96ba	-0.03432343
42	0xbc5058a9	-0.012716451
43	0xbbbc1d9a	-0.0057408335
44	0xbc37209a	-0.011177206
45	0xbd0095f6	-0.031393014
46	0xbcf20185	-0.02954174
47	0xbd2b5549	-0.04182938
48	0xbbcbb213	-0.0062162965
49	0xbcfbe98a	-0.030751009
50	0xbc9d68f2	-0.01921508
51	0xbd99a08f	-0.07501327
52	0x3c9b83f2	0.018983815
53	0xbd86198c	-0.065478414
54	0xbc430124	-0.011902127
55	0x3d172e81	0.036909584
56	0xbce4d581	-0.027933838
57	0xbd74cf37	-0.059767928
58	0xbcea7043	-0.028617984
59	0xbd841312	-0.0644895
60	0x3d84796b	0.06468471
61	0xbd2cdaa9	-0.042200718
62	0xbd69be2c	-0.057066128
63	0xbd4640e4	-0.04840173

tcn.1.bn1.weight f4 [64]
0	0x3f6adbba	0.91741526
1	0x3f3f914d	0.74831086
2	0x3f6a76ba	0.9158741
3	0x3f73fcf4	0.9530785
4	0x3f80746d	1.003553
5	0x3f842ac8	1.0325556
6	0x3f5a5d04	0.8529818
7	0x3f60618e	0.87648857
8	0x3f672db1	0.90304095
9	0x3f8c788b	1.0974287
10	0x3f8f41a6	1.1191909
11	0x3f94b801	1.1618654
12	0x3f8f03e1	1.1173059
13	0x3f91597c	1.1355433
14	0x3f7bac83	0.98310107
15	0x3f8df242	1.1089556
16	0x3f820455	1.0157572
17	0x3f9bafee	1.2163064
18	0x3f5d9c1a	0.8656632
19	0x3f917ca5	1.1366163
20	0x3f83a836	1.0285709
21	0x3f6d2d13	0.926469
22	0x3fa0f0e7	1.2573518
23	0x3f8fa6d9	1.1222793
24	0x3f65f118	0.89821005
25	0x3f6172bc	0.88065696
26	0x3f8e579b	1.1120485
27	0x3f6d66d6	0.9273504
28	0x3f7321f0	0.9497366
29	0x3f918b8b	1.137071
30	0x3f8b95c7	1.0905083
31	0x3f52902f	0.82251257
32	0x3f6b19db	0.9183633
33	0x3f84d08f	1.0376147
34	0x3f545962	0.8294889
35	0x3f8126a9	1.0089923
36	0x3f49c6e2	0.78819096
37	0x3f90752b	1.1285757
38	0x3f8e6381	1.1124116
39	0x3f813416	1.009402
40	0x3f9c386f	1.2204722
41	0x3f81828a	1.0117962
42	0x3f7f3a7b	0.9969861
43	0x3f6d9bfd	0.92816144
44	0x3f7dbc0e	0.99115074
45	0x3f5a074d	0.8516739
46	0x3f7c498b	0.9854972
47	0x3f9ddd71	1.2333204
48	0x3f8a19ed	1.0789162
49	0x3f5755fb	0.8411557
50	0x3f62a5b1	0.88534075
51	0x3f7fa024	0.9985373
52	0x3f63abde	0.88934124
53	0x3f8aee2a	1.0853932
54	0x3f4ff43c	0.8123205
55	0x3f87c95f	1.0608329
56	0x3f703f51	0.93846613
57	0x3f4a8e64	0.7912352
58	0x3f87280f	1.05591
59	0x3f858e60	1.0434074
60	0x3f8f4555	1.1193033
61	0x3f86a36e	1.0518625
62	0x3f9c2adc	1.220058
63	0x3f85cf95	1.0453974

tcn.1.bn1.bias f4 [64]
0	0xbd2a8541	-0.041630987
1	0xbe668a0c	-0.22513598
2	0xbd7e85cb	-0.062139314
3	0x3c2c21ab	0.010506074
4	0x3c8ca34a	0.017167706
5	0xbda5c5f4	-0.08094397
6	0xbd87451a	-0.06604977
7	0xbe3ab980	-0.18234825
8	0xbde24b43	-0.11049511
9	0xbd85a310	-0.06525242
10	0x3ba8c00f	0.0051498483
11	0xbd8a21f6	-0.06744759
12	0xbd850e8d	-0.06496916
13	0xbd1de56b	-0.03854887
14	0xbcc8f523	-0.024530953
15	0x3d7c9fa8	0.061675698
16	0xbd1ad0a6	-0.03779664
17	0xbe0cabdc	-0.13737434
18	0xbe12c8f0	-0.14334464
19	0x3d50dbd9	0.050990913
20	0xbd55fb1c	-0.05224143
21	0xbe3c7e4f	-0.18407558
22	0xbde8b5e9	-0.113628216
23	0xbddfe9f9	-0.109332986
24	0xbdeca994	-0.11555782
25	0xbe3fe7d9	-0.18740787
26	0xbcb17107	-0.021660341
27	0xbe86a604	-0.26298535
28	0xbdc7a732	-0.09748687
29	0xbb0cc1c0	-0.0021477789
30	0xbd80691f	-0.0627005
31	0xbe32f718	-0.17477071
32	0xbc274e2b	-0.010211508
33	0xbcb01a85	-0.02149702
34	0xbe191e3d	-0.14952941
35	0xbe227d89	-0.158682
36	0xbdfb7f9d	-0.122802
37	0x3d152032	0.036407657
38	0x3d4100a5	0.047119755
39	0xbd96bbe8	-0.07360059
40	0xbd7bd63a	-0.0614836
41	0xbde7735c	-0.113013
42	0xbde46e07	-0.111537986
43	0xbe70b97c	-0.23508257
44	0xbc64e7b8	-0.013971262
45	0xbe460821	-0.19339038
46	0xbdfbc55d	-0.122935034
47	0xbca22546	-0.019793164
48	0x3cd09f7e	0.025466677
49	0xbe25afd3	-0.16180353
50	0xbb485a8f	-0.0030571555
51	0xbddec1f1	-0.10876835
52	0xbe0302b4	-0.12794
53	0xbcb14f09	-0.021644132
54	0xbdc9ec4e	-0.09859525
55	0xbe101a93	-0.14072637
56	0xbe67d113	-0.22638349
57	0xbe1c047e	-0.15236089
58	0xbe8bcf9c	-0.2730683
59	0xbdd239f7	-0.10264962
60	0xbe35d4b6	-0.17756924
61	0x3c19cfc5	0.009387915
62	0xbb178744	-0.0023121396
63	0x3db8ef8b	0.09030064

tcn.1.bn1.running_mean f4 [64]
0	0x3e9f71b4	0.31141436
1	0xbdff3bd8	-0.12462586
2	0x3f85e975	1.046187
3	0x403d0c20	2.953865
4	0x3e1c0e79	0.15239896
5	0x3aecb1b8	0.0018058335
6	0xc02342c5	-2.5509503
7	0xbf96513a	-1.1743538
8	0x3fbefeea	1.4921544
9	0xbdaafde7	-0.08349209
10	0xc0028ace	-2.039722
11	0xbfe238ba	-1.7673562
12	0xbf66f6af	-0.9022016
13	0xbf4b9c97	-0.7953581
14	0xbfb6e5e7	-1.4288911
15	0xbdf2e4ea	-0.11860068
16	0xbf8a1ceb	-1.0790075
17	0xbf365bfa	-0.71234095
18	0xbfbe062a	-1.4845631
19	0x3f371076	0.7150949
20	0x3e9d2082	0.30688864
21	0xbfaabb56	-1.333842
22	0xbf906d63	-1.1283382
23	0xbe87b2bc	-0.2650355
24	0x3fa161f8	1.2608023
25	0x3de0a241	0.109684475
26	0x3fb11b18	1.3836393
27	0xbef25563	-0.4733077
28	0x40030ab8	2.0475292
29	0xbf871752	-1.0553992
30	0xbf89b0a7	-1.0757035
31	0x3f92430b	1.142671
32	0xbf9395bd	-1.1530071
33	0xbfb2e3c9	-1.3975765
34	0xbff3e65e	-1.9054677
35	0xbf801ef4	-1.0009446
36	0xc01b8e64	-2.4305658
37	0xbf9eadaf	-1.2396754
38	0xbf577eb5	-0.84177715
39	0x3e60ed40	0.21965504
40	0xbf510376	-0.81645906
41	0x3f2a6424	0.6655905
42	0x400236f2	2.0346036
43	0x4044e18c	3.0762663
44	0x3c6595d4	0.014012773
45	0x3f443e2d	0.7665737
46	0xbeb82149	-0.35962895
47	0xc00d1e40	-2.2049713
48	0xbfb5e6ea	-1.4211094
49	0xbfa5db75	-1.2957598
50	0x3f612bc9	0.87957436
51	0xbcec6730	-0.028857797
52	0x400a700e	2.1630893
53	0xbeda4866	-0.4263336
54	0x3ff133ff	1.8843993
55	0xbec761fa	-0.38941938
56	0xbf612a5d	-0.87955266
57	0x3f7374f2	0.9510032
58	0x4012e484	2.2951975
59	0xbf001316	-0.5002912
60	0xbf476962	-0.77895176
61	0xbeb3eaf6	-0.35140198
62	0xbf1ab18b	-0.6042716
63	0xbf515dd4	-0.81783795

tcn.1.bn1.running_var f4 [64]
0	0x3f81dfa2	1.0146372
1	0x3fc484a6	1.5352981
2	0x3f0bf01e	0.54663265
3	0x4003f312	2.0617108
4	0x400946ea	2.1449533
5	0x3eeee5a8	0.4665959
6	0x3fd8fca2	1.6952097
7	0x3fa124ba	1.2589333
8	0x3fa1cbb4	1.264029
9	0x3f8369ed	1.0266701
10	0x40346d6b	2.8191783
11	0x3fce6784	1.612534
12	0x3f93eed3	1.1557258
13	0x3fb6b1bf	1.4272994
14	0x3fe69256	1.8013408
15	0x3f54524b	0.8293807
16	0x3f86a446	1.0518882
17	0x3fced39d	1.6158329
18	0x3f8c4b5b	1.0960497
19	0x3f15ec65	0.58563834
20	0x3fb6e0e1	1.4287378
21	0x3fd8ddb6	1.6942661
22	0x3fba26b8	1.4543066
23	0x3f93b4cc	1.153955
24	0x3f2fcf37	0.6867556
25	0x3fb5c30c	1.4200149
26	0x3fc5509c	1.5415225
27	0x3f246552	0.642171
28	0x3f2a4573	0.6651222
29	0x3fc5aadb	1.5442766
30	0x40165039	2.3486464
31	0x3f9fcb4a	1.2483914
32	0x3fdda309	1.7315379
33	0x402644ea	2.5979562
34	0x404c9f1d	3.1972115
35	0x3f2c5971	0.67323977
36	0x400449fe	2.0670161
37	0x3f7e8a9b	0.99430245
38	0x3f83bfcc	1.0292907
39	0x3f7e109a	0.9924408
40	0x3ff50903	1.9143375
41	0x3f77861a	0.96689
42	0x3fac0bff	1.3441161
43	0x3ff2929b	1.895099
44	0x3ffb3942	1.9626849
45	0x3facc7e1	1.3498498
46	0x40162a82	2.3463445
47	0x402ac85e	2.6684794
48	0x3fb239bd	1.392387
49	0x3fb33c26	1.4002731
50	0x3f735483	0.9505083
51	0x3f266148	0.6499219
52	0x400005b0	2.0003471
53	0x3ff80560	1.937664
54	0x40035763	2.0522087
55	0x3fca96e0	1.5827293
56	0x3f6cd24a	0.92508376
57	0x3fe565bf	1.7921675
58	0x3ffd7152	1.9800208
59	0x3fa10e62	1.2582514
60	0x3fd7717e	1.683151
61	0x3f82c08d	1.0215012
62	0x3f18bfa0	0.59667397
63	0x3fc9c8e9	1.5764438
