models/checkpoints/tcn_deep.pt (torch, 456837 bytes, 43 tensors)

tcn.0.conv1.conv.weight f4 [32, 16, 3]
0	0xbe6db35c	-0.23212951
1	0xbf0c9b9b	-0.54924935
2	0xbe916f07	-0.2840502
3	0x3e121473	0.14265613
4	0xbd9b901e	-0.075958475
5	0xbdd09cf1	-0.10186184
6	0x3d2504b6	0.040287696
7	0xbdcecae9	-0.10097296
8	0x3c81727c	0.01580166
9	0x3d996f5c	0.07491943
10	0xbde9010f	-0.11377155
11	0xbd832c9f	-0.06404995
12	0xbe3bdb5c	-0.18345398
13	0xbdd895a0	-0.10575414
14	0xbe22f34e	-0.15913126
15	0xbd562b8f	-0.052287634
16	0xbe8c148b	-0.27359423
17	0xbe352f34	-0.17693788
18	0xbdd4a8c1	-0.1038375
19	0xbdf92bba	-0.12166543
20	0xbe5c18fa	-0.21493903
21	0xbdb55828	-0.08854705
22	0xbd892e64	-0.066983014
23	0xbdefa79b	-0.1170189
24	0x3e32b2f8	0.17451084
25	0xbbbd9d1e	-0.005786552
26	0xbe023fbc	-0.12719625
27	0x3e1c067e	0.15236852
28	0x3e3d96e5	0.18514593
29	0x3d9bd0ae	0.07608162
30	0xbdc1d21e	-0.09463905
31	0x3d0cec7f	0.034405228
32	0xbdc1f871	-0.094712146
33	0x3dd6afce	0.10482751
34	0xbb14d401	-0.0022709372
35	0x3d8d7b9a	0.06908341
36	0x3dcb670e	0.099317655
37	0x3d198b2c	0.03748624
38	0x3cda3333	0.026635742
39	0xbe126922	-0.14297917
40	0xbe17e6db	-0.14834158
41	0x3c64f630	0.013974711
42	0xbe2d004b	-0.16894643
43	0xbd5538e9	-0.052056227
44	0xbc0c9849	-0.0085812295
45	0x3e8316b5	0.25603262
46	0x3dc7e230	0.09759939
47	0x3e922c86	0.28549594
48	0xbd3e902b	-0.046524208
49	0xbe9e37f1	-0.30902055
50	0x3f146e9c	0.57981277
51	0x3c57cd7b	0.013171549
52	0x3e6c0e13	0.23052244
53	0x3e21d54b	0.15804021
54	0xbce6b8c6	-0.028164279
55	0xbd2135c0	-0.0393579
56	0x3dab6005	0.08367924
57	0xbd9901bf	-0.07471036
58	0x3c316398	0.010826968
59	0x3e25168f	0.16121887
60	0xbcb4b7f1	-0.022060366
61	0x3b0a4e00	0.002110362
62	0x3df37eaa	0.11889394
63	0x3d5fd3bf	0.054645296
64	0x3e51641e	0.20448348
65	0x3eca0439	0.39456347
66	0x3cac27c7	0.021015061
67	0x3d6c14c1	0.05763698
68	0x3e851485	0.25992218
69	0xbd18d6e7	-0.03731432
70	0xbe3aec2a	-0.18254152
71	0xbe0121f5	-0.1261061
72	0xbbd35197	-0.0064489353
73	0x3de8ff06	0.11376767
74	0xbd6787e1	-0.05652607
75	0x3e9191b1	0.28431466
76	0x3dd17107	0.102266364
77	0x3e924908	0.28571343
78	0xbd38e5ec	-0.045141146
79	0x3dc7798b	0.09739979
80	0xbd38c775	-0.045112092
81	0x3e073b53	0.13206224
82	0x3cba2371	0.022721978
83	0x3e71721f	0.2357869
84	0xbd9b2c08	-0.07576758
85	0xbe147c02	-0.1450043
86	0x3cde7202	0.027153973
87	0x3aa3098e	0.0012438761
88	0x3e06840e	0.13136312
89	0x3dbc00b1	0.091798194
90	0x3ec41ace	0.383017
91	0x3e4dec09	0.20109572
92	0x3e225943	0.15854363
93	0xbe4d7bdf	-0.20066784
94	0xbe285680	-0.16439247
95	0xbc1fee14	-0.009761352
96	0xbe05b9ae	-0.13059112
97	0xbe61cccb	-0.22050779
98	0x3e803470	0.25040007
99	0x3d9861e1	0.07440544
100	0x3daa1de2	0.08306481
101	0x3dbd7757	0.09251278
102	0xbd58b861	-0.052910212
103	0xbd278c8b	-0.040905517
104	0xbe3424e3	-0.17592196
105	0x3e1fabca	0.15592876
106	0x3dad9040	0.08474779
107	0xbe0ff691	-0.14058901
108	0x3c394686	0.011308318
109	0xbe5e3907	-0.21701442
110	0xbe3bb986	-0.1833249
111	0xbe60f065	-0.21966703
112	0xbdaf216c	-0.085512966
113	0xba2b89b6	-0.0006543653
114	0x3db6fd1a	0.08934994
115	0xbe9b78c6	-0.3036558
116	0xbd869eb2	-0.065732375
117	0x3e178114	0.14795333
118	0xbdcabde7	-0.09899502
119	0xbe7760e3	-0.24158053
120	0xbdcbf8d3	-0.09959569
121	0xbdb2ca47	-0.087299876
122	0xbcda1468	-0.026621059
123	0xbd952121	-0.072817095
124	0xbdbd72c4	-0.092504054
125	0xbdf4a1d3	-0.11944928
126	0x3d914779	0.070937105
127	0x3c3a4e15	0.011371155
128	0xbdfe9f10	-0.124326825
129	0x3de4c0e2	0.11169602
130	0xbd2f779b	-0.042838674
131	0xbdaacba5	-0.08339623
132	0xbc655613	-0.0139975725
133	0xbd806529	-0.06269295
134	0xbc9ab887	-0.018886818
135	0x3e3eef60	0.18646002
136	0x3e4e1656	0.20125708
137	0x3dae586d	0.0851296
138	0xbe0f806b	-0.14013831
139	0xbbc85dc2	-0.0061146924
140	0xbcf68a7c	-0.030095331
141	0x3e5d4ea9	0.21612038
142	0x3cb39f3e	0.021926519
143	0x3d95516b	0.0729092
144	0xbe588cc1	-0.21147443
145	0xbebab412	-0.36465508
146	0x3f332a6e	0.6998662
147	0xbdae2b3c	-0.0850434
148	0x3dd6c44b	0.10486659
149	0xbd9f39c3	-0.07774689
150	0xbe0026df	-0.12514828
151	0x3d875de1	0.06609703
152	0x3e001925	0.12509592
153	0xbc8ec60d	-0.017428422
154	0xbd5a4076	-0.05328413
155	0x3d8f7e80	0.0700655
156	0xbd85d087	-0.06533914
157	0xbdd4f1d6	-0.10397689
158	0xbde7b8b2	-0.11314525
159	0xbe34e9d6	-0.17667326
160	0xbe83eba3	-0.25765714
161	0xbdf971ef	-0.12179934
162	0xbeb808a1	-0.35944083
163	0xbdfcb672	-0.12339486
164	0x3dfe73d6	0.12424438
165	0xbd97ba47	-0.074085765
166	0xbdbd64e0	-0.09247756
167	0x3dac61f7	0.08417123
168	0x3dcfd78f	0.101485364
169	0x3d9a570d	0.07536135
170	0xbe2c4987	-0.16824923
171	0xbe1bd913	-0.15219526
172	0x3c082737	0.008310131
173	0x3d78d287	0.06074765
174	0xbd18070a	-0.037116088
175	0xbe46aa3c	-0.19400877
176	0xbdc1e41f	-0.09467339
177	0xbdcdfea0	-0.100583315
178	0xbdafe92f	-0.08589398
179	0xbcd00679	-0.025393711
180	0xbd567eba	-0.05236695
181	0xbc917778	-0.017757162
182	0xbe007ba3	-0.12547164
183	0xbd7a9296	-0.06117495
184	0xbd8711bd	-0.0659518
185	0x3ce9f12a	0.028557379
186	0x3dbc33bb	0.09189554
187	0x3e418341	0.18897726
188	0x3e34ad9c	0.17644352
189	0x3dec1be7	0.115287594
190	0x3d6b83de	0.057498805
191	0x3dce730d	0.10080538
192	0xbda8f8c5	-0.08250574
193	0xbf0453f8	-0.51690626
194	0x3e6fd474	0.23420888
195	0xbe04fb7b	-0.12986557
196	0xbe4f159c	-0.20223087
197	0xbe53107d	-0.20611759
198	0x3dc263f0	0.09491718
199	0xbd5b6715	-0.053565104
200	0x3dc88d3d	0.09792564
201	0x3e5ab302	0.21357349
202	0xbdb4c41e	-0.08826469
203	0xbe0513c3	-0.1299582
204	0x3df54169	0.119753666
205	0xbda8a903	-0.082353614
206	0xbd8c0528	-0.06836921
207	0xbdf7264c	-0.120678514
208	0xbe71271b	-0.23550074
209	0xbe05b71d	-0.13058133
210	0xbe8c355a	-0.27384454
211	0xbe23c2c6	-0.15992269
212	0xbc407f28	-0.011749066
213	0xbe632c2b	-0.22184817
214	0xbe8f8dae	-0.2803778
215	0xbe003e29	-0.12523712
216	0x3e788dd3	0.24272852
217	0x3d8a2e2b	0.06747087
218	0x3e04ea5b	0.12980025
219	0xbded6212	-0.11590971
220	0xbd12f9c9	-0.035882745
221	0x3d68268a	0.05667738
222	0xbda40e2f	-0.08010518
223	0x3d9df5c8	0.07712895
224	0xbd5a3e95	-0.05328234
225	0x3e291b2e	0.16514274
226	0x3e3bef27	0.18352948
227	0x3d65666c	0.05600588
228	0xbe3e7dc8	-0.18602669
229	0x3cc77619	0.024348306
230	0xbe42f15f	-0.19037388
231	0x3db383d7	0.08765381
232	0x3d2f04fd	0.042729367
233	0x3d4eda26	0.05050101
234	0x3dc49511	0.09598745
235	0x3dd1df1d	0.102476336
236	0xbe0a0d5d	-0.1348166
237	0x3da5ebe5	0.08101634
238	0xbc63286b	-0.013864617
239	0x3deae60b	0.114696585
240	0xbda83670	-0.08213508
241	0xbe00400b	-0.1252443
242	0xbfc3257a	-1.5245812
243	0xbdb001d4	-0.08594099
244	0xbe199873	-0.14999561
245	0xbd311c2c	-0.043239757
246	0xbe10992f	-0.14120935
247	0xbdd365c5	-0.103221454
248	0xbd93040a	-0.07178505
249	0x3dfee9bb	0.12446924
250	0xbd50050b	-0.05078606
251	0xbcc7021a	-0.024292994
252	0xbcf88288	-0.03033568
253	0x3def7b2a	0.116934136
254	0x3e18c081	0.14917184
255	0x3a421a8c	0.00074044685

tcn.0.conv1.conv.bias f4 [32]
0	0xbda221bb	-0.0791659
1	0xbe0b5da3	-0.13609938
2	0xbdc72108	-0.09723097
3	0xbbba0a92	-0.0056775296
4	0x3c03a868	0.008035757
5	0xbc4c8233	-0.012482214
6	0xbe0835d5	-0.13301785
7	0x3e0000bf	0.12500285
8	0xbde0f31f	-0.10983872
9	0x3c50be4d	0.012740684
10	0xbd146e30	-0.036237895
11	0x3da506d2	0.080579415
12	0xbcc6f8cb	-0.024288556
13	0x3dba46ff	0.09095573
14	0x3ddd1ff9	0.10797114
15	0xbd9e4c86	-0.077294394
16	0xbd7945c7	-0.06085756
17	0xbdeb84f2	-0.11499967
18	0xbd5483e4	-0.051883593
19	0xbd3360ac	-0.043793365
20	0xba2d3480	-0.00066072494
21	0xbcec92a7	-0.028878523
22	0xbcf814fa	-0.03028344
23	0x3cfb98a6	0.030712437
24	0xbbc21ce6	-0.005923855
25	0xbd49d21d	-0.049272645
26	0x3e0316a6	0.12801608
27	0x3d7166e3	0.05893601
28	0xbdc176ec	-0.09446511
29	0x3dd8e329	0.10590202
30	0xbdf87e82	-0.121335045
31	0x3c8ab5df	0.016932426

tcn.0.bn1.weight f4 [32]
0	0x3f52cbac	0.8234203
1	0x3f71a0f2	0.9438621
2	0x3f49ef0b	0.78880376
3	0x3f631365	0.8870147
4	0x3f575476	0.8411325
5	0x3f3b097e	0.7306136
6	0x3f50864b	0.81454915
7	0x3f46d441	0.77667624
8	0x3f3aa583	0.729088
9	0x3f49adee	0.7878102
10	0x3f57f06b	0.84351224
11	0x3f88c7be	1.0685956
12	0x3f36b1eb	0.7136523
13	0x3f360a30	0.71109295
14	0x3f809873	1.0046524
15	0x3f436b68	0.76335764
16	0x3f9689b1	1.176077
17	0x3f92b468	1.1461306
18	0x3f68430b	0.907273
19	0x3fa5f194	1.2964349
20	0x3f294319	0.6611801
21	0x3f881a7e	1.0633085
22	0x3fa6bef8	1.3027029
23	0x3f859194	1.0435052
24	0x3f2a34fb	0.6648709
25	0x3f84108f	1.0317553
26	0x3f8f2a44	1.1184773
27	0x3f6148de	0.8800181
28	0x3f443005	0.7663577
29	0x3fb99519	1.4498626
30	0x3f642105	0.89112884
31	0x3f74f1c8	0.9568143

tcn.0.bn1.bias f4 [32]
0	0xbe3e4c87	-0.1858388
1	0xbe7dfe12	-0.24803951
2	0xbdf3e447	-0.11908775
3	0xbeb2c9bb	-0.34919533
4	0xbe3c7c9d	-0.18406911
5	0xbea488fe	-0.32135767
6	0xbdea2824	-0.114334375
7	0xbe255a8e	-0.16147825
8	0xbe66d14d	-0.2254078
9	0xbe25b126	-0.16180858
10	0xbdd4e45d	-0.10395119
11	0xbed06d7b	-0.40708527
12	0xbea76729	-0.32695892
13	0xbdc416f2	-0.09574689
14	0xbe309036	-0.17242512
15	0xbe98756b	-0.29777083
16	0x3e1c0773	0.15237217
17	0xbefd9e8f	-0.49535033
18	0xbe3b44bb	-0.18287937
19	0x3e8f7758	0.2802074
20	0xbe6120ec	-0.21985215
21	0x3da8e110	0.08246052
22	0x3e81ff4f	0.25390097
23	0xbe5577c2	-0.20846465
24	0xbed4d980	-0.4157219
25	0xbea006c3	-0.3125516
26	0xbf036fa2	-0.51342213
27	0xbe235bcc	-0.15952986
28	0xbe6c8b10	-0.23099923
29	0x3f0543e5	0.52056724
30	0xbd457670	-0.048208654
31	0xbde24955	-0.11049143

tcn.0.bn1.running_mean f4 [32]
0	0xc0cb4bdb	-6.3530097
1	0x40930033	4.5937743
2	0xc061e328	-3.5294895
3	0xc096eb5b	-4.71623
4	0xc0db7019	-6.857434
5	0xc02e1a9c	-2.720374
6	0x3fd97e93	1.6991752
7	0xc01b21cc	-2.4239378
8	0x3fbbbaa8	1.4666338
9	0x3f52f601	0.8240662
10	0xbf9404e2	-1.156399
11	0xc03cd140	-2.9502716
12	0x409653e8	4.6977425
13	0xc067e8c8	-3.6235828
14	0x400042a1	2.0040667
15	0x4086b8c7	4.210056
16	0x3f8bdd68	1.0926943
17	0xbfd11bdb	-1.6336626
18	0xc04ecf09	-3.2313864
19	0x3f9b8ecc	1.2152953
20	0xc094ccc3	-4.6499953
21	0x3f2f91f1	0.68582064
22	0xbe79a0ce	-0.24377748
23	0x3ff26360	1.8936577
24	0x3f25f3ac	0.6482494
25	0x412acfb5	10.67571
26	0xbcb1c477	-0.021700127
27	0xbed97e9c	-0.42479408
28	0xbf7f8517	-0.99812454
29	0x3f4bf4aa	0.796702
30	0x40690bc3	3.6413429
31	0x3da8c8f6	0.08241455

tcn.0.bn1.running_var f4 [32]
0	0x412f4333	10.953906
1	0x41330bed	11.190412
2	0x410fcae1	8.987031
3	0x4101e3a1	8.118073
4	0x4180fe0b	16.124044
5	0x40450576	3.0784583
6	0x418512da	16.634205
7	0x40961b5b	4.6908393
8	0x41c105fe	24.127926
9	0x40a44e13	5.1345305
10	0x40fc79ba	7.889859
11	0x405fbffb	3.4960926
12	0x4115942b	9.348674
13	0x40fa8d41	7.829743
14	0x406765a4	3.6155787
15	0x4135df36	11.366995
16	0x3f109464	0.56476426
17	0x40619a97	3.5250604
18	0x40988533	4.7662597
19	0x3f166015	0.5874036
20	0x4163e03c	14.242245
21	0x3fc35ab5	1.5262057
22	0x3deda106	0.116029784
23	0x402371f0	2.5538292
24	0x4130432b	11.016398
25	0x41c1321a	24.149464
26	0x4036dfd4	2.8574114
27	0x401eebf9	2.4831526
28	0x4135439e	11.329008
29	0x3e6f6363	0.23377757
30	0x4125a897	10.35366
31	0x3f8183b4	1.0118318

tcn.0.conv2.conv.weight f4 [32, 32, 3]
0	0xbd9a3ac8	-0.07530743
1	0xbd466691	-0.04843766
2	0xbd7c1f6e	-0.06155341
3	0xbe0c1bef	-0.13682531
4	0x3dd6d8b7	0.10490554
5	0xbc000f90	-0.00781621
6	0x3d8d3ac4	0.06895974
7	0xbdad4cba	-0.084619
8	0x3d948499	0.072518535
9	0x3e0bf266	0.13666686
10	0xbd5ef0a4	-0.05442871
11	0xbe07f463	-0.1327682
12	0x3d675ddd	0.056486
13	0xbd8c052b	-0.06836923
14	0xbbb7bf9f	-0.00560756
15	0xbd20f074	-0.039291814
16	0x3d5a0eda	0.05323682
17	0x3cde769d	0.027156169
18	0xbdeab4cb	-0.11460265
19	0x3cb986fa	0.02264737
20	0xbddb0bcd	-0.1069561
21	0x3d0b5f8c	0.034026667
22	0x3db5b12c	0.088716835
23	0xbd841032	-0.064484015
24	0xbca64236	-0.020295244
25	0x3d5debce	0.05417996
26	0x3df90848	0.12159783
27	0xbda4950a	-0.080362394
28	0xbcdef049	-0.027214186
29	0x3cb098e9	0.021557288
30	0xbc788d55	-0.015170415
31	0x3da0d76e	0.0785359
32	0xbe016df0	-0.12639594
33	0x3e35e1f2	0.17761973
34	0x3dd281c3	0.10278656
35	0xbe2f65c8	-0.1712867
36	0x3e178255	0.14795811
37	0xbb94d769	-0.0045422805
38	0x3ddd4151	0.10803474
39	0x3d9ce246	0.07660346
40	0x3bebdf4e	0.007198251
41	0xbe0dc86f	-0.1384599
42	0x3df525a5	0.11970071
43	0x3c8971e8	0.016777948
44	0xbda403eb	-0.0800856
45	0x3d9f4ca8	0.07778293
46	0xbd181dac	-0.037137672
47	0x3d8681bf	0.06567716
48	0x3dacd5f1	0.084392436
49	0x3d68fd5a	0.05688224
50	0xbdf59ea3	-0.11993148
51	0x3e32d486	0.17463884
52	0x3e8e4766	0.27788848
53	0xbd6b6e9a	-0.057478525
54	0x3d3c4011	0.045959536
55	0xbcabcba3	-0.020971125
56	0xbe377ce9	-0.17918743
57	0x3e02a430	0.12757945
58	0x3d971b21	0.07378221
59	0x3d92e3e2	0.071723714
60	0x3cdd1650	0.026988178
61	0xba24a923	-0.0006281307
62	0x3dc48b27	0.09596854
63	0x3d003fe4	0.03131093
64	0x3d01d759	0.031699512
65	0xbdda2a43	-0.10652592
66	0x3da33b17	0.07970255
67	0xbd2ce9dc	-0.042215213
68	0xbdc58f44	-0.096464664
69	0x3d9c39b1	0.07628191
70	0x3e1b6522	0.15175298
71	0xbe109cdd	-0.14122339
72	0xbda2483d	-0.079239346
73	0x3e5e2aa6	0.21695957
74	0xbdbaa8be	-0.09114216
75	0xbcf9f15a	-0.030510593
76	0xbdca56a1	-0.098798044
77	0x3e2c2e2d	0.1681449
78	0x3d76c2a1	0.060244206
79	0x3e8172f4	0.25283015
80	0xbc9c1f8e	-0.019058015
81	0x3caf6d75	0.021414498
82	0x3dfbd4b3	0.122964285
83	0x3e253aea	0.16135755
84	0x3d79f981	0.06102896
85	0xbce912cf	-0.028451351
86	0x3ce96c8f	0.028494148
87	0x3ce6e8b7	0.028187139
88	0xbb36b15e	-0.0027876715
89	0x3d0bf0fd	0.03416537
90	0x3e286564	0.16444927
91	0x3e14dc74	0.14537221
92	0x3cd67821	0.026180329
93	0x3d98c904	0.07460216
94	0x3da63d21	0.08117128
95	0xbd6e33c9	-0.058154855
96	0xbdd9c2fb	-0.10632893
97	0xbd5f0fd4	-0.054458454
98	0x3cd17d60	0.025572479
99	0xbe419c2a	-0.18907228
100	0xbed0abb6	-0.40756005
101	0xbe6de92e	-0.23233482
102	0xbdb4f7a8	-0.08836299
103	0xbc2a2a88	-0.010386117
104	0x3e60d556	0.21956381
105	0x3e061929	0.13095535
106	0x3d00f701	0.03148556
107	0x3d8b162f	0.067913406
108	0x3c5ae677	0.013360611
109	0x3d05fea0	0.032713532
110	0x3dc4a121	0.096010454
111	0x3d17239f	0.036899205
112	0x3d24ae73	0.04020543
113	0x3d884a98	0.06654853
114	0xbe79be89	-0.2438909
115	0xbe09c91c	-0.13455623
116	0x3bf92886	0.0076037077
117	0xbe43e619	-0.19130744
118	0xbe1ee149	-0.15515627
119	0xbdb0be67	-0.08630066
120	0x3d9b255c	0.07575485
121	0xbdeca1a9	-0.11554272
122	0x3d828c0c	0.06374368
123	0xbdf8a1e4	-0.12140253
124	0x3d854bac	0.06508574
125	0xbe0526d6	-0.13003096
126	0xbdb76c84	-0.089562446
127	0xbe26f0f3	-0.16302852
128	0x3bee205e	0.007267042
129	0x3d8191db	0.06326648
130	0x3dbd9cb7	0.092584066
131	0xbdca633d	-0.098822095
132	0xbd822059	-0.06353826
133	0xbe0da70a	-0.13833252
134	0x3df150c9	0.11782987
135	0xbcc78bc2	-0.024358634
136	0xbb889730	-0.0041684136
137	0x3db4f3a5	0.08835534
138	0x3e80b9fe	0.251419
139	0xbdf4be1f	-0.11950325
140	0x3ddbf591	0.107401974
141	0xbd75da42	-0.0600226
142	0xbd1e4d7c	-0.038648114
143	0xbb8bc5f9	-0.0042655435
144	0xbc2dbbda	-0.010603869
145	0x3e08cb20	0.13358736
146	0x3cb741ff	0.022370337
147	0x3e6d879d	0.23196264
148	0x3d8bdffc	0.06829831
149	0x3dcac46e	0.09900747
150	0x3d24cd19	0.04023466
151	0xbd6ffb5e	-0.05858933
152	0x3e437cd4	0.19090587
153	0x3d820935	0.06349412
154	0xbe0dc79b	-0.13845675
155	0xbdcfb536	-0.10141985
156	0xbd123d42	-0.03570295
157	0x3bf026c9	0.0073288423
158	0x3dbcb792	0.09214701
159	0x3dad97ac	0.08476195
160	0xbdf41675	-0.11918346
161	0xbe2bb1a2	-0.1676698
162	0x3d3a5c3b	0.045498114
163	0xba287b8f	-0.0006427103
164	0xbc85364d	-0.016261244
165	0x3e71a955	0.23599751
166	0xbddf3301	-0.108984
167	0x3c3a132b	0.011357109
168	0xbe89f3a9	-0.2694371
169	0xbd82fafa	-0.06395526
170	0x3c9a2589	0.018816726
171	0xbe689465	-0.22712858
172	0x3cbd3deb	0.023100814
173	0xbd9ab866	-0.075547025
174	0x3e7dd849	0.24789537
175	0x3e4f03ba	0.20216265
176	0x3c534999	0.012895965
177	0xbd5ea7a3	-0.05435909
178	0x3d81f888	0.06346232
179	0x3dbee1d0	0.09320414
180	0x3d9068eb	0.070512615
181	0xbd2dde29	-0.042448197
182	0xbddfc568	-0.10926324
183	0x3e3d0acd	0.18461151
184	0xbe1b571b	-0.15169947
185	0x3d0dfb17	0.034663286
186	0xbc0672bd	-0.008206067
187	0x3dd3c974	0.103411585
188	0xb942dae9	-0.00018582832
189	0x3de10869	0.10987932
190	0xbb6dbc2b	-0.0036275487
191	0xbd66a0ac	-0.056305572
192	0x3d121875	0.035667855
193	0xb922f8fa	-0.00015542275
194	0x3c0c67a8	0.008569635
195	0xbdb1236a	-0.08649333
196	0x3d481711	0.048850123
197	0x3d5b93f2	0.05360789
198	0xbcb80100	-0.022461414
199	0xbdb1bf9f	-0.08679127
200	0x3cf6c0a7	0.03012116
201	0x3cdaf17c	0.026726477
202	0x3ced7bb8	0.028989658
203	0xbe897328	-0.2684567
204	0xbda36ce9	-0.07979757
205	0x3cdae99a	0.026722718
206	0x3d8f0d2c	0.06984934
207	0xbe751327	-0.23933087
208	0xbc639861	-0.01389131
209	0xbda4cdb5	-0.08047048
210	0x3e12d55f	0.14339207
211	0x3e0d1b90	0.13780046
212	0x3e65cbfa	0.22441092
213	0xbe264915	-0.16238816
214	0xbdebf350	-0.115210176
215	0xbe9fe34c	-0.312281
216	0xbdab7347	-0.08371597
217	0xbbb22167	-0.005436111
218	0xbd1d2eee	-0.038374834
219	0x3e119f8d	0.1422102
220	0x3db668e0	0.08906722
221	0xbe1461dd	-0.14490457
222	0xbd337538	-0.04381296
223	0x3e24fbbc	0.16111654
224	0x3de953cc	0.11392936
225	0xbde593a0	-0.11209798
226	0x3e006c71	0.12541367
227	0xbec4c161	-0.38428786
228	0x3c854f8e	0.016273286
229	0x3d47e5bf	0.048803087
230	0xbd501b2b	-0.05080716
231	0xbdfb5c29	-0.122734375
232	0xbd20591a	-0.039147474
233	0xbe95f13e	-0.29285616
234	0x3e10c691	0.14138247
235	0x3bbbb43f	0.005728274
236	0x3d32454c	0.043523118
237	0xbda99a23	-0.08281352
238	0xbcba3514	-0.022730388
239	0xbdfc33e1	-0.123145826
240	0x3d5cb588	0.05388406
241	0x3e0bf40a	0.13667312
242	0xbe3e66b7	-0.1859387
243	0x3caa997b	0.020825138
244	0x3e0f26a1	0.1397958
245	0xbacef151	-0.0015788471
246	0x3def894e	0.11696111
247	0x3d52a804	0.051429763
248	0x3d83b4b0	0.06430948
249	0xba9fc7f4	-0.0012190328
250	0xbc35a676	-0.011087051
251	0xbe67e116	-0.22644457
252	0x3dfc15ec	0.12308869
253	0x3d3a0c56	0.04542192
254	0xbe1037b7	-0.14083754
255	0x3e13cdab	0.14433925

tcn.0.conv2.conv.bias f4 [32]
0	0x3daab2ab	0.083348595
1	0xbcd2c13a	-0.025726903
2	0xbd4b46f7	-0.049628224
3	0xbd45f95d	-0.048333514
4	0x3d75e15d	0.060029376
5	0x3d865f05	0.06561092
6	0xbdc31104	-0.0952473
7	0xbdcb9670	-0.09940803
8	0x3cfad40a	0.030618686
9	0x3d9c7a98	0.076405704
10	0xbc071c94	-0.00824656
11	0xbd4b9455	-0.049702007
12	0x3dd2c7b9	0.10292
13	0x3d467edd	0.04846083
14	0xbdc64fc2	-0.09683181
15	0x3d7edcb8	0.062222213
16	0x3db53f3b	0.08849951
17	0xbc38b6ae	-0.011274023
18	0x3d350125	0.044190545
19	0xbdcd233f	-0.10016488
20	0x3cc62051	0.024185332
21	0xbc9f15a0	-0.019419491
22	0xbc212bc2	-0.009837093
23	0x3d67d5f9	0.056600545
24	0x3dc35f9e	0.09539722
25	0xbd810736	-0.063002035
26	0xbc12e539	-0.008965784
27	0xbc9a0e5a	-0.018805671
28	0x3d59f840	0.053215265
29	0x3adee703	0.0017006103
30	0xbd79780a	-0.060905494
31	0xbd47ed9c	-0.048810586

tcn.0.bn2.weight f4 [32]
0	0x3f6c694f	0.9234819
1	0x3eaa8f23	0.3331233
2	0x3f560406	0.8359989
3	0x3f6a2058	0.914556
4	0x3f7bf956	0.9842733
5	0x3f6a61e3	0.91555613
6	0x3ed3cdf6	0.41368073
7	0x3f41a3a5	0.75640327
8	0x3f638ed0	0.8888979
9	0x3f41cd43	0.7570383
10	0x3f41facf	0.7577333
11	0x3f63439c	0.8877504
12	0x3f0698e0	0.5257702
13	0x3f1cbeb4	0.6122849
14	0x3f28d143	0.6594431
15	0x3f3439d5	0.70400745
16	0x3f83b43e	1.028938
17	0x3f80a69e	1.0050848
18	0x3f4bd960	0.7962856
19	0x3f061ec4	0.52390695
20	0x3e9e08fc	0.3086623
21	0x3f74ed8c	0.9567497
22	0x3f7b47f5	0.9815667
23	0x3ecd4f92	0.4009977
24	0x3f2311d2	0.63699067
25	0x3ea99f4b	0.33129343
26	0x3e869a88	0.26289773
27	0x3f58a2ae	0.8462323
28	0x3ed19e5b	0.40941128
29	0x3f7c4556	0.985433
30	0x3ef51147	0.47864744
31	0x3ea46764	0.3211013

tcn.0.bn2.bias f4 [32]
0	0xbe0d5de8	-0.13805354
1	0xbefeba17	-0.4975135
2	0xbdc9d2f7	-0.098546915
3	0xbd26d9d1	-0.04073507
4	0x3e0d07d6	0.1377252
5	0xbc9abc84	-0.01888872
6	0xbe7b4c1e	-0.24540755
7	0xbe381461	-0.17976524
8	0xbd15ea5a	-0.03660045
9	0xbd8191a8	-0.0632661
10	0xbeb82348	-0.35964417
11	0xbe028b0b	-0.12748353
12	0xbe02ca76	-0.12772545
13	0xbe829d02	-0.25510412
14	0xbe1423ec	-0.14466828
15	0xbe9accfc	-0.30234516
16	0xbdc1b5f9	-0.09458537
17	0x3dd0bf2a	0.10192712
18	0xbe7f6cd5	-0.2494386
19	0xbe53a1fe	-0.20667264
20	0xbee82a70	-0.45344877
21	0x3cc5d8a5	0.024151156
22	0x3d89ca6c	0.06728062
23	0xbf0e88a5	-0.55677253
24	0xbe253716	-0.16134295
25	0xbef99b79	-0.4875143
26	0xbed90713	-0.4238821
27	0xbd339adb	-0.043848854
28	0xbeed6479	-0.46365717
29	0xbe5453d4	-0.20735103
30	0xbeb45b2e	-0.35225815
31	0xbf164f7f	-0.5871505

tcn.0.bn2.running_mean f4 [32]
0	0x3f26af83	0.6511156
1	0xbe5ce7f8	-0.21572864
2	0x3e3b2f5a	0.18279782
3	0xbd431612	-0.04762847
4	0xbfe47680	-1.7848663
5	0x3e78ad64	0.24284893
6	0xbf60a75a	-0.8775536
7	0x3e27c7a9	0.16384758
8	0xbed77a0f	-0.4208531
9	0xbf555a37	-0.8334078
10	0xbf5a3813	-0.8524181
11	0x3f2e773e	0.681507
12	0xbec61459	-0.386874
13	0xbf138917	-0.5763106
14	0xbf25ae11	-0.6471873
15	0x3f98ccb5	1.1937472
16	0x3f4c4340	0.79790115
17	0xbf017597	-0.5057005
18	0x3f33867f	0.701271
19	0xbf93b80f	-1.1540545
20	0xbf12059b	-0.57039803
21	0xbf8a0c87	-1.0785073
22	0xbf57aa96	-0.8424467
23	0xbf7ebd1c	-0.9950731
24	0x3ee13eeb	0.43993315
25	0xbfa2fc5d	-1.2733265
26	0xbfe32243	-1.7744831
27	0x3c42c228	0.011887111
28	0xbf530e05	-0.8244327
29	0xbeca3b86	-0.39498538
30	0xbf148420	-0.58014107
31	0xbfad183f	-1.3523024

tcn.0.bn2.running_var f4 [32]
0	0x3fc08d08	1.5043039
1	0x3fb5e26c	1.4209723
2	0x40228c42	2.5398107
3	0x3fe86c17	1.8157986
4	0x408237b0	4.069298
5	0x4010c52b	2.2620342
6	0x400e66df	2.2250288
7	0x3fc64d96	1.5492427
8	0x3ffbaa3c	1.9661326
9	0x4014580a	2.3178735
10	0x3f72f2df	0.9490184
11	0x40488a70	3.1334496
12	0x405805ec	3.3753614
13	0x40232353	2.549031
14	0x40373ec2	2.8632054
15	0x400b898f	2.180271
16	0x3fbc9f32	1.4736083
17	0x40406e2f	3.006725
18	0x4017c135	2.3711674
19	0x405956b4	3.395917
20	0x400ddb68	2.2165165
21	0x3fc83feb	1.5644506
22	0x4054a9b8	3.3228588
23	0x400df117	2.21784
24	0x3fddd4e1	1.733059
25	0x4028cbe0	2.6374435
26	0x400d4c35	2.2077763
27	0x402491bf	2.5713956
28	0x40050daf	2.0789602
29	0x3fe5f311	1.7964803
30	0x3fe8f0fa	1.819854
31	0x401da642	2.4632726

tcn.0.downsample.weight f4 [32, 16, 1]
0	0xbebd4653	-0.36967716
1	0xbe6dbbd5	-0.23216183
2	0x3dd5b127	0.1043418
3	0x3d6c955b	0.057759624
4	0x3d13f7f8	0.036125153
5	0xbe353b23	-0.1769834
6	0xbdd4cf9a	-0.10391159
7	0xbebac29f	-0.3647661
8	0x3ddc220d	0.10748682
9	0xbccca3ac	-0.024980389
10	0x3cab36ef	0.020900218
11	0x3eaf9cb9	0.34299257
12	0x3c65c2c0	0.014023483
13	0xbc45ee69	-0.012080767
14	0xbe0846c0	-0.13308239
15	0xbe130250	-0.14356351
16	0xbfb5a132	-1.4189818
17	0xbd1b99b9	-0.0379884
18	0x3d17712f	0.036973175
19	0xbd8854bb	-0.06656786
20	0xbdf3ba98	-0.11900824
21	0x3e808056	0.25097913
22	0x3e38f910	0.1806376
23	0xbe03ae2f	-0.12859415
24	0x3c25180a	0.010076532
25	0x3e54e953	0.20792131
26	0xbe024dbb	-0.12724964
27	0x3e475c45	0.19468792
28	0xbe509e64	-0.20372921
29	0xbe04d80b	-0.12973039
30	0xbdc754a7	-0.09732943
31	0x3e269673	0.1626833
32	0x3e45a4f8	0.19301212
33	0x3dbbf9ec	0.09178528
34	0x3e131cb8	0.14366424
35	0xbe29ad9d	-0.16570134
36	0xbdc91ccc	-0.09819946
37	0xbd93c4e7	-0.072152905
38	0xbe8e8c00	-0.27841187
39	0xbc179f54	-0.009254295
40	0x3e3e975c	0.18612427
41	0x3e89fcb0	0.26950598
42	0xbe48771e	-0.1957669
43	0xbe2419f7	-0.1602553
44	0x3f137478	0.5759959
45	0x3c38e2ec	0.011284571
46	0x3dc856b8	0.09782165
47	0x3ed34784	0.412655
48	0x3ece93cb	0.40347132
49	0xbe2cb2f5	-0.16865142
50	0xbd19cb7f	-0.037547585
51	0xbdf72914	-0.12068382
52	0x3d591c84	0.05300571
53	0xbe873323	-0.26406202
54	0xbe0a05aa	-0.13478723
55	0xbe667831	-0.22506787
56	0xbc92ebf8	-0.017934784
57	0xbda4f5a1	-0.080546625
58	0x3e22fff1	0.15917946
59	0x3d167682	0.03673411
60	0xbceddac7	-0.029034985
61	0x3de4323a	0.111423925
62	0x3e8f11a6	0.27943152
63	0xbe941401	-0.28921512
64	0xbf0616b6	-0.52378404
65	0xbdd40307	-0.1035214
66	0x3deadd2a	0.11467965
67	0xbbd310ec	-0.006441226
68	0xbe006e4a	-0.12542072
69	0xbda34857	-0.07972782
70	0x3d9999f3	0.075000666
71	0xbe6e6e11	-0.23284175
72	0x3ca33183	0.01992107
73	0x3e07dc1b	0.13267557
74	0xbe803d9c	-0.25047004
75	0x3d8e426f	0.06946265
76	0xbd87368f	-0.06602203
77	0x3d6d0691	0.05786759
78	0xbc923e11	-0.017851861
79	0xbe994e90	-0.2994275
80	0xbebe7c2a	-0.37204105
81	0xbcf09894	-0.02936963
82	0xbd9e5646	-0.07731299
83	0xbdc00b2f	-0.09377133
84	0x3e2891e6	0.16461906
85	0xbeaefcdf	-0.341773
86	0xbbb20972	-0.005433255
87	0x3e3548f9	0.17703618
88	0xbdb42d26	-0.08797674
89	0xbe10d34f	-0.14143108
90	0x3e131305	0.14362724
91	0xbd725996	-0.059167467
92	0x3def8afb	0.1169643
93	0xbf1346c6	-0.57529867
94	0x3e0b1ad8	0.13584459
95	0x3f067273	0.52518386
96	0x3fb0fe29	1.3827564
97	0x3d0918d4	0.033470944
98	0xbdd362eb	-0.103216015
99	0x3e074672	0.13210467
100	0x3e1a7b1c	0.15086025
101	0xbb0dc2c1	-0.0021630975
102	0x3e23d8ff	0.16000746
103	0x3e32eeef	0.17473958
104	0x3d78b6da	0.060721256
105	0xbca5657a	-0.02018999
106	0xbe6e984c	-0.23300284
107	0xbd5d02b8	-0.05395767
108	0xbd62cabf	-0.055369135
109	0x3e004b53	0.12528734
110	0xbd106e04	-0.03526117
111	0x3e14a7d6	0.1451715
112	0x3f35d4f3	0.7102806
113	0x3dee5938	0.11638111
114	0xbd012961	-0.031533603
115	0x3e273d6c	0.16332024
116	0x3d2421ef	0.040071424
117	0xbcafd19d	-0.021462256
118	0xbe866c40	-0.26254463
119	0xbda0a5b2	-0.07844104
120	0x3e191614	0.14949828
121	0x3e004002	0.12524417
122	0x3e10a880	0.14126778
123	0x3e2adf9b	0.16686861
124	0xbd4c7a31	-0.04992122
125	0xbe21ab33	-0.15787964
126	0x3d76f781	0.060294632
127	0x3ee7032a	0.451196
128	0x3e2a16a7	0.16610204
129	0x3e022580	0.12709618
130	0x3e1d018a	0.15332618
131	0x3d9a87a3	0.07545402
132	0xbdab45a1	-0.0836289
133	0xbea65f8c	-0.3249477
134	0xbe144166	-0.14478073
135	0xbed6a47a	-0.4192236
136	0xbe91c67b	-0.2847174
137	0x3e4e2e2a	0.20134798
138	0x3dca852e	0.09888683
139	0x3deb38ab	0.11485418
140	0xbe1b5e90	-0.15172791
141	0x3c23fa8c	0.0100084655
142	0xbd0bc027	-0.034118798
143	0xbd1559a3	-0.036462437
144	0x3e222b1d	0.15836759
145	0xbe514c06	-0.20439157
146	0x3de37023	0.11105373
147	0xbe1fb1c8	-0.15595162
148	0xbe163ef1	-0.14672448
149	0xbdd1f75d	-0.10252259
150	0xbd9ebf7a	-0.07751365
151	0xbe47b5a3	-0.19502883
152	0xbd07254e	-0.03299456
153	0x3ef0185a	0.4689358
154	0x3e2b8aee	0.16752216
155	0x3ebd4276	0.36964768
156	0x3f3cee46	0.73801076
157	0xbe4e5004	-0.20147711
158	0x3dff5f34	0.124693304
159	0x3d676773	0.05649514
160	0xbd9599e7	-0.07304745
161	0xbc2bc425	-0.010483776
162	0x3de86641	0.113476284
163	0xbda9a151	-0.08282722
164	0xbe991e06	-0.2990572
165	0x3d8edd9d	0.06975863
166	0xbe5d02c6	-0.21583089
167	0xbe4d7e01	-0.20067598
168	0x3e3e432d	0.18580313
169	0xbe6cdccc	-0.23131102
170	0x3ce3a7f7	0.027790053
171	0xbe92b98b	-0.28657183
172	0x3ec0245d	0.37527743
173	0x3f0a236f	0.5396032
174	0xbd4d4181	-0.050111298
175	0x3ec4183c	0.3829974
176	0xbf69eab5	-0.9137376
177	0xbd38b1ab	-0.045091312
178	0xbd863180	-0.0655241
179	0xbce875f3	-0.028376555
180	0x3d8afbfb	0.06786343
181	0xbe2a2e6a	-0.16619268
182	0x3d06b6bd	0.032889117
183	0x3b975fbf	0.004619568
184	0xbd7cddbb	-0.061734896
185	0x3d237317	0.03990468
186	0xbe605992	-0.21909168
187	0xbd81f4c0	-0.063455105
188	0xbe6287e2	-0.22122148
189	0xbe5c0755	-0.21487172
190	0x3e7b74f0	0.24556327
191	0x3e82b9ba	0.25532323
192	0x3f8772b1	1.0581876
193	0x3d88c04f	0.06677305
194	0x3d5a467c	0.053289875
195	0xbb827e1e	-0.0039823195
196	0xbd123522	-0.035695203
197	0x3e6d1ed3	0.2315629
198	0xbdc66818	-0.09687823
199	0x3dcd36f4	0.10020247
200	0xbe222ca8	-0.15837348
201	0x3cfa2bfd	0.030538553
202	0x3df7b22c	0.120945305
203	0x3d3654c3	0.04451443
204	0xbde67375	-0.112524904
205	0x3cfd17e1	0.030895175
206	0x3e18207c	0.14856142
207	0xbd0ceb42	-0.034404047
208	0x3f4241a7	0.7588143
209	0x3e3ba281	0.18323709
210	0x3e240285	0.16016586
211	0xbe2b229b	-0.1671242
212	0xbd91d881	-0.07121373
213	0xbde2e9aa	-0.11079724
214	0x3de63180	0.1123991
215	0xbe9ed3e9	-0.3102105
216	0x3de64ea7	0.112454705
217	0x3b55e024	0.003263482
218	0x3e4869cb	0.19571607
219	0xbe81188f	-0.2521405
220	0xbe7b2a38	-0.24527824
221	0xbdda0c61	-0.10646892
222	0x3c9903b0	0.018678516
223	0x3e0408eb	0.12894027
224	0x3f6b43c3	0.9190027
225	0x3da8206a	0.082093075
226	0x3c862034	0.016372778
227	0x3d4a7117	0.049424257
228	0x3e012f92	0.12615803
229	0xbe7158d4	-0.23569041
230	0x3d8ac3d8	0.067756355
231	0xbdaee9e3	-0.08540704
232	0xbe7a8762	-0.24465707
233	0xbeec5244	-0.46156514
234	0xbe8e5c15	-0.27804628
235	0xbced2c2b	-0.028951725
236	0xbe003f61	-0.12524177
237	0xbe8c3488	-0.27383828
238	0xbd9ba5ad	-0.075999595
239	0xbd30c28d	-0.043154288
240	0xbed2a07f	-0.41138074
241	0x3e9d158b	0.30680498
242	0xbe48c25a	-0.19605389
243	0xbd1aedd4	-0.037824467
244	0xbe1ddbe8	-0.15415919
245	0x3e17288f	0.14761566
246	0xbe740bf5	-0.23832686
247	0x3d4b8736	0.049689494
248	0xbd9c0864	-0.07618788
249	0x3e937c0b	0.28805575
250	0x3deeb943	0.116564296
251	0xbc446b4d	-0.011988473
252	0x3ef78e03	0.48350534
253	0x3e5b3ee3	0.21410708
254	0x3cdf386b	0.027248582
255	0x3ea34b2e	0.31893295

tcn.0.downsample.bias f4 [32]
0	0xbe90b3a1	-0.28262046
1	0x3e04aa51	0.12955596
2	0x3f08c960	0.53432274
3	0xbe5d0a06	-0.21585855
4	0xbc9b308e	-0.018944051
5	0xbd7f8d6a	-0.062390722
6	0xbcd93cff	-0.026518343
7	0xbd37a4b6	-0.044834815
8	0x3cf02474	0.029314257
9	0xbb894bf4	-0.0041899625
10	0xbdfd92db	-0.12381526
11	0xbe633050	-0.22186399
12	0xbead1ab4	-0.33809435
13	0xbe52768b	-0.20553033
14	0xbb6653d4	-0.003514518
15	0xbe9623c9	-0.29324177
16	0xbe9fb87f	-0.31195447
17	0x3dd5f5c2	0.10447265
18	0xbe075555	-0.13216145
19	0xbe3a7b30	-0.18211055
20	0x3e7b7fa5	0.24560411
21	0x3d7575ed	0.059926916
22	0x3d97a3b7	0.07404273
23	0x3d517156	0.051133476
24	0x3d94d12c	0.07266459
25	0x3e2d6c6e	0.16935894
26	0xbe1f42b8	-0.15552795
27	0x3d046f7a	0.032332875
28	0xbd0ac42e	-0.033878498
29	0xbee6b5f8	-0.45060706
30	0x3c7ab654	0.0153022595
31	0x3d433480	0.04765749

tcn.1.conv1.conv.weight f4 [64, 32, 3]
0	0xbda659a8	-0.08122569
1	0x3dba1d9d	0.090876795
2	0x3daafa77	0.08348554
3	0xbe24e3cc	-0.16102523
4	0x3cfc6490	0.03080967
5	0x3db10f9c	0.086455554
6	0x3e66b56d	0.22530146
7	0x3cfd7ae0	0.03094238
8	0xbe2f6ef5	-0.1713217
9	0xbdd15de5	-0.10222987
10	0xbd194474	-0.037418798
11	0x3cefa041	0.02925122
12	0x3e09b836	0.13449177
13	0xbcf4a824	-0.029865332
14	0xbd4a032e	-0.04931944
15	0x3e322755	0.17397816
16	0x3e470adb	0.19437735
17	0x3d8aad0b	0.067712866
18	0xbd9f8a0b	-0.077900015
19	0xbda06272	-0.07831277
20	0xbe0b5ce5	-0.13609655
21	0xbe59b73e	-0.21261308
22	0x3d971c0c	0.073783964
23	0xbdfd151e	-0.123575434
24	0xbe434186	-0.19067964
25	0x3bdc5c96	0.0067249043
26	0xbe124728	-0.14284956
27	0xbda07595	-0.07834927
28	0xbdd16886	-0.102250144
29	0xbea85414	-0.32876647
30	0xbdd0db94	-0.10198131
31	0xbb003ed4	-0.0019568698
32	0xbd87adf7	-0.06624978
33	0x3dcc6b1d	0.09981368
34	0x3e6b40c5	0.22973926
35	0xbd1fd928	-0.039025456
36	0x3d9dc63b	0.07703825
37	0x3e1590f3	0.14606075
38	0x3e05b66b	0.13057868
39	0x3e355aaa	0.17710367
40	0x3e68bd71	0.22728516
41	0xbca50ce7	-0.020147754
42	0x3e0d562d	0.13802405
43	0x3dc04f6d	0.09390149
44	0xbdf9e393	-0.122016095
45	0xbd299a42	-0.041406877
46	0x3df2c6ed	0.11854348
47	0x3bf2ed7b	0.007413564
48	0xbd29172d	-0.041281868
49	0x3cae762e	0.021296587
50	0x3e277732	0.16354063
51	0xbe09ba64	-0.13450009
52	0xbe66e1f8	-0.22547138
53	0xb9ca6c1e	-0.00038608996
54	0x3d622dcb	0.055219453
55	0x3d68a6f2	0.056799836
56	0x3daa705a	0.083222106
57	0x3dc9a1e4	0.09845331
58	0x3df6b7ae	0.12046753
59	0x3da5a260	0.08087611
60	0xbe22c638	-0.15895927
61	0xbe3c8d6a	-0.1841332
62	0xbe72f24c	-0.23725241
63	0x3ddff213	0.10934844
64	0xbe2d8e3b	-0.16948788
65	0xbd83c8ba	-0.0643477
66	0xbcfcc0f1	-0.03085372
67	0xbdec9ab5	-0.115529455
68	0x3e07c2d8	0.1325792
69	0x3dda7073	0.10665979
70	0x3db759b3	0.08952656
71	0xbcefb800	-0.029262543
72	0xbd2e955a	-0.0426229
73	0x3de39bc0	0.11113691
74	0xbd841ca3	-0.064507745
75	0xbe4429df	-0.19156598
76	0xbd2f8f84	-0.042861477
77	0xbe4768c0	-0.19473553
78	0x3d8724b8	0.065988004
79	0x3df69deb	0.12041839
80	0xbe212b73	-0.15739231
81	0x3e96e1fb	0.29469284
82	0x3d24ec1d	0.040264238
83	0xbca5792f	-0.020199386
84	0xbe146e89	-0.14495291
85	0x3dc95a45	0.09831671
86	0x3daeadcf	0.08529245
87	0x3db3ff54	0.08788934
88	0x3df4d5aa	0.11954816
89	0x3da023f5	0.07819358
90	0xbdccf3ea	-0.100074604
91	0x3dd093c3	0.10184433
92	0x3dacaecc	0.08431777
93	0xbd3d7b51	-0.04626018
94	0x3e0c4855	0.13699467
95	0x3d27efe4	0.041000262
96	0x3c602be8	0.013682343
97	0xbe23d62c	-0.15999669
98	0xbc63a7f0	-0.01389502
99	0x3de9c7d7	0.114150696
100	0x3de44c8d	0.111474134
101	0xbe7b68f7	-0.2455176
102	0xbe146f17	-0.14495502
103	0xbe84e5b6	-0.25956506
104	0xbd670471	-0.05640072
105	0xbd9ded1a	-0.07711239
106	0x3cacdc37	0.0211011
107	0xbc5b42fd	-0.0133826705
108	0x3d629536	0.05531808
109	0xbdcd3f00	-0.10021782
110	0x3d5484d7	0.0518845
111	0xbdaa88fc	-0.08326909
112	0xbd2a3ece	-0.0415638
113	0x3cce0d4b	0.025152823
114	0x3dc4de5d	0.09612725
115	0x3df74b7d	0.12074945
116	0xbd6b6a00	-0.057474136
117	0xbddf9905	-0.10917858
118	0xbe50e462	-0.20399621
119	0xbc516fbf	-0.01278299
120	0xbd9f67a9	-0.077834435
121	0x3ce8effb	0.028434744
122	0x3d1c9fec	0.03823845
123	0xbe28c734	-0.1648224
124	0x3d71d078	0.059036702
125	0xbcf14249	-0.029450553
126	0x3d9128f3	0.070878886
127	0x3e15c568	0.14626086
128	0xbd76283e	-0.06009697
129	0x3d432f2d	0.047652412
130	0xbda2b2a0	-0.07944226
131	0x3e1a9a49	0.15097918
132	0x3dc7797b	0.097399674
133	0x3e19cbd0	0.15019155
134	0xbe574069	-0.21020664
135	0xbde5acac	-0.11214575
136	0x3da8831b	0.082281314
137	0xbe9c6f40	-0.30553627
138	0xbe08cc56	-0.13359198
139	0xbce31bad	-0.027723158
140	0xbe8c6cd5	-0.27426782
141	0x3dd0a112	0.10186972
142	0x3df0495b	0.117327414
143	0xbd422122	-0.04739488
144	0xbb5ece10	-0.0033997335
145	0xbcd1036f	-0.025514333
146	0xbc43eeed	-0.01195882
147	0x3de932e1	0.113866575
148	0xbdaa53ec	-0.08316788
149	0xbd1f1b25	-0.038844246
150	0x3ca57f0b	0.02020218
151	0x3d207938	0.039178103
152	0xbd7ba757	-0.061438885
153	0x3dda43b2	0.10657443
154	0x3daedb45	0.08537916
155	0xbded7b0e	-0.115957364
156	0x3e09910d	0.13434239
157	0x3dc1cd16	0.09462945
158	0xbd4e5cf8	-0.05038163
159	0x3e213d93	0.15746145
160	0x3df70124	0.120607644
161	0xbe1cf020	-0.15325975
162	0x3de5de54	0.11224046
163	0xbd033d51	-0.032040898
164	0xbdf0694a	-0.11738832
165	0x3d45c9f1	0.04828829
166	0xbc4f97eb	-0.012670497
167	0xbe5e17a7	-0.2168871
168	0xbd5df607	-0.054189708
169	0x3e80bb5a	0.25142938
170	0x3d81cde7	0.06338101
171	0x3e85fa8e	0.2616772
172	0x3e101c34	0.14073259
173	0x3cb5067b	0.022097817
174	0x3d300b3d	0.042979468
175	0x3e4028ec	0.1876561
176	0xbe2184c8	-0.15773308
177	0x3cb607e3	0.022220558
178	0xbb45616c	-0.0030117882
179	0xbe654efa	-0.22393408
180	0xbd4f4a34	-0.050607875
181	0x3c62df5f	0.013847201
182	0xbe35f0eb	-0.17767684
183	0xbdc7afa7	-0.097503
184	0x3d3d645f	0.0462383
185	0xbd15a28c	-0.03653197
186	0xbe53b7bc	-0.20675558
187	0x3e9eebce	0.3103928
188	0xbe31b33d	-0.1735353
189	0x3dcdc3f8	0.10047144
190	0x3d6369ab	0.055520695
191	0xbe36ce8b	-0.17852227
192	0x3d40956e	0.047017507
193	0x3db6aa31	0.0891918
194	0x3e279a16	0.16367373
195	0xbe1f3b9f	-0.15550087
196	0x3d303568	0.043019682
197	0x3e38181a	0.17977944
198	0xbcec31ee	-0.028832402
199	0xbb4adc2d	-0.003095399
200	0x3db36478	0.08759397
201	0xbd9d8e35	-0.076931395
202	0x3d8f5d23	0.07000186
203	0x3e61d300	0.22053146
204	0xbe0c9f8f	-0.13732742
205	0xbe57e5b7	-0.21083723
206	0xbcee360c	-0.029078506
207	0xbccbfbaf	-0.024900286
208	0x3d986301	0.074407585
209	0x3d24b3f9	0.040210698
210	0xbd45a5d2	-0.04825384
211	0x3d3e0900	0.0463953
212	0x3d1ea95a	0.038735725
213	0x3db5b58e	0.088725194
214	0x3e732c04	0.2374726
215	0x3e5f3fe5	0.21801718
216	0x3ce9e638	0.02855216
217	0xbdc3e71c	-0.09565565
218	0x3d2ad982	0.041711338
219	0xbe11e0e2	-0.14245942
220	0xbe29ff71	-0.1660135
221	0x3d96e8bd	0.0736861
222	0x3e072722	0.13198522
223	0xbd37b87d	-0.044853676
224	0x3c9ef7b3	0.019405222
225	0x3e44fe1c	0.1923756
226	0x3df07922	0.11741854
227	0x3ea99545	0.33121696
228	0x3e0fb85a	0.14035168
229	0xbd14d4ab	-0.03633563
230	0xbd593626	-0.053030156
231	0xbb3a00da	-0.0028381855
232	0x3d9ec98d	0.077532865
233	0x3de37d12	0.1110784
234	0xbe083c28	-0.13304198
235	0xbe34d326	-0.17658672
236	0xbccb64f3	-0.02482841
237	0x3dc66d5b	0.09688827
238	0x3d10c654	0.03534539
239	0x3d4eaed2	0.05045969
240	0x3e15970a	0.14608398
241	0x3d99d11e	0.07510589
242	0x3db5547b	0.08854004
243	0xbe42e384	-0.19032103
244	0x3d6db164	0.0580305
245	0x3c14e7a9	0.009088435
246	0x3d966a31	0.07344473
247	0x3e18983c	0.14901823
248	0x3dedcb49	0.11611039
249	0xbdc389e0	-0.09547782
250	0x3a0cd052	0.00053716183
251	0xbb209d00	-0.0024507642
252	0xbe72fe6a	-0.23729864
253	0xbd91586f	-0.070969455
254	0xbde7ca95	-0.11317936
255	0xbe01e22b	-0.12683932

tcn.1.conv1.conv.bias f4 [64]
0	0x3d662f90	0.056197703
1	0x3da89094	0.08230701
2	0x3c6c7466	0.014432048
3	0x3b7145cd	0.0036815286
4	0x3cee672c	0.02910193
5	0x3d92a287	0.07159906
6	0x3dce852c	0.10083994
7	0x3c290f91	0.010318653
8	0xbdb0da81	-0.08635426
9	0xbdc038c9	-0.09385831
10	0xbd7153ce	-0.058917813
11	0xbccb6b16	-0.024831336
12	0x3d0b275e	0.03397309
13	0xbd85a502	-0.06525613
14	0xbd8f8e27	-0.07009535
15	0x3db38e48	0.08767372
16	0x3d3d70d3	0.046250176
17	0xbda4055c	-0.08008835
18	0xbcd4aabc	-0.025960319
19	0x3d6c0e86	0.057631038
20	0xbd7236ce	-0.059134297
21	0xbd9ca4a0	-0.07648587
22	0x3db8baa2	0.090199724
23	0x3d8ff76c	0.07029614
24	0xbc3c4f4a	-0.011493513
25	0x3d9ee632	0.0775875
26	0x3d51b268	0.051195532
27	0x3dcc8bd7	0.0998761
28	0x3c5acae0	0.013354033
29	0x3d711637	0.058859076
30	0xbcddc88f	-0.027073173
31	0x3d2c379e	0.04204523
32	0xbd4ccd41	-0.050000433
33	0xbc4d81ad	-0.012543124
34	0xbd8ae929	-0.06782753
35	0xbd3ec6a8	-0.046576172
36	0x3c6bc1ee	0.014389498
37	0x3dc8aa06	0.097980544
38	0xbd80b9fe	-0.06285475
39	0xbd5667d2	-0.052345105
40	0xbbdbed6b	-0.006711652
41	0xbd0601f6	-0.032716714
42	0x3db34691	0.08753694
43	0x3c6c4bdb	0.014422382
44	0xbda31f4c	-0.07964954
45	0x3c028610	0.007966533
46	0xba1e725c	-0.00060442626
47	0xba6f1074	-0.0009119578
48	0x3ce9622b	0.028489193
49	0x3dbe29bd	0.09285305
50	0xbd95a785	-0.073073424
51	0x3aa8b88f	0.0012872386
52	0xbd58136c	-0.052752897
53	0xbc0fdae8	-0.008780219
54	0x3d3cc6b1	0.046087924
55	0x3d40ec78	0.047100514
56	0x3dc3212d	0.09527812
57	0xbdb2245c	-0.08698341
58	0xbda0da9b	-0.07854196
59	0xbc4afd11	-0.012389437
60	0x3c1072cd	0.008816433
61	0xbce35a20	-0.027752936
62	0x3d56d0bf	0.05244517
63	0xbcc01632	-0.023448084

tcn.1.bn1.weight f4 [64]
0	0x3f4e95de	0.8069743
1	0x3f93fbe8	1.1561251
2	0x3f876998	1.05791
3	0x3f994cdd	1.1976582
4	0x3f87bfb0	1.0605373
5	0x3f6a4087	0.9150471
6	0x3f800eb6	1.000449
7	0x3f8ec997	1.115527
8	0x3f6b5177	0.9192118
9	0x3f585aa7	0.84513324
10	0x3f4bd001	0.79614264
11	0x3f7725d7	0.96542114
12	0x3f5e70f2	0.8689109
13	0x3f5cf672	0.86313546
14	0x3f738534	0.95125127
15	0x3f6f2339	0.9341312
16	0x3f9393ea	1.1529515
17	0x3f8d7089	1.1049968
18	0x3f94fdd8	1.1639967
19	0x3f59f8d2	0.85145295
20	0x3f9c3f4c	1.2206817
21	0x3f4e5435	0.8059724
22	0x3f70c645	0.94052535
23	0x3f88a133	1.0674194
24	0x3f649768	0.8929353
25	0x3f4fcafb	0.811691
26	0x3f92b704	1.1462102
27	0x3f30b55f	0.6902675
28	0x3f4a4c45	0.7902263
29	0x3f5dfac1	0.86710745
30	0x3f61092d	0.87904626
31	0x3f70b1fd	0.9402159
32	0x3f9f8449	1.2462245
33	0x3f60dcd7	0.87836975
34	0x3f923634	1.1422791
35	0x3f68973f	0.90855783
36	0x3fa98dec	1.3246436
37	0x3f5e3e0c	0.86813426
38	0x3f9c4ed5	1.2211558
39	0x3f9a417c	1.2051234
40	0x3f9010d8	1.125514
41	0x3f942652	1.1574194
42	0x3fa2a648	1.2706995
43	0x3f816e23	1.0111736
44	0x3f82f347	1.0230492
45	0x3f5ff992	0.8749019
46	0x3f8efd7a	1.1171105
47	0x3f589b3f	0.84611887
48	0x3f6f21a3	0.934107
49	0x3f8e79b4	1.1130891
50	0x3f71b506	0.94416845
51	0x3f844014	1.0332055
52	0x3f3eb09f	0.7448825
53	0x3f6a525e	0.9153193
54	0x3f881dad	1.0634056
55	0x3f853903	1.0408024
56	0x3f69f403	0.9138796
57	0x3fa72366	1.3057678
58	0x3f6c880e	0.923951
59	0x3f6b54a3	0.9192602
60	0x3f83628b	1.0264448
61	0x3f496f79	0.7868572
62	0x3f8e13bb	1.1099771
63	0x3f825df0	1.0184917

tcn.1.bn1.bias f4 [64]
0	0xbe265752	-0.16244248
1	0x3d47e028	0.048797756
2	0xbe98588d	-0.2975506
3	0xbdd6feee	-0.10497843
4	0xbe3a4700	-0.18191147
5	0xbe10858c	-0.14113444
6	0xbe47cc79	-0.19511594
7	0xbe210100	-0.15723038
8	0xbea3f83a	-0.3202532
9	0xbe00ccb2	-0.12578085
10	0xbe84f026	-0.2596447
11	0xbe11fdad	-0.14256926
12	0xbe222950	-0.15836072
13	0xbe701473	-0.23445301
14	0xbdbb57a4	-0.091475755
15	0xbd83d197	-0.064364605
16	0xbbe286d7	-0.006913047
17	0xbd77458c	-0.06036906
18	0x3bfa8867	0.007645655
19	0xbe3d9244	-0.18512827
20	0xbe744b0b	-0.23856752
21	0xbda71e0e	-0.08160029
22	0xbe57c834	-0.21072465
23	0xbd022631	-0.031774703
24	0xbdd7cfe2	-0.105376974
25	0xbea4c6b6	-0.32182854
26	0xbe5ab8e6	-0.21359596
27	0xbedc7f2a	-0.43065768
28	0xbe5eacba	-0.21745577
29	0xbeab7b18	-0.3349235
30	0xbe5d69dd	-0.21622415
31	0xbe4d0881	-0.20022775
32	0x3e51274a	0.20425144
33	0xbe8103a5	-0.25198093
34	0x3cca25d7	0.024676247
35	0xbe5e36f5	-0.21700652
36	0xbe34981a	-0.17636147
37	0x3d98e49f	0.07465481
38	0xbe234acd	-0.15946503
39	0xbdc0720a	-0.09396751
40	0xbc390a2e	-0.011293931
41	0xbe630861	-0.22171165
42	0xbd87abdb	-0.06624576
43	0xbe7cbad0	-0.24680638
44	0xbe66f9de	-0.22556254
45	0xbe3bc512	-0.18336895
46	0xbe22c126	-0.15893993
47	0xbe6653d1	-0.22492911
48	0xbe71a015	-0.23596223
49	0x3cb32cfe	0.02187204
50	0xbe3dccbb	-0.1853513
51	0xbaa7ce60	-0.0012802593
52	0xbe996efb	-0.29967484
53	0xbe0eb866	-0.1393753
54	0x3dc256bb	0.09489199
55	0xbe3636fb	-0.17794411
56	0xbd8577f6	-0.06517021
57	0xba963bcd	-0.0011461914
58	0xbe00f526	-0.12593517
59	0xbe8f8772	-0.28033024
60	0xbe26404a	-0.16235462
61	0xbe440ff5	-0.19146712
62	0xbe3c5b1b	-0.18394129
63	0xbd68a3e1	-0.056796912

tcn.1.bn1.running_mean f4 [64]
0	0xbed97f52	-0.4247995
1	0x3c958c81	0.018255474
2	0xbf95bcc3	-1.169823
3	0xbec9f777	-0.39446613
4	0xbfa5f2ee	-1.2964761
5	0xbfb023b2	-1.3760893
6	0xbf35055f	-0.7071132
7	0xbff1fd64	-1.8905454
8	0x3f47a8f4	0.77992177
9	0xbfd8d014	-1.69385
10	0x3f99642c	1.1983695
11	0xbf25c744	-0.6475718
12	0x3e4ddb5e	0.20103213
13	0xbeebf9ce	-0.46089023
14	0xbda0a73d	-0.07844398
15	0xc0223598	-2.534521
16	0xbf6cc5da	-0.924894
17	0xbf3b4ad1	-0.73161036
18	0xbe8f4e92	-0.27989632
19	0xbee8cdb9	-0.45469454
20	0xbf262fb4	-0.6491654
21	0x3ce00892	0.027347837
22	0x3f5a1173	0.85182875
23	0xbded112e	-0.115755424
24	0x403bb484	2.9328928
25	0xbfaafabe	-1.335777
26	0x3fb2a998	1.3958006
27	0xbfe70331	-1.8047849
28	0xbf801123	-1.000523
29	0x3ff0011b	1.8750337
30	0x3d750a9c	0.05982457
31	0xbf07ff34	-0.53123784
32	0x3dd469e4	0.103717595
33	0x3eca08a9	0.39459732
34	0x3fadcd07	1.3578194
35	0xbf572d66	-0.8405365
36	0xbec41553	-0.3829752
37	0xbf076f72	-0.5290443
38	0xbf222e2c	-0.633517
39	0x3d98f89f	0.07469296
40	0x3f4f5a44	0.8099711
41	0xbe3f4097	-0.18676983
42	0xbf1bf25f	-0.60916704
43	0xbe7c9176	-0.24664864
44	0xbfb88c9a	-1.4417908
45	0xbf366b7d	-0.71257764
46	0x3d4c8b10	0.049937308
47	0xc031c0e5	-2.7773983
48	0xbe430144	-0.19043452
49	0xbfac3531	-1.3453733
50	0x3fc3e7fa	1.5305169
51	0xc003ff73	-2.0624664
52	0xbc7ca52b	-0.0154202385
53	0xc008d004	-2.1376963
54	0xbf944f02	-1.1586611
55	0xbf6a642c	-0.915591
56	0xbfe42911	-1.7825032
57	0xbf4d68dc	-0.8023813
58	0xc0101b15	-2.251653
59	0x3e8e5f20	0.2780695
60	0x3eefa75c	0.46807373
61	0x3ff4ebe8	1.9134493
62	0xbf752b22	-0.9576894
63	0xbd657457	-0.056019153

tcn.1.bn1.running_var f4 [64]
0	0x3f8ab552	1.0836585
1	0x3f9c6e87	1.222123
2	0x3f82f5f9	1.0231315
3	0x3f6955b7	0.91146415
4	0x3f54c819	0.83117825
5	0x3f4a99af	0.7914075
6	0x3f7fb008	0.9987798
7	0x3f904ad5	1.1272837
8	0x3efc4ce2	0.49277407
9	0x3f825c3e	1.01844
10	0x3fd1160f	1.6334857
11	0x3f810f00	1.0082703
12	0x3eed6b63	0.46370992
13	0x3f3f70b9	0.74781376
14	0x3f2ce69b	0.67539376
15	0x401606dc	2.3441687
16	0x3f2e3114	0.6804364
17	0x3f4e48fc	0.80580115
18	0x3f6252fb	0.8840787
19	0x3f9d7c2a	1.2303517
20	0x3f8fd431	1.1236631
21	0x3f134be8	0.575377
22	0x3ebb9b2a	0.36641818
23	0x3f4a8b12	0.79118454
24	0x3fc5a3e4	1.544064
25	0x3fa19557	1.26237
26	0x3f16f380	0.589653
27	0x402f20fd	2.7363884
28	0x3f3aec0a	0.7301642
29	0x3fdc6b69	1.7220279
30	0x3f1c3591	0.61019236
31	0x3f84d563	1.037762
32	0x3f394efc	0.72386146
33	0x3ef80da7	0.48447916
34	0x3f3e2342	0.7427255
35	0x3f097c78	0.5370555
36	0x3f4a5aea	0.79044974
37	0x3f519191	0.8186274
38	0x3f822254	1.0166726
39	0x3f7f67db	0.99767846
40	0x3f2ba934	0.6705506
41	0x3fb25c27	1.3934373
42	0x3f93ae5a	1.1537583
43	0x3f8921d8	1.0713453
44	0x3fb56bed	1.4173561
45	0x3fbc0c5e	1.4691274
46	0x3f3c0e3e	0.7345923
47	0x4008a515	2.1350758
48	0x3f4f0872	0.8087226
49	0x3f57e539	0.8433414
50	0x3f3248ba	0.6964222
51	0x3f3e844a	0.7442061
52	0x3f8786e3	1.0588039
53	0x3f9dff2d	1.2343498
54	0x3f542203	0.828644
55	0x3fbdedc5	1.4838187
56	0x3f8b3a73	1.0877212
57	0x3faaea35	1.3352724
58	0x3faacb7e	1.3343351
59	0x3f34fbcf	0.7069673
60	0x3eb716f1	0.3575969
61	0x3fc9e46f	1.5772837
62	0x3f6ab391	0.91680247
63	0x3f1cc375	0.61235744
