models/transformer_tr_small.pt (torch, 683675 bytes, 16 tensors)

input_proj.weight f4 [32, 16]
000000 1d 6d 87 3f 7d 32 39 bc e5 c0 ae bc 5b f0 db bc
       1.0580174 -0.011303541 -0.021332214 -0.026848009
000010 10 d1 1b 3d 73 f0 10 3e 3f d2 7e bd c9 8c 05 bc
       0.038041174 0.14154224 -0.062212225 -0.008151242
000020 d2 22 86 3c 65 1f 4c be 81 82 47 3e 54 62 07 be
       0.016374025 -0.19933851 0.19483377 -0.13221103
000030 7f 75 b3 bd 6d c9 9b bd ed 73 f3 bc 24 e5 21 bd
       -0.08762645 -0.07606778 -0.029718364 -0.039525166
000040 b8 49 23 bf fc 1e cc 3d ff 7f a4 3c 6e 93 01 bd
       -0.6378436 0.09966847 0.020080565 -0.03163474
000050 ad 92 40 bb e5 cd 85 bd ad e7 0a 3e 33 df a1 bd
       -0.00293843 -0.06533412 0.1356494 -0.079039
000060 9a 52 6b be de 25 57 be 40 27 9c 3d c4 05 27 3e
       -0.22980729 -0.21010539 0.07624674 0.16310793
000070 21 78 97 bd c2 f5 44 be ce 97 5e 3d 4c 43 56 3d
       -0.0739596 -0.19234374 0.05434399 0.052310273
000080 fb 0d a6 bf 87 26 56 3d 38 ed be bd ff 10 be bd
       -1.2973017 0.052282836 -0.0932259 -0.092805855
000090 04 2e 88 3d 53 d1 3e 3b df 38 e0 39 a1 69 e8 bc
       0.06649402 0.0029116466 0.00042766982 -0.02837068
0000a0 82 92 6c 3e 28 1a a1 3d 08 c2 5d 3e 12 ba 00 be
       0.23102763 0.07866317 0.21656048 -0.1257098
0000b0 17 43 0f bd 9d a6 e0 3d 42 5b 13 bd 04 a8 f1 3b
       -0.03497609 0.10969279 -0.035975702 0.0073747654
0000c0 59 5b b0 bf 4b 31 8f bd 8e 6c 2c bd 4f 57 5a 3d
       -1.3777877 -0.06991824 -0.042095713 0.05330592
0000d0 33 27 4a 3d f1 fd 14 3e 1f 92 27 be e0 26 c1 3d
       0.04935379 0.14549996 -0.16364335 0.09431243
0000e0 7e 6a a1 3d 5a 41 fa bd f9 3e 52 be bc 18 46 3d
       0.0788164 -0.12219496 -0.20531835 0.048363432
0000f0 49 f4 55 bd a7 d7 22 bb ef c8 08 bd 4d 4d ef bc
       -0.05223492 -0.0024847777 -0.03339475 -0.029211665
000100 d7 97 9d bf c0 0b 25 3d e5 76 b9 3d 7a 6a 05 bc
       -1.2311963 0.04029441 0.090558805 -0.008143062
000110 30 8a 6f bd 09 2e ad bd 9d 50 a5 bd 08 2c 3d 3d
       -0.058481395 -0.08456046 -0.080720164 0.04618457
000120 7a a4 d7 3c 55 3b 04 be c7 a4 29 bd 52 5d 46 3e
       0.026323546 -0.12913258 -0.04141691 0.19371536
000130 34 ba 1e bd 3f 5c 89 3d 31 13 87 bc 47 41 26 bd
       -0.038751796 0.06707048 -0.016488643 -0.040589597
000140 67 df e7 bf 11 d3 d6 ba e2 41 41 3c b8 a5 ac bb
       -1.8115052 -0.0016389807 0.011795493 -0.0052687787
000150 e0 16 f6 3b 9b 27 10 bd ed 8c 89 bc b1 57 39 bd
       0.007510051 -0.03519402 -0.016790831 -0.045249645
000160 39 ae 29 be 28 40 1f be 94 8c 54 3e 56 97 89 3d
       -0.16570367 -0.15551817 0.20756751 0.06718318
000170 57 61 e7 bc fc ef 8d bb b9 55 c7 bc ac 8f e6 bc
       -0.028244657 -0.004331587 -0.024332868 -0.02814468
000180 1a b5 a6 3f 88 a5 08 3d 42 14 72 3d e2 27 00 bd
       1.3024018 0.033360988 0.05910135 -0.031288035
000190 62 e6 47 bd 1c d3 28 bb bf dc 6c 3c 18 cc de bb
       -0.048803695 -0.0025760597 0.014456927 -0.006799232
0001a0 cb 51 9d 3d da f9 15 bd 48 3f 38 3d 60 b8 16 3e
       0.076816164 -0.03661523 0.044982225 0.14718771
0001b0 ad 15 85 3c 7d 67 03 bc bb 1e 89 3a 3f d9 f0 bb
       0.016245687 -0.008020279 0.0010461429 -0.0073501165
0001c0 9a 91 df 3e f1 81 f9 bc ac 86 f2 3a 6d e6 57 3d
       0.43665773 -0.030457469 0.001850327 0.052709986
0001d0 29 87 4b 3d f5 ae 86 3d 5d f5 4e bd ee c3 87 3e
       0.049689446 0.06576339 -0.050526965 0.2651667
0001e0 ef c4 9a bd 69 87 80 be 75 e8 9c be 83 9a 70 bd
       -0.07557093 -0.2510331 -0.306461 -0.058741104
0001f0 f3 4d a2 3d 26 37 2f 3e 32 0b a7 3c a9 84 ac 3b
       0.07925024 0.17110881 0.02039108 0.0052648378
000200 8b ef c6 3f e4 04 93 3d 3d ff 8e 3d 40 6c d4 ba
       1.5541853 0.07178667 0.069822766 -0.0016206577
000210 f0 30 36 bd fb 6e 6f bd 16 84 8c bd 87 6e 9d 3d
       -0.044480264 -0.05845545 -0.06861131 0.07687097
000220 e3 22 e0 bd c0 cd aa 3d b2 a5 e7 bc 8c bf 39 bd
       -0.10944154 0.08340025 -0.028277252 -0.04534869
000230 86 ad 95 3d eb 94 5b 3d c7 30 9a bb 6a 8d 72 3d
       0.073084876 0.053608816 -0.0047055217 0.059216894
000240 5a 7f ac bf 38 63 06 3e 05 0a 00 3d 7b a4 45 bd
       -1.3476365 0.13123786 0.031259555 -0.048252564
000250 b0 bd 76 bd 75 9d 0f be a3 7c 0c 3e b2 eb f4 bd
       -0.060239494 -0.14024909 0.1371942 -0.11959018
000260 0c bc 53 be c5 06 ad 3d c5 15 9c 3d 78 14 13 3e
       -0.20677203 0.08448557 0.0762134 0.14363277
000270 20 1c 6e 3c 7c b0 a6 bc 07 eb b1 3c 0a 34 13 3d
       0.014533073 -0.020347826 0.021718515 0.0359383
000280 58 a0 af bf 97 31 85 bd 51 a1 83 bd e9 8c 62 3d
       -1.3720808 -0.06503599 -0.06427253 0.055310164
000290 11 aa 55 3d f5 79 ef 3c 1b 8a bf bd fb 3e 20 3e
       0.05216414 0.029232958 -0.093525134 0.15649025
0002a0 5a 59 6d bd ee 65 c6 3c 21 ba 3e 3d df f2 aa bc
       -0.05794654 0.024218526 0.046564225 -0.020867763
0002b0 19 93 cd 3d a6 88 0f 3e 61 87 05 bd e0 1f 07 3d
       0.10037822 0.14016971 -0.03259981 0.032989383
0002c0 d5 2e 62 3f 93 b4 df bd 82 ef 61 bd 9b c2 05 3d
       0.8835271 -0.10923114 -0.055160053 0.032656293
0002d0 fd 2c 14 3d d0 ea ab 3d f8 84 0e be 17 41 7b 3d
       0.036175717 0.08394396 -0.13917911 0.06134137
0002e0 3d 61 8b 3e ce 5f 14 be d6 ec ba bb 72 37 9c 3a
       0.27222624 -0.14489672 -0.0057045026 0.001191838
0002f0 f7 1a 74 3d 40 cc 3e 3d ec c9 50 bd 2d 59 36 3d
       0.05959603 0.046581507 -0.050973818 0.04451864
000300 37 79 87 3f b8 c6 4b be 5d 71 0c 3e a4 c1 af 3d
       1.0583867 -0.19900024 0.1371512 0.08581856
000310 99 af a7 bd 0e 3d de 3c e0 f9 de bc 4a 7a 64 be
       -0.081877895 0.027128723 -0.027218759 -0.22312275
000320 e4 6a 89 3d 43 a7 82 bd 03 d9 24 3e 12 a0 26 3e
       0.06709841 -0.06379559 0.16098408 0.16272
000330 07 cd 80 be 0d bc 23 3d 04 e9 21 be 20 60 bf be
       -0.25156423 0.03997426 -0.15811545 -0.37378025
000340 41 a2 66 bf 65 93 74 3e 18 30 81 3d 39 3b 08 be
       -0.9009133 0.23884352 0.06308001 -0.13303842
000350 8b 42 ae bd 2f 65 60 3b 63 30 6d 3d d2 f8 59 be
       -0.08508786 0.0034239998 0.057907473 -0.21286324
000360 af d1 57 be 28 8d 49 3e 31 db a7 bd eb f9 a5 bc
       -0.21076082 0.19682753 -0.08196104 -0.020260772
000370 ec 01 83 bc 1a 39 37 be 41 19 1b bd 68 6d 1b bd
       -0.015992127 -0.17892876 -0.03786588 -0.037946135
000380 d1 6e a0 bf 31 96 43 3e 33 0f 0a 3e 0d 5d 1d be
       -1.2533818 0.19100262 0.1348236 -0.15367527
000390 a9 45 f6 bd f2 b6 33 be 32 de ed 3d 1a 4d c5 3d
       -0.12025005 -0.17550257 0.11614646 0.096338466
0003a0 86 7d 7e 3e 50 b8 2e 3e 87 bd 23 3e 32 fe 50 3e
       0.24852571 0.17062497 0.15990268 0.20409468
0003b0 a0 d8 05 3e 9e 49 24 bc 70 83 a8 3c 02 c7 f5 bc
       0.13070917 -0.010027317 0.020570487 -0.03000212
0003c0 4d 95 04 bf 70 4a 21 3d 94 9b dd bd c1 d1 e1 3c
       -0.51790315 0.03937763 -0.1082069 0.027565839
0003d0 a5 e8 13 3e 38 bf 0c be 32 56 9b 3d d4 22 83 be
       0.14444216 -0.13744819 0.075848 -0.2561251
0003e0 05 68 98 bd 9f cd a5 be 22 68 ef bd b5 7d 62 be
       -0.07441715 -0.3238344 -0.11689784 -0.22118266
0003f0 a2 36 0e be d3 4c f0 be c2 46 b2 bd d2 1f ad be
       -0.13888028 -0.46933612 -0.08704902 -0.3381334

input_proj.bias f4 [32]
000000 57 b6 94 be 99 e7 8c 3e ea fc ef 3d 85 74 a9 bb
       -0.29045364 0.27520445 0.117181614 -0.005171361
000010 54 30 f9 3d 4b 9c bc bd 01 4b e1 be da 55 92 be
       0.12167421 -0.09209498 -0.44002536 -0.28581125
000020 66 6a 32 bf 04 bf 41 3f 5e 13 93 3e 06 30 94 bd
       -0.696936 0.7568209 0.28725713 -0.07235722
000030 91 77 5b be 38 45 c8 bd 49 36 29 3e f0 9a 28 3e
       -0.2143233 -0.097788274 0.16524614 0.16465354
000040 39 77 a0 be db 96 dc 3e b2 4e f5 3e c2 c0 0c 3e
       -0.3134096 0.43083844 0.47911602 0.13745406
000050 df 41 b6 bd b9 9a 4b be 91 fa 24 be d6 15 0b be
       -0.08899283 -0.19883241 -0.16111208 -0.13582548
000060 82 f5 d1 3e b4 12 09 3e 20 7f 2b 3e 35 ef d1 be
       0.4100762 0.13386041 0.16747713 -0.41002813
000070 28 60 7c be 39 b2 ac 3e a9 46 ba be 52 b6 f2 bb
       -0.24646056 0.33729723 -0.36382034 -0.007406988

pos_encoder.pe f4 [5000, 1, 32]
000000 00 00 00 00 00 00 80 3f 00 00 00 00 00 00 80 3f
       0.0 1.0 0.0 1.0
000010 00 00 00 00 00 00 80 3f 00 00 00 00 00 00 80 3f
       0.0 1.0 0.0 1.0
000020 00 00 00 00 00 00 80 3f 00 00 00 00 00 00 80 3f
       0.0 1.0 0.0 1.0
000030 00 00 00 00 00 00 80 3f 00 00 00 00 00 00 80 3f
       0.0 1.0 0.0 1.0
000040 00 00 00 00 00 00 80 3f 00 00 00 00 00 00 80 3f
       0.0 1.0 0.0 1.0
000050 00 00 00 00 00 00 80 3f 00 00 00 00 00 00 80 3f
       0.0 1.0 0.0 1.0
000060 00 00 00 00 00 00 80 3f 00 00 00 00 00 00 80 3f
       0.0 1.0 0.0 1.0
000070 00 00 00 00 00 00 80 3f 00 00 00 00 00 00 80 3f
       0.0 1.0 0.0 1.0
000080 a4 6a 57 3f 41 51 0a 3f ba 7d 08 3f 0e 94 58 3f
       0.84147096 0.54030234 0.53316844 0.84600914
000090 3e 39 9f 3e 6b 4e 73 3f 3a 23 35 3e 83 f6 7b 3f
       0.3109836 0.9504153 0.17689219 0.9842302
0000a0 76 75 cc 3d 98 b8 7e 3f ae 36 66 3d 68 98 7f 3f
       0.099833414 0.9950042 0.05620449 0.9984193
0000b0 5b 81 01 3d 3c df 7f 3f 43 ab 91 3c a3 f5 7f 3f
       0.031617504 0.99950004 0.01778186 0.99984187
0000c0 57 d6 23 3c b9 fc 7f 3f 5a 44 b8 3b f7 fe 7f 3f
       0.009999833 0.99995 0.0056233825 0.9999842
0000d0 1c 3e 4f 3b ac ff 7f 3f 20 15 e9 3a e6 ff 7f 3f
       0.0031622713 0.999995 0.0017782785 0.99999845
0000e0 6d 12 83 3a f8 ff 7f 3f 13 6a 13 3a fe ff 7f 3f
       0.0009999998 0.9999995 0.0005623411 0.9999999
0000f0 60 cb a5 39 ff ff 7f 3f 53 77 3a 39 00 00 80 3f
       0.0003162278 0.99999994 0.00017782794 1.0
000100 b7 c7 68 3f 33 11 d5 be 0a f2 66 3f b2 e8 dc 3e
       0.9092974 -0.41614684 0.9021307 0.43146282
000110 1b 54 17 3f ec 7b 4e 3f f6 47 b2 3e a6 fa 6f 3f
       0.5911271 0.8065784 0.34820527 0.93741834
000120 f8 6f 4b 3e a5 e5 7a 3f 86 d9 e5 3d f3 61 7e 3f
       0.19866931 0.9800666 0.1122313 0.9936821
000130 c8 70 81 3d f9 7c 7f 3f 5d a5 11 3d 8e d6 7f 3f
       0.063203394 0.9980007 0.035558093 0.9993676
000140 3e d4 a3 3c e5 f2 7f 3f 9b 43 38 3c db fb 7f 3f
       0.019998666 0.9998 0.011246587 0.99993676
000150 d8 3d cf 3b b1 fe 7f 3f 08 15 69 3b 96 ff 7f 3f
       0.006324511 0.99998003 0.0035565514 0.9999937
000160 68 12 03 3b df ff 7f 3f 12 6a 93 3a f5 ff 7f 3f
       0.0019999985 0.99999803 0.0011246821 0.99999934
000170 5f cb 25 3a fd ff 7f 3f 53 77 ba 39 ff ff 7f 3f
       0.0006324555 0.9999998 0.00035565588 0.99999994
000180 c3 81 10 3e 26 70 7d bf d7 45 7e 3f ab 7f ed bd
       0.14112 -0.9899925 0.9932532 -0.11596616
000190 c2 09 50 3f 58 2f 15 3f 6c 2f 02 3f 29 6d 5c 3f
       0.8126489 0.58275366 0.5085361 0.86104065
0001a0 6c 4e 97 3e ef 90 74 3f d7 ee 2b 3e 9e 5d 7c 3f
       0.2955202 0.9553365 0.16790329 0.9858035
0001b0 c0 ff c1 3d 4f d9 7e 3f 4f 69 5a 3d c3 a2 7f 3f
       0.094726086 0.99550337 0.053323086 0.9985773
0001c0 1f b9 f5 3c 83 e2 7f 3f c6 31 8a 3c ad f6 7f 3f
       0.0299955 0.99955004 0.016869437 0.9998577
0001d0 0d 6e 1b 3c 0d fd 7f 3f a8 cf ae 3b 11 ff 7f 3f
       0.009486687 0.999955 0.005334813 0.99998575
0001e0 92 9b 44 3b b5 ff 7f 3f 17 1f dd 3a e8 ff 7f 3f
       0.0029999954 0.9999955 0.0016870227 0.99999857
0001f0 0e b1 78 3a f9 ff 7f 3f 7e d9 0b 3a fe ff 7f 3f
       0.00094868324 0.9999996 0.0005334838 0.9999999
000200 cf bd 41 bf 30 55 27 bf ec 49 47 3f 9e af 20 bf
       -0.7568025 -0.6536436 0.7784717 -0.6276797
000210 de 1d 74 3f b1 2e 9a 3e bc 1f 27 3f ed eb 41 3f
       0.95358074 0.30113748 0.652828 0.7575062
000220 d7 61 c7 3e a7 ca 6b 3f c5 65 64 3e 09 8d 79 3f
       0.38941833 0.921061 0.22304447 0.9748083
000230 88 2e 01 3e 69 f4 7d 3f c9 8d 91 3d 46 5a 7f 3f
       0.12615407 0.99201065 0.071071215 0.9974712
000240 db cb 23 3d 94 cb 7f 3f a0 40 b8 3c 6c ef 7f 3f
       0.039989334 0.9992001 0.022491753 0.99974704
000250 c9 3c 4f 3c c2 fa 7f 3f a7 14 e9 3b 58 fe 7f 3f
       0.01264877 0.99992 0.0071130577 0.9999747
000260 57 12 83 3b 7a ff 7f 3f 0c 6a 13 3b d6 ff 7f 3f
       0.003999989 0.999992 0.0022493629 0.9999975
000270 5d cb a5 3a f3 ff 7f 3f 52 77 3a 3a fc ff 7f 3f
       0.0012649108 0.9999992 0.0007113117 0.99999976
000280 10 7c 75 bf 2c 3c 91 3e d8 da a5 3e 40 32 72 bf
       -0.9589243 0.2836622 0.32393527 -0.94607925
000290 7f fc 7f 3f e9 72 29 bc ab ca 46 3f f1 4c 21 3f
       0.99994653 -0.010342338 0.77652997 0.6300803
0002a0 43 77 f5 3e 40 a9 60 3f ed 11 8e 3e 7c f2 75 3f
       0.47942552 0.87758255 0.2774805 0.96073127
0002b0 1d 3c 21 3e 81 ce 7c 3f 22 db b5 3d 1e fd 7e 3f
       0.15745588 0.987526 0.08879687 0.99604976
0002c0 f4 b6 4c 3d 19 ae 7f 3f fb 4d e6 3c 19 e6 7f 3f
       0.049979165 0.99875027 0.028113356 0.99960476
0002d0 7e 85 81 3c cf f7 7f 3f bb ac 11 3c 69 fd 7f 3f
       0.015810724 0.999875 0.00889128 0.9999605
0002e0 dd d6 a3 3b 2f ff 7f 3f 89 44 38 3b be ff 7f 3f
       0.004999979 0.99998754 0.0028117022 0.99999607
0002f0 32 3e cf 3a eb ff 7f 3f 26 15 69 3a f9 ff 7f 3f
       0.0015811382 0.99999875 0.0008891396 0.9999996
000300 8c 0f 8f be b8 cd 75 3f 76 e5 6b be 53 1d 79 bf
       -0.2794155 0.96017027 -0.23036751 -0.9731037
000310 4e 78 72 3f 6d 3f a4 be 88 30 60 3f 35 2f f7 3e
       0.9471482 -0.3207964 0.8757405 0.48278204
000320 68 8c 10 3f 32 49 53 3f fc 7d a9 3e e2 90 71 3f
       0.5646424 0.8253356 0.3310393 0.943617
000330 6e 20 41 3e e3 67 7b 3f c3 19 da 3d 51 8b 7e 3f
       0.18860027 0.98205394 0.10649445 0.9943133
000340 d1 9c 75 3d 12 8a 7f 3f be 2c 0a 3d b3 da 7f 3f
       0.059964005 0.99820054 0.033734076 0.99943084
000350 43 6c 9b 3c 34 f4 7f 3f 05 cf 2e 3c 45 fc 7f 3f
       0.018972522 0.99982 0.0106694745 0.9999431
000360 58 9b c4 3b d2 fe 7f 3f 03 1f 5d 3b a1 ff 7f 3f
       0.0059999637 0.999982 0.0033740408 0.99999434
000370 06 b1 f8 3a e2 ff 7f 3f 7c d9 8b 3a f7 ff 7f 3f
       0.0018973656 0.9999982 0.0010669674 0.99999946
000380 46 30 28 3f bd ff 40 3f 70 b6 36 bf 5e 4f 33 bf
       0.6569866 0.75390226 -0.7137213 -0.7004298
000390 6e e8 4c 3f bc 74 19 bf 44 84 72 3f ba f8 a3 3e
       0.8004216 -0.5994375 0.9473307 0.320257
0003a0 72 eb 24 3f b3 cc 43 3f de 60 c4 3e c6 6b 6c 3f
       0.6442176 0.7648422 0.38355154 0.9235195
0003b0 50 d3 60 3e ea c0 79 3f bc 46 fe 3d e9 04 7e 3f
       0.2195561 0.9755999 0.12415835 0.9922624
0003c0 32 3e 8f 3d 81 5f 7f 3f 5e 31 21 3d 3b cd 7f 3f
       0.06994285 0.997551 0.03935372 0.9992253
0003d0 a2 52 b5 3c f2 ef 7f 3f 2a f1 4b 3c ec fa 7f 3f
       0.022134129 0.999755 0.012447635 0.9999225
0003e0 c5 5f e5 3b 65 fe 7f 3f bc fc 80 3b 7e ff 7f 3f
       0.006999942 0.9999755 0.0039363783 0.99999225
0003f0 ec 11 11 3b d7 ff 7f 3f 66 28 a3 3a f3 ff 7f 3f
       0.0022135926 0.99999756 0.0012447953 0.9999992

transformer_encoder.layers.0.self_attn.in_proj_weight f4 [96, 32]
000000 25 5a a0 be 93 1e 93 be f3 d9 9b be 76 1a 4f 3d
       -0.31318775 -0.28734264 -0.3043972 0.050562344
000010 74 53 9c be dc d7 9e bd 0c 78 64 be 10 72 a7 bd
       -0.3053242 -0.07756016 -0.22311419 -0.081760526
000020 e0 6f be 3d 1d 72 a1 bd 6d c2 2a be 3c 47 d4 3e
       0.09298682 -0.078830935 -0.1667573 0.41460598
000030 6e a4 30 be 4d 64 6f 3e e9 df c9 3d 41 5b 52 be
       -0.17250225 0.23378105 0.098571606 -0.20542623
000040 6b ea a2 be ef 66 b1 3d 0b 3d ed bd 96 ba ae 3c
       -0.31819472 0.08662211 -0.11583909 0.021329205
000050 23 57 ab be 32 01 90 3e a7 fc 91 bd e0 f8 b6 be
       -0.33464918 0.28125912 -0.07128268 -0.35736752
000060 6d 32 79 be 69 d5 82 be ea 71 bd 3d 1d da ff bd
       -0.24335642 -0.25553444 0.09250243 -0.12492774
000070 94 28 af bd af d2 70 3e 8a 92 10 be e5 ef 63 be
       -0.085526615 0.2351787 -0.141184 -0.22259481
000080 0d ee 0f 3e d7 63 d4 be 76 ae bc 3d ef 50 e8 bd
       0.14055653 -0.41482422 0.09212963 -0.11343562
000090 d4 56 86 bc 18 0c c4 bd 3f 18 8f bd 23 c2 e6 3d
       -0.016398825 -0.09572619 -0.069870465 0.112674974
0000a0 95 01 b3 bc 68 c0 4d be c1 5c 05 3e 50 9e 01 bd
       -0.02185134 -0.20092928 0.13023664 -0.03164512
0000b0 5e 27 96 be 95 6b ee be 15 a2 b8 be a0 71 b6 be
       -0.2932691 -0.46566454 -0.3606116 -0.35633564
0000c0 7a 77 84 bd 71 db 25 3e 46 3a 23 bb 6e d2 db bd
       -0.06468101 0.16196992 -0.002490656 -0.10733496
0000d0 b0 c6 92 3d 0d ac 66 be 4f 29 6d be 6c 07 c6 3e
       0.07166803 -0.2252657 -0.23160289 0.38677537
0000e0 c4 f3 16 bc 88 ae c5 bd 4c 5e b6 3d e9 0e eb be
       -0.009213392 -0.0965243 0.089047045 -0.45909813
0000f0 74 d6 81 be b6 eb e2 bd e8 47 c3 3d 08 4f 02 be
       -0.25358927 -0.110801145 0.095351994 -0.1272546
000100 7d f2 da 3d 4e d3 9c 3e 13 e6 16 3e ea 14 30 be
       0.10690782 0.30629963 0.14736204 -0.17195478
000110 69 31 cf bd 79 a7 54 3e a3 c1 87 3e ca 04 42 be
       -0.10116846 0.20767011 0.2651492 -0.1894714
000120 3d 41 0c 3d e5 cc 92 bc fb 35 a5 be 4f b4 e8 bd
       0.034241904 -0.017919967 -0.32267746 -0.11362516
000130 01 54 04 bc 5a a1 02 3f 19 97 f9 3e fb 63 e8 bd
       -0.008076669 0.5102745 0.4874809 -0.11347195
000140 5c f7 bf bd 0e 71 f0 bc 55 9e e7 3c 3c 89 cf 3e
       -0.09373352 -0.029350784 0.02827374 0.4053439
000150 d5 73 a9 be 8c 6d fa 3d 27 d2 20 3e 4c 63 40 be
       -0.33096185 0.12227926 0.15705167 -0.18787879
000160 8d 44 bd 3c 74 d2 dc 3d c1 16 29 3e f5 37 f6 3e
       0.023103977 0.10782328 0.16512586 0.48089567
000170 4e e5 bf bc bb 55 a4 bd ee 84 08 bd 88 3a 6b be
       -0.02342477 -0.08024164 -0.033329897 -0.22971547
000180 07 8b 85 3e 8e 8a 84 be 9b e5 63 3d 3b d9 33 be
       0.26082632 -0.2588696 0.05563889 -0.17563336
000190 19 1d bf be e0 0b 09 be ee e2 b0 bd a3 4f 6d bd
       -0.37326887 -0.13383436 -0.086370334 -0.057937276
0001a0 b6 94 20 3e 73 2a 16 3e 14 cc db bd 6b 69 ab 3e
       0.15681729 0.1466463 -0.10732284 0.33478865
0001b0 4a d7 ee bd de 56 64 3e a7 fe 2f bf 09 10 db 3d
       -0.11662157 0.22298762 -0.68747944 0.10696418
0001c0 4d d8 e1 3d 82 a1 1d bd e7 49 4d be 4a 92 78 be
       0.11027584 -0.038484104 -0.20047723 -0.24274555
0001d0 f6 f7 b1 bd e0 d7 a3 3e fd f1 f6 bc 5a 9e c8 be
       -0.08689873 0.32000637 -0.030144686 -0.39183313
0001e0 9d af 74 3e 92 03 45 bd c9 af ae be 60 35 17 3e
       0.23895116 -0.048099108 -0.34118488 0.14766455
0001f0 02 4b 3b be 46 c4 66 be ca 75 13 3f 6f 15 1a be
       -0.18290332 -0.2253581 0.57601607 -0.15047239
000200 2f e8 c8 3d 14 05 55 3c ea 2e 15 be 64 be 8e be
       0.098099105 0.013001699 -0.14568678 -0.27879632
000210 28 d5 57 bd 14 c0 0f 3c ae b8 b5 bc 86 d0 7f be
       -0.052693516 0.008773822 -0.022182789 -0.24981889
000220 41 61 2a bd 66 8f 55 be f5 87 00 be 20 26 29 3e
       -0.041596655 -0.20855483 -0.12551863 0.1651845
000230 28 e5 bd 3d be 94 66 be 70 0d 38 3e de 2a 48 be
       0.09272224 -0.22517678 0.17973876 -0.19547603
000240 98 fb 05 be 93 58 86 bc 8c 23 8d 3d e7 50 8b be
       -0.13084257 -0.016399657 0.06891546 -0.2721016
000250 81 1a d2 3c e9 8a 28 bd 09 77 30 be 56 40 b6 3b
       0.025647404 -0.0411481 -0.17232908 0.0055618687
000260 77 af 80 be 47 d2 81 be 36 23 1a be 16 14 ee be
       -0.2513387 -0.2535574 -0.15052494 -0.464997
000270 b0 a7 64 be e2 b8 fd be c5 de ac bd 81 3b 42 3d
       -0.22329593 -0.49555117 -0.084409274 0.04742003
000280 f0 ca e9 3e aa 3b 8b 3e 16 ff f5 3d a0 8b 59 bc
       0.45662642 0.27193958 0.120115444 -0.013277918
000290 22 65 a7 3e 60 d7 0a be f0 a7 7b 3e dd a6 00 be
       0.32694346 -0.13558722 0.24575782 -0.12563653
0002a0 97 eb 1c be 13 49 2c be 5e 20 5b 3e d1 5c 37 be
       -0.15324245 -0.1682475 0.21399066 -0.179065
0002b0 aa 1d 53 be cb bc 3e bf c9 89 0a bf 37 69 16 3e
       -0.20616785 -0.74506825 -0.54116493 0.14688574
0002c0 f9 19 f0 3d af 78 53 3d a2 b1 2b 3e 49 13 b0 be
       0.11723704 0.051628765 0.1676698 -0.34389713
0002d0 4f a3 13 3e d3 71 f8 be 61 da 01 3d eb 62 52 3e
       0.14417766 -0.4852434 0.031702403 0.20545547
0002e0 bd 93 95 3e 7a ea 8b be 1d 44 23 3d 5a d3 4f 3e
       0.29214278 -0.2732733 0.03985988 0.20295468
0002f0 21 da dd 3b c3 d9 1b be 26 a8 df 3c 9d 23 8e bd
       0.0067703878 -0.15219788 0.02730186 -0.069403864
000300 a7 60 60 3e 12 c4 fc 3c 2c 83 28 3e e3 45 60 3e
       0.2191187 0.030855212 0.16456288 0.2190166
000310 96 da 5c 3e ad f8 1f 3d e7 6d 76 3e 86 c4 8d 3d
       0.21567759 0.039055515 0.24065362 0.069222495
000320 8e ab f0 3e 2a 6c 49 bd 74 78 24 3d 80 da 59 bc
       0.47005886 -0.04917542 0.040153936 -0.013296723
000330 99 30 88 3d dd ba 5f 3e 9e 05 da 3d fe f2 a5 bb
       0.06649894 0.21848626 0.10645603 -0.0050643673
000340 88 7f 3b 3e 8e 3e a8 3e 30 e8 96 bd 14 78 f6 3c
       0.18310368 0.32860225 -0.07368505 0.030086555
000350 dd 9c 72 3e a5 90 e0 3e 14 d6 c4 3d 80 e1 a6 3e
       0.23692651 0.43860355 0.09611145 0.32593918
000360 9e 4b 32 3e a4 90 85 bd da 43 82 3c ad d1 1d 3f
       0.17411658 -0.06521729 0.015901495 0.61648065
000370 35 46 b9 3e 11 54 97 bd 35 25 0d 3c 69 04 c0 3c
       0.36186376 -0.07389081 0.008614828 0.023439603
000380 d4 a3 31 be 48 c6 fd bd 6f ed a2 be a9 fe 0c be
       -0.17347652 -0.12391335 -0.31821772 -0.1376902
000390 88 1a d4 bd 6f 4d 10 3d a2 2f 5c bd c7 ba 5c 3d
       -0.10356623 0.035230096 -0.053756364 0.053889062
0003a0 5d 10 88 3e db 93 a3 be 12 9d 3b 3e d2 2c 61 3c
       0.26574984 -0.31948742 0.18321636 0.013743596
0003b0 b2 41 96 3e ba 00 a1 3d 83 e7 9a bc c5 6d 39 3e
       0.29346997 0.07861467 -0.018909222 0.1810828
0003c0 0b c8 ce 3e 35 b7 91 3e 45 79 43 3e fb 02 18 3e
       0.40386996 0.28460088 0.1908923 0.14844887
0003d0 99 f9 d7 bd 55 3d af 3e b5 e7 83 3e b4 8b 8d be
       -0.10545654 0.3422648 0.25762716 -0.27645648
0003e0 26 98 47 3d 9a c1 98 bd 62 f2 77 bd f8 93 0a 3f
       0.048729084 -0.074588016 -0.06053389 0.5413203
0003f0 5f d9 85 3d e1 48 04 3f 91 9b ce bc 45 42 c6 3e
       0.06535601 0.51673704 -0.025220664 0.38722435

transformer_encoder.layers.0.self_attn.in_proj_bias f4 [96]
000000 f1 e5 73 bc d7 8c 0a be 71 94 98 3d 55 85 d4 3d
       -0.014886365 -0.13530289 0.07450188 0.103769936
000010 47 8e 1a be 89 fc f3 bd b1 17 53 3d 9d 23 1b 3e
       -0.15093337 -0.11913402 0.051536266 0.15150304
000020 96 5b c2 3e c9 4f 72 bd e6 c8 41 be eb 42 94 be
       0.379605 -0.05915812 -0.18924293 -0.28957304
000030 04 1a ad be 76 12 b9 3d e7 b9 04 be 95 fd ad 3e
       -0.3380891 0.09036724 -0.12961541 0.3398253
000040 66 92 ee bd 56 93 0c 3d 62 00 39 3e 06 fc 1a be
       -0.11649017 0.034320198 0.18066552 -0.15135202
000050 3d 77 9e bd e3 07 93 bd a6 10 c5 3d 9a f4 59 3d
       -0.07737587 -0.07179239 0.09622316 0.053211786
000060 ba ed 58 bc d6 03 cf 3e eb b7 7e bd d5 fa 74 3d
       -0.013240272 0.40432614 -0.062187117 0.059809525
000070 79 f5 57 3e a7 61 73 3e 91 77 d0 be 34 5b 6f 3e
       0.21089734 0.2376772 -0.40716222 0.23374635
000080 34 3c ea 39 9d 94 0e b9 b2 53 db 38 15 dd 96 39
       0.00044676813 -0.00013597538 0.00010458323 0.00028774948
000090 df 2a 84 38 d3 bc 15 ba c2 72 59 b9 27 8a 8b b9
       6.302236e-05 -0.0005712036 -0.00020737483 -0.00026615078
0000a0 05 c5 85 38 3a 5f de 39 2c 22 80 37 cc 55 a0 38
       6.378632e-05 0.0004241409 1.5274702e-05 7.6453754e-05
0000b0 fe b1 80 b7 1f eb bf 39 78 4f 69 b9 7b 05 e1 b9
       -1.5341673e-05 0.00036605538 -0.00022250216 -0.00042919428
0000c0 8f 89 0e 3a 44 b2 cc b9 a0 43 f9 b8 bc c1 e1 38
       0.0005437368 -0.0003904273 -0.000118858414 0.00010764922
0000d0 d4 20 8f 38 12 7b 08 b8 d8 85 40 39 2e 5c 8e b7
       6.824886e-05 -3.2539545e-05 0.00018360408 -1.6970644e-05
0000e0 b9 4a d3 39 7e d3 51 39 f4 de 48 39 8b 61 f5 39
       0.0004030073 0.0002001058 0.00019156543 0.00046802717
0000f0 a8 61 db 39 61 dd 01 3a 36 76 c4 b9 86 58 ba 39
       0.00041843695 0.00049539475 -0.00037472107 0.0003554264
000100 84 ef 0e 3e 94 14 ee 3d d6 59 5f bd 8f 39 a5 bd
       0.13958555 0.11625019 -0.054529034 -0.08067619
000110 3e 6f 06 be 28 22 80 ba c3 36 8a 3d 22 04 be 3d
       -0.13128373 -0.0009775804 0.06748726 0.09278132
000120 8d ab 0e bc 74 c9 9a bd 75 7c a4 bd 1c 7c f2 3d
       -0.008707893 -0.075579554 -0.08031551 0.11840078
000130 c8 81 7b 3d a2 ef 6a 3d 07 60 d0 bd 9b 9d b8 3d
       0.061403066 0.057357438 -0.10174566 0.09014436
000140 72 25 b6 bd e3 00 bf 3c f1 01 6a bd 7b 10 48 bd
       -0.08893861 0.023315853 -0.057130758 -0.048843842
000150 10 f3 b0 3d e4 cd 09 be 1f ce 72 3c 66 9b 39 3c
       0.086401105 -0.13457447 0.014819651 0.011328554
000160 65 55 f9 3d 9e 4f e5 bd 40 ce 25 3e cc b0 00 3d
       0.12174491 -0.111968264 0.1619196 0.031418607
000170 51 fc b1 3d c1 92 a0 3d 39 63 f8 bc 85 f4 84 bd
       0.08690704 0.07840491 -0.03032075 -0.06491951

transformer_encoder.layers.0.self_attn.out_proj.weight f4 [32, 32]
000000 62 36 92 3c 90 3e b5 3d 5f 56 d1 3d fe 5d 71 bd
       0.017848197 0.088498235 0.10221552 -0.05892753
000010 ad 0e aa 3d a1 f5 b8 bd e7 dd d2 3c 68 27 22 3d
       0.083035804 -0.09031225 0.025740577 0.039588362
000020 37 46 a4 3a f2 e3 9c 3d 3d eb 7f 3d 05 f1 4f bd
       0.0012533133 0.076606646 0.0624802 -0.050766964
000030 b6 6a 85 3d dc 6e cf 3d 68 5e 1b 3c 45 dd fc bc
       0.06514494 0.101285666 0.009482957 -0.030867228
000040 25 fe c1 bd 7b 86 24 3d 54 f7 93 3c 25 67 3d 3d
       -0.09472302 0.040167313 0.018062271 0.046240944
000050 97 21 54 bd f3 6d ac bd 62 1e 8e bd 2c f9 29 3c
       -0.051789846 -0.08419409 -0.06939389 0.010374349
000060 65 10 9d bd 4d 26 4b bd fa 4d 55 3d 07 64 e6 bd
       -0.07669143 -0.049597073 0.052076317 -0.112495475
000070 25 f1 f3 bd 05 12 ad 3d 99 2f cb 3b 9e e6 59 bc
       -0.11911229 0.084507026 0.0062007424 -0.013299612
000080 23 f2 56 3d d3 83 5d bd a4 be a2 bc 49 57 69 3e
       0.052477013 -0.054080795 -0.019866295 0.22787203
000090 e6 97 96 3b da 31 82 bd 9d 22 b0 bd 5f 0f 61 3c
       0.0045957444 -0.06357165 -0.08600352 0.013736575
0000a0 ed 4b 99 3c 23 3c 39 be 99 38 7a bd 28 81 9b 3c
       0.018712962 -0.18089347 -0.061089132 0.018982485
0000b0 2c 0a 6a be 10 d0 63 bd e0 cd b8 bc 4c a6 31 bd
       -0.22855443 -0.055618346 -0.022559106 -0.043371484
0000c0 c2 6e a9 3d 2c eb 80 be d0 6c 1f be 37 a1 d4 3c
       0.082730785 -0.25179422 -0.15568852 0.02595578
0000d0 86 93 c9 3d a3 79 0b be 50 fa 97 bd b2 dc 0c 3d
       0.09842591 -0.1362062 -0.0742079 0.03439016
0000e0 eb 90 0d 3d 77 00 13 bd 9e 86 88 bd 3a 39 03 3e
       0.034562033 -0.035889115 -0.06666301 0.12814799
0000f0 b2 61 35 be 75 4f 3b 3e cb af 3e 3e 2b 8a 97 3c
       -0.17713049 0.18292029 0.18621747 0.0184985
000100 f0 28 90 bd b4 d3 c8 3d c4 a7 12 3e c9 ed f6 3d
       -0.07039058 0.09806004 0.1432181 0.12057073
000110 fb cd 2f 3d c6 2c 18 3d 83 81 4d be c6 50 cb 3c
       0.042921048 0.037152074 -0.20068936 0.02481879
000120 db b9 ac bd 7f 7b 37 3d 11 82 4f be 6d fa b5 3d
       -0.084338866 0.04479551 -0.2026446 0.088856556
000130 4e ff ba 3d e0 6d 85 3c 02 b0 75 3e 1e a6 c2 3d
       0.09130727 0.016287744 0.23992923 0.095043406
000140 0a 05 1f 3d a6 b2 d4 3d 6d 71 83 3d dd cf 6c bd
       0.038823165 0.10385637 0.064181186 -0.05781542
000150 07 98 8d bd 55 be 0c be 1b 0f 07 be 77 b4 bd 3d
       -0.069137625 -0.13744481 -0.13189356 0.092629366
000160 84 a0 a4 bd 08 6f 11 3d 5e 4e c3 bd 6c 0c 0d 3e
       -0.080384284 0.03550628 -0.09536432 0.1377427
000170 69 3c ef bd 3b bd 4e be 5f 74 0f bd a9 7d 4e 3d
       -0.11681444 -0.20189373 -0.03502309 0.050412808
000180 25 29 54 bd 36 fd 8a bc 86 de 01 3d 39 02 65 3d
       -0.05179705 -0.016966444 0.031706356 0.055910323
000190 7f 50 09 bc 9b a2 12 bd fb 0c 41 3d c1 89 8e bc
       -0.008381008 -0.035799604 0.04713152 -0.01739967
0001a0 9d 88 00 bd e1 0a 4d 3c 16 9a 86 bd e9 75 c0 3d
       -0.031380285 0.012514801 -0.06572358 0.093974896
0001b0 95 b1 26 3e 8f 65 b7 3d 90 ce 2d 3d fa 8e 84 3c
       0.1627868 0.08954918 0.04243332 0.016181458
0001c0 b9 0f 21 3c 9c 40 e4 3d f4 fc c6 3d 2a 1e 8a 3d
       0.009830409 0.11145136 0.09716216 0.067440346
0001d0 b3 00 6e 3d 2e a0 e2 3b 99 76 18 bd 83 0f 8d 3b
       0.058106136 0.0069160676 -0.03722248 0.0043048277
0001e0 40 9d d1 bd df e5 04 3c 5e b9 21 bd 0b 1d 9e bc
       -0.10235071 0.008111446 -0.03948342 -0.019300958
0001f0 3b 21 f2 ba 0c f3 f9 bc 77 69 0b 3d a3 f2 20 bc
       -0.0018473038 -0.030511402 0.034036126 -0.009823474
000200 bb d1 06 bd fc e2 77 3d e8 eb f2 3d 2f ee 93 3d
       -0.03291486 0.060519204 0.11861402 0.07223164
000210 fe 3a a6 3d e7 e0 51 3d 81 7e db bd 60 a3 e3 bd
       0.081167206 0.051239874 -0.10717488 -0.11115146
000220 ff 95 65 bd 3a 27 38 bd ad 4a de bc 0e 94 00 be
       -0.05605125 -0.044959284 -0.027135218 -0.12556478
000230 e1 0b f1 3d 2e 76 68 3d 69 2f 7f 3e 70 4f 1a 3e
       0.11769844 0.05675333 0.2492043 0.15069366
000240 02 07 71 3d 00 e7 20 bc 2c 11 8d bd 15 08 79 3d
       0.058844574 -0.0098207 -0.06888041 0.060798723
000250 c2 a3 4d bd 8a 8b cf bc 14 20 62 bd f7 99 8b bd
       -0.050205 -0.025335092 -0.055206373 -0.06816476
000260 76 d2 01 3b 15 96 a3 3d ff 93 07 3c 9e 82 07 be
       0.0019809282 0.0798761 0.008275031 -0.1323342
000270 d9 68 91 3d b7 1e 80 3d 63 11 d9 3a 33 e0 00 3e
       0.07100076 0.062558584 0.0016560968 0.12585525
000280 1a 5d 80 3d 9d b7 70 bb b1 25 17 3d 2d cc 48 3b
       0.06267758 -0.0036730536 0.03690118 0.0030639276
000290 e5 07 fc bc 68 ad da bd eb 73 8b 3a 8a 08 83 3d
       -0.030765483 -0.10677606 0.0010639405 0.06398113
0002a0 cc a8 28 bd 0e c0 e5 bc 69 eb bb 3d d6 75 05 bd
       -0.041176602 -0.02804568 0.0917576 -0.03258308
0002b0 72 ec 80 bc b2 e1 81 3c 4d ce da 3d 6f 4d 21 3d
       -0.015737746 0.01585469 0.1068388 0.039380487
0002c0 ae da bc 3d c0 d3 82 bd 0a aa ae bd 8c 25 43 bd
       0.09221397 -0.06388044 -0.08528526 -0.04764323
0002d0 54 21 a2 bc b2 fb 52 bc 6d 9a c4 bd a2 ba 3d 3d
       -0.019791283 -0.012877392 -0.09599767 0.046320565
0002e0 36 f3 bf bc 22 d7 55 3d f6 64 1e bd 7e 4f 17 bd
       -0.023431402 0.05220712 -0.038670503 -0.036941044
0002f0 66 59 e0 bc 81 db 6e bd eb 60 89 3c c9 90 f5 3c
       -0.027386378 -0.058314804 0.016769847 0.029976266
000300 54 f0 6e 3b ac 4d c6 bc cf 34 ae bb 3c f7 2e 3d
       0.0036459165 -0.024206959 -0.005316354 0.04271625
000310 9a 60 5e bc 72 2e 7a 3d 34 4f e1 bc e9 5b cf 3c
       -0.013572836 0.06107945 -0.027503587 0.02531238
000320 21 60 28 3c a1 0b 37 3c 19 55 2d bd e1 99 45 3c
       0.010276825 0.011172206 -0.042317484 0.012060613
000330 ef 00 d3 bc 7f 68 8b bd 5a cd 19 3d 19 e0 6f 3d
       -0.025757281 -0.068070404 0.037549354 0.058563326
000340 02 c6 1e 3d 2a 42 84 bd 50 62 8a 3c 1e 7b 95 bb
       0.038763054 -0.06457932 0.016892582 -0.004561796
000350 a3 9a ab bc f1 25 11 3d 30 d0 33 3c ba e9 83 3d
       -0.02094776 0.035436574 0.010974929 0.06441064
000360 94 7d 69 3d cd 72 a1 3c a8 56 88 3c 2b 5b a0 3c
       0.057004526 0.019708062 0.016642883 0.019574722
000370 01 f7 d6 3c 30 5e 92 bd 1b 93 fd bc 74 02 b4 bb
       0.026240828 -0.07146871 -0.030953934 -0.0054934565
000380 91 21 80 3d 3b 72 e9 3d a0 47 04 3d 6b ec 35 3d
       0.06256402 0.11398741 0.03229487 0.04441492
000390 d5 0c 8f bb c4 00 01 3e cd 7a 85 bc f6 39 9e bc
       -0.0043655434 0.12597948 -0.016293908 -0.019314747
0003a0 f6 07 bf 3b df f5 24 3e b3 9c 73 3e bc ae ba 3d
       0.0058298064 0.16109417 0.23790245 0.09115359
0003b0 6e e1 14 be b6 ec d4 bc 17 81 a4 3d 8e 6d be bd
       -0.1453912 -0.025991779 0.080324344 -0.0929824
0003c0 a0 16 35 3d ac ba 60 be f6 ba 15 bb 3b 2b 02 3e
       0.04421103 -0.2194621 -0.0022847033 0.12711804
0003d0 d0 32 d9 3d 92 16 a2 3b 62 cf 16 3d b7 a0 98 3d
       0.10605395 0.0049465382 0.03681887 0.07452529
0003e0 a0 38 07 3d 08 67 47 3e 0e 46 0a 3d 56 6e 61 bd
       0.033012986 0.19472897 0.033758216 -0.055036865
0003f0 08 a1 1d 3e ae d1 26 3d 7c d5 81 3b 44 86 9d 3c
       0.1539346 0.04072731 0.003962217 0.019229062

transformer_encoder.layers.0.self_attn.out_proj.bias f4 [32]
000000 fb 0f 9a bd ce 3c 2b be b0 56 20 bd dd f8 20 3c
       -0.07522579 -0.16722414 -0.03914517 0.009824959
000010 8d 7b 0a be 12 0e 8e bd 29 46 ab bd d3 f9 80 bd
       -0.13523693 -0.069362774 -0.08362991 -0.0629765
000020 f7 3d a8 3c cf ed 0c be 16 86 52 3c 6d 74 b1 3e
       0.02053736 -0.13762592 0.012849351 0.34659138
000030 b8 e5 e8 3d e1 d0 a4 bc 87 82 10 3e 81 a4 fb bb
       0.113719404 -0.020119132 0.14112292 -0.0076795225
000040 2d 2c d6 bc 7e 72 40 3e ee 3b 24 bd 02 5b bc 3d
       -0.026144112 0.18793675 -0.040096216 0.09197046
000050 4e ec ba be 40 56 bc bc a0 f3 4d 3c 4b 46 f6 3b
       -0.3650841 -0.022990346 0.012570292 0.007515704
000060 65 61 55 be 8f 2d dd 3d 22 36 9e bd d8 66 87 bd
       -0.20837934 0.10799705 -0.07725169 -0.06611413
000070 bc ab 50 3b 7d 12 1d 3f 61 91 4a 3d 8a 53 64 3c
       0.0031840643 0.61356336 0.04945505 0.013935933

transformer_encoder.layers.0.linear1.weight f4 [64, 32]
000000 c5 1e 88 3d 58 4b e1 3b 14 fb c6 bd 7e 5d 60 3c
       0.06646494 0.0068754368 -0.09715858 0.013694165
000010 04 46 08 3e e0 01 ba 3d a6 c8 0d 3f 23 ee 68 3e
       0.13307959 0.09082389 0.5538429 0.22747092
000020 45 9d c0 3d a9 e3 5d 3d 60 bf a9 bd 07 fa 34 3d
       0.09404997 0.05417219 -0.08288455 0.044183757
000030 b0 a0 4b 3e 4f 39 1f 3d c7 15 27 3d 62 bc 7d bd
       0.19885516 0.038873013 0.040792253 -0.061947234
000040 7f 10 f7 bd 76 1a 11 be c4 50 b2 bc 9d b4 1a bf
       -0.12063693 -0.1417025 -0.021767028 -0.60431844
000050 bd 80 4b be e5 61 d8 bd b4 88 57 bc d3 ba c2 bd
       -0.19873329 -0.10565547 -0.013155151 -0.0950829
000060 7c 70 08 3d 1e 8c 21 bf 5b 86 e0 3c 38 d2 0a 3e
       0.0333104 -0.63104427 0.027407816 0.13556755
000070 35 1a 06 3e 2a a4 5d 3c b0 7f 15 3d b4 9b a8 bd
       0.13095935 0.013527909 0.036498725 -0.08232823
000080 b0 e3 b1 3e af ae 5e bc 3e 38 19 3e 25 27 93 3d
       0.34744024 -0.0135914525 0.14962861 0.071852006
000090 0b 46 6b 3d d2 80 44 be 95 62 28 3f b0 27 3f 3d
       0.057439845 -0.19189766 0.65775424 0.04666871
0000a0 47 44 86 3d 46 a9 13 3e 3e 27 20 be f3 ce 79 3c
       0.065559916 0.14420041 -0.1563997 0.015247094
0000b0 e5 ae 59 3d a5 a2 10 3e cf c7 89 bd cd a5 15 bd
       0.053145308 0.14124544 -0.067275636 -0.036535073
0000c0 db 3b b6 3d b1 1f ab bd 64 f3 fb 3d 96 56 b5 be
       0.08898135 -0.08355654 0.123022825 -0.35417622
0000d0 95 af c5 3a 14 0c bb bc 31 f5 4f 3e 5b ae e8 3d
       0.0015082235 -0.022832908 0.20308377 0.11361381
0000e0 ba 3f 32 3d a4 b4 ba be ab e2 5b be a1 a2 e7 3c
       0.043517806 -0.36465943 -0.21473186 0.02827579
0000f0 3a 5b 3d be fe 67 99 3d ff a8 a0 bc 13 61 c9 3d
       -0.18491831 0.07490538 -0.019611834 0.098329686
000100 7d 77 ee 3a 61 2d 1e bd fa 0a 0a bd 3d bb 86 3c
       0.0018193569 -0.038617495 -0.033701874 0.016446704
000110 98 5d 58 be 24 17 19 be b0 42 54 3b 50 bc ed 3d
       -0.21129453 -0.14950234 0.0032388382 0.116081834
000120 29 2a e7 bd 19 59 a6 bd 3b 7a 5f 3c f7 92 50 3d
       -0.11287338 -0.08122463 0.013639982 0.050921407
000130 e3 e4 8e 3d f9 1a 8c bd 10 bd e2 3b 21 81 f8 bd
       0.069772504 -0.06841082 0.0069195107 -0.121340044
000140 bb cf 8b 3e 83 f1 d2 3c 68 07 26 3f f9 13 fb 3c
       0.27306923 0.025749927 0.6485505 0.030649172
000150 4d e6 42 bc 5e 72 2b be 69 88 81 3d ad 5f 14 3d
       -0.011895728 -0.16742846 0.06324846 0.036224056
000160 bb f3 cd bd 50 a1 02 3d 58 fa e3 bd fd e1 00 be
       -0.100562535 0.03189212 -0.11131734 -0.12586208
000170 ff b9 70 3e 02 1c 1f 3d 8b 2e 97 3c c3 7e 2f bd
       0.23508452 0.03884507 0.01845481 -0.0428455
000180 c5 08 50 3c e2 b5 65 3c c6 f4 f0 be 0c 5c 0d be
       0.012697403 0.014020415 -0.47061747 -0.13804644
000190 6a d4 6f be f6 f3 91 be 25 26 e2 bb 4e d0 9c bc
       -0.23420873 -0.2850644 -0.00690152 -0.019142296
0001a0 f0 36 0e be ea 8e 9b 3e f6 46 55 bd b5 86 97 bd
       -0.13888144 0.30382472 -0.052069627 -0.0739874
0001b0 2d cc 16 3e 09 c4 5a be 31 ed 07 3d 75 27 ec 3d
       0.14726324 -0.21363844 0.033185188 0.11530963
0001c0 6c ff 84 be 10 63 c9 3d e3 ad 9c 3e 73 86 87 bd
       -0.2597612 0.09833348 0.30601415 -0.06617441
0001d0 eb 5b 03 3e bf 62 92 3e 9f 48 e8 be 27 c9 06 3e
       0.12828033 0.28590962 -0.45367905 0.13162671
0001e0 41 c0 2f 3e d5 b9 5c bc ff 9c b5 3e 20 83 57 bd
       0.17163183 -0.01347204 0.3547134 -0.052615285
0001f0 9a fc c4 be e5 f6 26 bc 55 3e 6d 3d 69 01 bb bd
       -0.3847397 -0.0101907 0.057920773 -0.09131128
000200 52 be dd 3e b5 e7 24 bd d5 3d 06 3d 52 8d 0a 3e
       0.43309265 -0.040260036 0.03277381 0.13530472
000210 df c1 ea 3d 3b 43 eb be e0 07 f5 3e f8 d1 94 bc
       0.11462759 -0.4594973 0.4785757 -0.018166527
000220 77 02 8c be 8c c0 be bc 38 40 80 bd 71 20 a8 3d
       -0.2734563 -0.023285173 -0.06262249 0.08209313
000230 cb db 9d bc 25 18 0b 3e b5 13 7b 3c 14 33 a4 3d
       -0.019269845 0.13583429 0.015324523 0.08017555
000240 c5 61 b8 3c a3 2d fa bc 9a 72 29 bd c4 91 9e be
       0.022507558 -0.03053934 -0.04136906 -0.30970585
000250 f6 cb 9f 3d 91 d4 7f 3c 13 92 ad bd 3a 4f 28 3c
       0.07802574 0.015614645 -0.08475127 0.010272795
000260 05 2f 51 3d 50 04 ca be d9 d2 63 3e f6 2f 88 3d
       0.051070232 -0.39456415 0.22248401 0.06649773
000270 77 6a 46 bd 97 58 a6 3d 36 c3 a6 3d 76 39 b8 3d
       -0.048441377 0.08122366 0.08142702 0.08995335
000280 1f c6 81 bd 84 bd 34 3e fe af 52 3e a8 86 28 bf
       -0.06336617 0.1765042 0.20574948 -0.6583047
000290 1d 54 85 3e d5 6d d8 3c 52 a9 d5 bd d4 af 2f 3d
       0.26040736 0.02641956 -0.10432686 0.042892292
0002a0 d6 60 0d bd e9 39 96 3d 2c a5 a1 be b3 61 8a bd
       -0.034516178 0.07335264 -0.3157133 -0.06756916
0002b0 30 96 2a 3d 56 27 66 bc c1 94 1e be 53 25 d6 3d
       0.041647136 -0.014047464 -0.15486433 0.10456338
0002c0 0c bf 22 3e 4a f2 b0 3c a8 19 b0 3d 1a c8 1c 3e
       0.15893191 0.021599907 0.085986435 0.15310708
0002d0 6b 0c e7 3d 13 28 60 3d fa 31 0c 3e 99 66 eb 3d
       0.112816654 0.054725718 0.1369094 0.11494178
0002e0 33 ae 07 3d f9 a3 ab bd 94 f2 58 3d 2c c9 bf 3d
       0.033125114 -0.08380885 0.052965716 0.09364542
0002f0 90 34 13 3e 74 a9 17 3d cd 8c 22 3d 9c 8a 88 bd
       0.1437552 0.037026837 0.03968506 -0.06667063
000300 13 bc 03 be 66 25 00 3e 86 c0 4b be fb 1e 81 3d
       -0.12864713 0.12514266 -0.1989766 0.06304737
000310 c9 59 d3 bd 41 90 9c 3d 8b dc 04 be a1 c1 62 3d
       -0.103198595 0.07644702 -0.12974755 0.05536044
000320 ec 51 a4 3d ad da a8 3e b8 fa 2b 3d 2f 80 13 be
       0.08023438 0.32979336 0.04198715 -0.14404367
000330 94 62 56 be 22 19 5a be ac 05 fa 3c db b5 51 be
       -0.20936042 -0.2129865 0.030520283 -0.20479529
000340 62 cf 0b bd af 7a b7 3d c1 1f 40 be 4b b1 48 3a
       -0.034133323 0.08958947 -0.18762113 0.0007655813
000350 5b 53 07 3d 46 d6 60 be d8 2f f7 be b9 ca 6b be
       0.03303848 -0.21956739 -0.4827869 -0.23026551
000360 18 4d 84 3d 3f 25 b4 3d 67 5c d9 bd 8a a3 fe bd
       0.06460017 0.08796167 -0.106133275 -0.12433536
000370 6e 06 4c bd ad 3d 85 3c 34 f1 c2 3d 77 70 b9 3d
       -0.04981082 0.01626476 0.09518662 0.09054654
000380 ea a5 02 3f ba cc e6 3d d8 6a ef 3b 0e 9a 20 3e
       0.51034415 0.11269517 0.007306438 0.15683767
000390 b4 24 8b bd 5e 3d e7 bd d9 bf 54 3f 0d 62 03 3c
       -0.0679411 -0.11291002 0.83105236 0.008018983
0003a0 a5 47 4f 3d 12 d4 39 3c ef 58 84 be 86 3c 27 bd
       0.050605435 0.011342065 -0.258491 -0.040829204
0003b0 7e c0 dc bd 9c b7 1a 3e 51 0a a4 be 79 4c 81 be
       -0.107789025 0.15109104 -0.3203912 -0.25253657
0003c0 2d 67 1c bc 4d a0 10 3d 2e 99 8d 3b 63 26 21 bf
       -0.009546083 0.035309125 0.004321239 -0.629492
0003d0 66 a2 1c 3d ab d7 3d be ce d9 6a 3b 7f 73 cc bd
       0.038240813 -0.18539302 0.0035835388 -0.09982967
0003e0 f9 97 d1 bd ef 54 07 bf f7 06 40 be 1a 4c ac bd
       -0.102340646 -0.52863973 -0.18752657 -0.08412953
0003f0 b6 b6 f4 3d 50 0a 92 bd 6f 11 f0 bd 7f 45 d5 3c
       0.11948912 -0.07130873 -0.11722075 0.026034115

transformer_encoder.layers.0.linear1.bias f4 [64]
000000 de 6f 1f 3e c7 84 19 3e 87 d0 82 3d 67 08 3c 3e
       0.15570018 0.14992057 0.0638743 0.1836258
000010 62 86 00 3e 2e 98 f1 bb b8 d0 43 ba 97 b2 08 3e
       0.12551263 -0.0073728776 -0.0007469761 0.13349377
000020 c7 2f cc bd 04 b9 1a be 3f 08 60 3e 69 10 4f 3d
       -0.0997005 -0.1510964 0.21878146 0.05055276
000030 d0 a6 dd bd f3 71 2d 3e 1f b2 54 3d e0 7b 3a be
       -0.108228326 0.16938 0.051927682 -0.18211317
000040 26 2f d4 bd 88 bd a3 bd 05 dc 9d bd 42 2d 84 3e
       -0.10360555 -0.079951346 -0.07707981 0.2581578
000050 69 71 80 3d 45 38 8a 3d f0 0d 32 3b 45 58 18 be
       0.06271631 0.06749014 0.0027168952 -0.14877422
000060 bf f4 d7 3d 1a 70 7a bd ae 3d 2a be 53 67 93 bb
       0.105447285 -0.061142065 -0.16625091 -0.004498401
000070 f9 f5 aa be 57 b6 04 3e 90 5e e2 3c 20 bc cc 3c
       -0.33390787 0.12960182 0.027632982 0.024992049
000080 ec c9 50 be 5d 9c 68 be f2 22 d2 bd 97 ec 59 3d
       -0.20389527 -0.22715898 -0.102605715 0.053204145
000090 33 d6 89 bb 4f 09 16 be 98 d6 e6 3c 1b 65 10 3e
       -0.0042064427 -0.14651988 0.028178498 0.14101069
0000a0 90 34 97 3d 10 fb 66 3d 88 bb ff bd 8e 86 3c bd
       0.073830724 0.056391776 -0.124869406 -0.04602676
0000b0 06 f6 1b be 79 89 dd bd ab e2 9d 3c 22 d9 cf 3d
       -0.15230569 -0.108172365 0.019273123 0.10148837
0000c0 a1 ac 9e be ba 60 92 bd 3f 0f 7a 3e 03 e0 83 bd
       -0.3099108 -0.071473554 0.24419878 -0.06439211
0000d0 d5 83 ab bc 50 e2 87 3d af 5b 4e bc b1 63 31 be
       -0.020936886 0.066349626 -0.012595101 -0.17323186
0000e0 56 e3 f9 bd dc c9 b9 bc 43 fc 9c be 50 0c 74 3c
       -0.12201564 -0.022679262 -0.3066121 0.014895514
0000f0 ef b4 7b 3d a0 c8 56 bd 2b e9 bf 3c 9d 45 e0 3d
       0.06145185 -0.052437425 0.023426613 0.10950778

transformer_encoder.layers.0.linear2.weight f4 [32, 64]
000000 43 3c 30 bc d7 cc b5 3c 2f 2a 2a bc e1 24 48 bf
       -0.010756555 0.022192402 -0.010386034 -0.7818127
000010 b2 b0 e4 3b 8f 7e 72 3d bf f6 ba 3d 5f bd 34 be
       0.0069790715 0.059202727 0.09129094 -0.17650364
000020 53 81 68 be 24 a3 bd be 82 ac 2a bd fd 63 0f be
       -0.22705583 -0.3703853 -0.041668423 -0.14002986
000030 fe 36 f7 bd 16 06 8d 3d e0 e3 52 bd 10 33 72 3e
       -0.12071036 0.068859264 -0.05148685 0.23652291
000040 ad d8 93 bd 96 7e b3 ba a8 fa b8 bd fd 48 9c 3d
       -0.07219062 -0.0013694342 -0.09032184 0.07631109
000050 5a ea cf bd c7 6e 36 3d 88 bf 58 be 48 f5 94 3e
       -0.10152121 0.04453924 -0.21166813 0.29093385
000060 33 af d3 3d 08 98 e8 be e7 2f 27 3e 40 a2 08 be
       0.10336151 -0.4542849 0.16326867 -0.13343143
000070 a5 c1 f0 bd 81 e8 ef 3d 1a 75 1d 3e b7 5a 66 be
       -0.11755685 0.117142685 0.15376702 -0.22495542
000080 7e ad 06 bd 38 23 1c be 09 60 1b be 62 26 0d c0
       -0.0328803 -0.1524781 -0.15173353 -2.2054677
000090 ff d0 f9 bf e2 e4 4f be ed 4f 5f be 9e 72 55 3d
       -1.9516906 -0.20302156 -0.21807833 0.05211126
0000a0 2b aa f4 bf 1f 86 50 3e d1 1d f9 3c 36 d3 d0 3c
       -1.9114431 0.20363663 0.030409725 0.025491338
0000b0 1e 53 92 bc c7 86 14 bd e0 1e da 3d ae 5f 5d 3c
       -0.017861899 -0.036261346 0.1065042 0.013511581
0000c0 b7 fb 09 be ca 48 c9 bb 72 26 87 3d b4 f5 10 3e
       -0.13474928 -0.0061427103 0.0659913 0.14156228
0000d0 b7 9e eb bd 33 ea 70 3e 51 38 83 3b 4c 6e 72 3d
       -0.11504882 0.2352684 0.004004516 0.05918722
0000e0 e9 b9 87 be 8f c2 b2 be 96 f3 56 3c 58 04 34 3d
       -0.26509026 -0.3491406 0.013119599 0.043949455
0000f0 b4 9a 1e bd f4 6e 80 bb 86 81 22 bf 43 da 7c bd
       -0.038721755 -0.0039194766 -0.6347889 -0.061731588
000100 7c c0 a7 bd 0f b9 a7 bd 47 01 ad bd 33 4b a7 3d
       -0.0819101 -0.08189594 -0.08447509 0.0816864
000110 c0 b2 5f bd 95 99 71 3e 79 46 07 3e 9e 2a a2 bd
       -0.05461383 0.23593743 0.13210477 -0.07918285
000120 b1 a9 26 bc 7c 6d ce 3d 40 22 9a 3d 62 14 10 3d
       -0.0101722935 0.10079476 0.07526064 0.03517569
000130 92 02 10 3d 08 72 26 3d 2f 2d f6 3d e1 9a 4d 3e
       0.0351587 0.040636092 0.12020337 0.20078613
000140 e8 f7 bf bc ec 74 4e 3d 4a 47 ed bd a7 ac e8 bc
       -0.02343364 0.050404474 -0.11585863 -0.02840264
000150 91 0a 51 3c 4e b2 1a 3e 62 03 2d bd 31 fb 95 38
       0.012758867 0.1510708 -0.042239554 7.151662e-05
000160 2c bd d8 bd 1e de 36 3e f4 49 8f 3d 3a 89 fd bb
       -0.10582957 0.17858168 0.06996527 -0.007737306
000170 35 83 16 be 64 52 dd 3d b1 07 4e bd 36 61 03 be
       -0.14698489 0.108067304 -0.050300304 -0.12830052
000180 86 e2 ef 3d d4 5f ff 3c 9e b3 6e 3d 80 81 bd 3c
       0.11713128 0.031173624 0.058276765 0.02313304
000190 77 88 14 3e ee 6a 41 3e 6e 3c 96 3d 2a 8e 11 bd
       0.14505182 0.18888447 0.07335745 -0.03553597
0001a0 3a 60 a8 3d b9 59 30 3e 5e c7 b3 3d 6a fe 02 3e
       0.08221479 0.17221726 0.08778261 0.12792364
0001b0 7c 83 41 3d d3 74 1c 3e 43 71 d6 bb 4a 78 88 bc
       0.047244534 0.1527894 -0.0065442636 -0.01665892
0001c0 d6 0c 27 3d e4 77 12 3d 57 92 b7 bd da 6e 87 3d
       0.040783726 0.035758868 -0.08963459 0.0661294
0001d0 28 33 cf bc eb c6 01 3d 10 06 9a 3d c4 4b 0e bd
       -0.025292948 0.031683844 0.075206876 -0.034740224
0001e0 c6 a0 00 3e 2d 42 84 3d cc 1f 35 3d 0f b5 47 be
       0.1256133 0.064579345 0.044219777 -0.19502662
0001f0 47 0b 3c be a8 50 f5 bd 89 63 9c 3d a8 c4 d4 bc
       -0.18363677 -0.119782746 0.07636172 -0.02597268
000200 e6 4f 82 bd 24 29 b1 bd 52 01 c4 bd 9d e5 28 3e
       -0.06362896 -0.08650425 -0.09570564 0.1649384
000210 81 cf a6 bd 70 d2 b0 bd e8 1d 3a bc cc 55 3b be
       -0.08145047 -0.08633888 -0.011359669 -0.18294448
000220 0b fd 9b bc bc 56 c7 3d b6 52 54 be 52 9e 79 be
       -0.019041559 0.0973334 -0.20734677 -0.243768
000230 8a f1 66 be a7 30 e2 bd e1 20 87 bd 50 e8 d1 bd
       -0.22553077 -0.11044436 -0.06598068 -0.10249388
000240 c1 cd 92 3d e0 c4 34 3c bd 42 fa 3d b9 f1 05 be
       0.07168151 0.011033267 0.122197606 -0.13080491
000250 e0 7c 41 bd e2 03 6f bd 08 90 e8 bd 6e e2 23 bd
       -0.04723823 -0.058353312 -0.11355597 -0.040010862
000260 69 2c ea 3d 59 83 a7 3d a2 38 48 bb 22 0b 90 3b
       0.11434252 0.081793495 -0.0030551334 0.0043958584
000270 e4 50 95 bc dc dc 5e be 9e 29 81 bd c7 6f 1c be
       -0.018227048 -0.21763939 -0.06306766 -0.15277015
000280 65 7e d7 bc 52 62 5f 3d 6e 1e 3d 3d 89 cd 83 bc
       -0.026305387 0.054537125 0.046171598 -0.016089218
000290 e8 5d 04 3e 2d 1e bb 3d 92 61 a4 3c c9 b1 d1 bd
       0.12926447 0.09136615 0.020066056 -0.10238988
0002a0 e8 a4 b1 3d 10 ef 48 3d 76 78 07 bd a1 94 04 3e
       0.086740315 0.049056113 -0.033073865 0.12947322
0002b0 42 48 a5 3c 10 f2 60 bd f0 95 16 be eb 63 29 be
       0.020176057 -0.05491835 -0.14705634 -0.16542022
0002c0 01 dd 18 ba fb c8 04 3e e1 cd 90 be 98 ba eb 3d
       -0.0005831272 0.12967293 -0.28282073 0.11510199
0002d0 9b d7 96 bd 6c 82 aa 3d 98 7b 5e bd d4 d6 8f 3d
       -0.07365342 0.08325657 -0.054317087 0.07023397
0002e0 ba 8f 07 3e 7e 9c 2b 3d 65 c8 ce 3d e8 5e 75 bd
       0.13238421 0.04189729 0.10096816 -0.059904963
0002f0 66 7a 58 bd bf c1 32 be a9 fc 82 3c c8 62 9d bd
       -0.052851103 -0.17456721 0.015989618 -0.07684857
000300 94 f4 df bc 8c 3f e4 bc 74 3b 43 be e5 06 2c 3d
       -0.027338304 -0.027862333 -0.19065648 0.041998763
000310 13 02 ef bd 25 ba ca 3d 38 69 a2 bd 40 1f eb bd
       -0.116703175 0.098987855 -0.07930225 -0.1148057
000320 d6 c9 21 bd 14 23 72 3c 56 50 89 3b 84 70 5b bd
       -0.039499126 0.014778871 0.004190485 -0.0535741
000330 36 d3 17 3d bd 96 aa bd 82 3d fd bd 95 f6 98 bd
       0.03706666 -0.08329532 -0.12365247 -0.07468907
000340 93 5e 2b be e9 8b e1 bd f0 c1 be 3c 6a 40 0e bd
       -0.16735296 -0.11013014 0.023285836 -0.0347294
000350 62 65 12 be e9 17 61 bc 15 9c 13 bd 46 07 b7 bd
       -0.14296487 -0.013738611 -0.036037523 -0.08936934
000360 cd 66 b8 bc b1 2c 71 3d 3b c0 d5 bc 21 ce 57 bb
       -0.022509957 0.05888051 -0.02609264 -0.003292926
000370 4b 28 0c 3e ab 1e 94 be b4 90 bd bd 0e dc ca bd
       0.13687246 -0.28929648 -0.092561156 -0.09905253
000380 fd 0f e5 3c 87 d6 10 bc 90 90 55 3d bb b9 96 3d
       0.027961725 -0.00884021 0.05213982 0.07359644
000390 ee d1 d7 3d 8b 53 a4 3d 98 2a da bc 84 76 96 be
       0.10538088 0.08023747 -0.026631638 -0.29387295
0003a0 8e 24 d9 3d 80 f6 bb bd ef d0 f2 bc d7 c7 e9 bc
       0.106026754 -0.091778755 -0.029640643 -0.028537674
0003b0 4c 35 3e 3e 3d ca df 3c f3 8b 04 be 43 9d 98 bd
       0.18575019 0.027318114 -0.12944011 -0.0745187
0003c0 f5 3f 84 3c ef 61 d7 bd 36 0e 47 3d 8f d0 c3 bd
       0.016143778 -0.10516726 0.048597537 -0.09561264
0003d0 07 01 86 bd d0 fe cd bd 37 6c c5 bd 8d 56 ba bd
       -0.06543165 -0.10058367 -0.09639781 -0.090985395
0003e0 85 5f e6 3c 8e 49 09 bd d7 9b 5a bd b1 37 dc bd
       0.02812172 -0.033517413 -0.053371277 -0.1075281
0003f0 00 f6 1b be 6e 60 da bd ed f0 cb ba d9 b8 29 bd
       -0.1523056 -0.10662924 -0.0015559472 -0.04143605

transformer_encoder.layers.0.linear2.bias f4 [32]
000000 85 28 4d be a8 7f 39 be 7d ae bf 3b 5a f3 b5 3d
       -0.20034988 -0.18115103 0.005849658 0.08884306
000010 40 b8 9c bd 10 7a 27 3d 46 50 3c be e1 f0 49 be
       -0.076523304 0.040887892 -0.18389997 -0.19720794
000020 eb 6f 42 bc f8 bd bf bb a4 ee de 3c f2 68 2e 3e
       -0.011867504 -0.0058515035 0.027213402 0.17032221
000030 74 fb 5e bd 99 90 d7 3d 1e 8d 3d 3e c4 86 80 bc
       -0.054439023 0.10525627 0.18510863 -0.015689261
000040 d4 66 17 bd 58 df f8 3d 13 bb 24 bc aa f4 ea 3d
       -0.0369633 0.121519744 -0.010054368 0.11472447
000050 33 46 9a bd b4 a5 ad bc cb 37 3b bd d4 51 1a bc
       -0.07532921 -0.021197177 -0.045707505 -0.009418923
000060 ff 1e 62 be 9b 48 08 3e 84 1c a4 bc f3 99 fb bd
       -0.22082137 0.13308947 -0.020033129 -0.12285223
000070 e8 03 45 bd e1 75 08 3e cb 66 0a bb fc 68 07 3d
       -0.04809943 0.13326217 -0.0021118398 0.033059105

transformer_encoder.layers.0.norm1.weight f4 [32]
000000 14 ca 9f 3f 6e 5a 6c 3f e7 61 1f 3f 6a ae 82 3f
       1.2483544 0.92325485 0.6225876 1.0209477
000010 9b 8a 35 3f 2c fe 70 3f b8 a5 c0 3f b0 bb 60 3f
       0.7091462 0.94137836 1.5050573 0.8778639
000020 f2 2f 4e 3f df d4 4b 3f 94 54 8d 3f a4 56 7b 3f
       0.8054191 0.7962169 1.1041436 0.9817908
000030 00 7a 28 3f f1 1e 15 3f d7 3b 90 3f 2b 63 ea 3e
       0.6581116 0.5825034 1.1268262 0.45778784
000040 78 af 3a 3f b2 9b 9e 3f 06 9c 94 3f 91 21 a6 3f
       0.72923994 1.2391264 1.1610115 1.2978994
000050 c2 4d 9b 3f 44 22 b3 3e 69 80 9a 3f 73 4e 0a 3f
       1.2133105 0.3498708 1.2070438 0.54025954
000060 2b 68 5b 3f f7 3c ae 3f dc 4e 83 3f 94 80 0d 3f
       0.8570582 1.3612355 1.0258441 0.5527432
000070 3a 3b 6f 3f 73 d3 b8 3f 5b a9 61 3f 0b cc 34 3f
       0.9344975 1.4439529 0.8814904 0.70623845
